src/Saved_models/agent_checkpoint_dueling.pth (torch, 577930 bytes, 28 tensors)

fc1.weight f4 [256, 6]
0	0x3cdcc1d0	0.026947886
1	0x4078c96f	3.8872945
2	0xc1668de9	-14.409646
3	0xc018cb1c	-2.3873968
4	0x407be1bb	3.9356525
5	0xc13f6736	-11.962698
6	0x3e04b378	0.12959087
7	0xc0868964	-4.2042713
8	0x4087da41	4.2453923
9	0x3f35bda8	0.7099252
10	0xc057a5ed	-3.3695023
11	0x3f388635	0.72079784
12	0x3e81a52f	0.25321338
13	0xc01913f6	-2.3918433
14	0x40a9fe46	5.312289
15	0xbfff2d25	-1.9935652
16	0xbfbf2f12	-1.493624
17	0x3f0d5c73	0.5521919
18	0xbeb9f1ec	-0.36317384
19	0x3de56c4f	0.11202299
20	0x3cbb253e	0.022844907
21	0xbe27254a	-0.16322818
22	0x3b2c231c	0.0026266044
23	0x3e2d27f5	0.16909774
24	0x3ce521d0	0.027970225
25	0x3f59015e	0.8476771
26	0xc08f7f69	-4.484303
27	0x40962d0b	4.6929984
28	0x3fb86e59	1.4408675
29	0xc094fbaf	-4.655723
30	0x3b989c2c	0.004657289
31	0x411d612c	9.836224
32	0x409f3155	4.974772
33	0xc13aec68	-11.682716
34	0x40fe4249	7.9455914
35	0xc16d8d60	-14.847015
36	0x3ddbd0c5	0.10733179
37	0xc1456f2f	-12.339644
38	0x412ea54a	10.915354
39	0xc1cf98dc	-25.949638
40	0xc155ab88	-13.354378
41	0xbe371263	-0.17878108
42	0x3dddfeb2	0.10839595
43	0xc08a1af8	-4.315792
44	0x40a07ddd	5.015364
45	0xbfd35b96	-1.6512325
46	0xc08295dc	-4.0807934
47	0x3e1ef322	0.15522435
48	0x3db53d9e	0.08849643
49	0x3f5f9cf0	0.8734884
50	0x4117eada	9.494837
51	0x41353f5f	11.327971
52	0x3f9ca809	1.223878
53	0x408037c4	4.0068073
54	0xbec5ece5	-0.386573
55	0x40112239	2.2677138
56	0xc11818f0	-9.506088
57	0xc067f70d	-3.6244538
58	0x4006981c	2.103034
59	0x41083e59	8.515222
60	0x3dba88fe	0.091081604
61	0xc0118974	-2.2740145
62	0x40a437a5	5.1317925
63	0xbfcfec6f	-1.6244029
64	0xbff5a009	-1.9189464
65	0x3f6e8ffd	0.9318846
66	0x3a899798	0.0010497449
67	0x3ffee211	1.991274
68	0x412d0a87	10.81507
69	0x4193f0d5	18.492594
70	0x3f9d4ba8	1.2288713
71	0x41e504be	28.627316
72	0xbd295ac0	-0.04134631
73	0xbecbebc5	-0.39828315
74	0x3ecb5e1e	0.39720243
75	0x3cac0640	0.020999074
76	0xbeac428b	-0.33644518
77	0xbece8b96	-0.4034087
78	0x3cd6794c	0.026180886
79	0x3ff00efd	1.8754574
80	0xc1219863	-10.099704
81	0x42591112	54.26667
82	0x40096dbd	2.147323
83	0x41aa3530	21.27597
84	0x3dd3407b	0.10315033
85	0x3f3506f2	0.7071372
86	0xc0453ea7	-3.081949
87	0x405e73eb	3.475825
88	0x3f9daae7	1.231778
89	0xc0aac04e	-5.3359747
90	0x3e9e391f	0.30902955
91	0xc0024435	-2.035413
92	0x40a4f585	5.1549706
93	0xc04a9ef5	-3.165952
94	0xbfa58d3d	-1.2933728
95	0x3dbe7f24	0.09301594
96	0x3bc2a5cb	0.005940174
97	0x412938c4	10.576359
98	0x40bdb4ad	5.928305
99	0xc1448960	-12.283539
100	0x40fda2fd	7.926146
101	0xc17a7b70	-15.655136
102	0xbe795dea	-0.24352232
103	0x3d987450	0.0744406
104	0x3c16fc20	0.009215385
105	0xbdb80d90	-0.08986962
106	0xbebdebbd	-0.37093917
107	0x3e105904	0.14096457
108	0x3e6244a1	0.22096492
109	0xc074c595	-3.8245595
110	0x40875415	4.229014
111	0x3ed8b0a7	0.42322275
112	0xc046c42d	-3.1057236
113	0x3d4ea206	0.050447486
114	0x3eac724f	0.3368096
115	0xbff48a63	-1.9104732
116	0x408d283d	4.411162
117	0xbf6a9904	-0.91639733
118	0xbfe169fd	-1.761047
119	0x3d533e3e	0.05157303
120	0xbe3f5898	-0.1868614
121	0x3e64847b	0.22316162
122	0xbeb31543	-0.3497716
123	0x3d927a2b	0.07152208
124	0xbd8b08be	-0.06788777
125	0xbe3f4338	-0.18677986
126	0xbe192f7a	-0.14959517
127	0xbe13dcb4	-0.1443966
128	0x3e957fda	0.29199106
129	0xbb659200	-0.003502965
130	0xbe8e43c1	-0.27786067
131	0xbeb529be	-0.3538341
132	0x3eb82782	0.35967642
133	0xc03f563e	-2.9896388
134	0x409b1454	4.8462315
135	0xbe9fad06	-0.31186694
136	0xc031625c	-2.7716284
137	0xbf04f52f	-0.5193662
138	0xbc1e8100	-0.009674311
139	0x3e7217ec	0.23641938
140	0xbeb86f79	-0.36022547
141	0x3e6d5de8	0.23180354
142	0xbe88869a	-0.26665193
143	0x3ea2ea08	0.31819177
144	0x3df77a27	0.120838456
145	0xbe6768aa	-0.2259852
146	0x410e277f	8.884643
147	0xc25c557d	-55.083485
148	0xbed85b1c	-0.4225701
149	0xc1730dfb	-15.190913
150	0xbeb75379	-0.35805872
151	0x3e58f960	0.21188879
152	0xbe90bd24	-0.28269303
153	0x3eb31bce	0.3498215
154	0xbe5a67c9	-0.21328653
155	0xbdf14c00	-0.11782074
156	0xbe2ca46e	-0.168596
157	0xbef00450	-0.4687829
158	0xbd06b646	-0.032888673
159	0x3dcb0ec1	0.099149235
160	0x3dcae7d2	0.099074975
161	0x3e58857f	0.21144675
162	0xbe06bd90	-0.1315825
163	0x3e6d50f0	0.23175406
164	0x3d7b22c0	0.061312437
165	0x3e65f064	0.22454983
166	0xbe77c277	-0.24195276
167	0xbca669a0	-0.020314038
168	0x3e6bbe3c	0.23021787
169	0xc066bfab	-3.6054485
170	0x405f4321	3.4884722
171	0x3fa7ec8d	1.3119065
172	0xc074af29	-3.823191
173	0x3fa9c169	1.3262149
174	0x3c9d12e8	0.019174054
175	0xc133aa67	-11.229102
176	0x4113bd02	9.2336445
177	0xc19055c3	-18.041876
178	0xc1270b26	-10.440222
179	0x3fb5263e	1.4152296
180	0xbe447a8d	-0.19187374
181	0xbe9fd736	-0.3121888
182	0x3e5e37d0	0.21700978
183	0xbe645bce	-0.22300646
184	0xbea6d6dc	-0.325858
185	0x3de4a0d0	0.11163485
186	0x3b87b01f	0.0041408683
187	0x412465ce	10.274855
188	0x40a655ec	5.1979885
189	0xc13e2526	-11.884069
190	0x40fa2cf0	7.8179855
191	0xc1706532	-15.024706
192	0x3e53e050	0.20691037
193	0xbfb3e72e	-1.4054925
194	0x40b97c08	5.7963905
195	0xc0a2354e	-5.069007
196	0xbf9ddd49	-1.2333156
197	0xbf6f4c33	-0.93475646
198	0x3eab2f4f	0.3343453
199	0xc06711b3	-3.6104553
200	0x4072f507	3.7962053
201	0x3fb11d8c	1.3837142
202	0xc0475bd1	-3.114979
203	0x3fb927b2	1.4465239
204	0xbe829dc0	-0.2551098
205	0x3e49e026	0.19714412
206	0xbead33f3	-0.33828697
207	0xbecda875	-0.40167585
208	0xbd67aeae	-0.056563072
209	0xbf2d73ad	-0.6775463
210	0x3e2da56a	0.16957632
211	0xc09df40f	-4.9360423
212	0x4080023b	4.0002723
213	0xbf588811	-0.8458262
214	0xc09facb6	-4.989833
215	0xbeccbec3	-0.3998929
216	0x3e89df88	0.26928353
217	0xc013bf61	-2.3085558
218	0x40a49a20	5.143814
219	0xbfe3dfa0	-1.780262
220	0xbfd8e910	-1.6946125
221	0x3ea65c43	0.32492265
222	0x3ea6df87	0.32592413
223	0xc04103ea	-3.015864
224	0x4088bb93	4.2728972
225	0x3eefbc0d	0.4682316
226	0xc04de573	-3.2171295
227	0x3f7cc511	0.987382
228	0xbcbf209f	-0.023330985
229	0x401a8689	2.4144614
230	0x4088c24c	4.273718
231	0x41aea9ec	21.83297
232	0x3faddf65	1.35838
233	0x421c40ad	39.06316
234	0xbe53d95d	-0.20688386
235	0x3eaa183c	0.33221614
236	0xbe5906e8	-0.21194041
237	0xbd26ebd0	-0.040752232
238	0xbe914151	-0.28370145
239	0xbe03dc1a	-0.12876931
240	0x3d0191f3	0.03163333
241	0xc0fa6d23	-7.8258224
242	0x4071eb4e	3.7799869
243	0xbf9b3026	-1.2124069
244	0xc0f44ac8	-7.6341286
245	0x3f433b39	0.7626224
246	0x3eab57be	0.3346538
247	0xc065223b	-3.5802143
248	0x40784a8e	3.8795505
249	0x3f055451	0.5208178
250	0xc050511d	-3.2549508
251	0x3f3f9bbc	0.74847007
252	0x3ba511e6	0.005037534
253	0x4122ab55	10.166829
254	0x40a9b17c	5.3029156
255	0xc13d5e3d	-11.835507

fc1.bias f4 [256]
0	0xc0777f25	-3.8671353
1	0x400f49fa	2.2388902
2	0x405ac25b	3.4181125
3	0xbd59362c	-0.053030178
4	0xc0769118	-3.8526058
5	0xc052fde1	-3.2967455
6	0x4182dcdf	16.357847
7	0x400e945f	2.2278059
8	0x4141cbf8	12.112297
9	0xc09129f6	-4.536372
10	0x4062c955	3.5435383
11	0x4081deb2	4.0584345
12	0xbd9937d0	-0.074813485
13	0xc115cc3d	-9.362363
14	0x3f93764d	1.1520478
15	0x407bb36e	3.9328265
16	0xc0722ca6	-3.7839751
17	0xbcb5c940	-0.02219069
18	0x3ff144d4	1.884913
19	0x401e65f4	2.4749727
20	0xbe97c21a	-0.29640275
21	0x3e3047d4	0.172149
22	0x4017d09b	2.3721073
23	0x3e92e5c4	0.28690922
24	0x41b5ff14	22.74955
25	0xbeb82497	-0.35965416
26	0xbe8c3612	-0.27385002
27	0x3e59e63c	0.21279234
28	0x3fdde94c	1.7336822
29	0x412d1471	10.817491
30	0x3e3319a8	0.17490256
31	0xc06cc7f9	-3.6997054
32	0x40697459	3.6477263
33	0x40076968	2.1158085
34	0xbdaa4b4f	-0.08315145
35	0x40117d7c	2.273284
36	0x4039784d	2.8979676
37	0x3fe72e01	1.8060914
38	0x408314d4	4.0962925
39	0x3e8784e4	0.26468575
40	0x403be7e4	2.9360285
41	0x3fc713e1	1.5552942
42	0xc070dd28	-3.7634983
43	0x3d0f0640	0.03491807
44	0x3e7c6340	0.24647236
45	0x3e92a02a	0.2863782
46	0xc0a89bcf	-5.2690196
47	0x4011de1b	2.2791812
48	0x40039bd0	2.056385
49	0xc0955cc8	-4.667576
50	0x3e9088d8	0.28229403
51	0xbe66a9c3	-0.22525696
52	0x40085ef7	2.1307962
53	0x3e58ac75	0.21159537
54	0x3d2966b0	0.041357696
55	0xc082723e	-4.0764456
56	0xbe96e543	-0.29471788
57	0xc08df332	-4.435937
58	0x40397c8a	2.8982263
59	0x4021b0c5	2.5264142
60	0x3e9b1b4e	0.3029427
61	0xc11c192b	-9.756145
62	0x400b0c36	2.1726203
63	0xbf93f8d9	-1.1560317
64	0xc0030d42	-2.0476842
65	0x3eb19f7a	0.34691983
66	0x40113b40	2.2692413
67	0x400c5c5d	2.1931374
68	0x3e782c38	0.24235618
69	0x40d61e8f	6.6912303
70	0x3feeb059	1.8647567
71	0x400692f7	2.10272
72	0x4047f457	3.1242883
73	0x413c3adb	11.764369
74	0x40cb2ba1	6.349076
75	0xbec24abf	-0.37947652
76	0xbedb3835	-0.4281632
77	0xc04a1678	-3.1576214
78	0x40c4c71c	6.1493053
79	0x402c1754	2.6889238
80	0xc02f1fa8	-2.7363071
81	0xc1280cd3	-10.503131
82	0xbe844c2c	-0.25839365
83	0x3fdd2315	1.7276331
84	0x406113bf	3.5168302
85	0x40bb772f	5.858299
86	0xc07a17ce	-3.907703
87	0x3dca30c0	0.098725796
88	0xbfa26ddf	-1.268978
89	0xbc1798c0	-0.009252727
90	0x3e7b7798	0.2455734
91	0x40a6d576	5.2135572
92	0x41ba2e1a	23.27251
93	0x401ec6e8	2.4808903
94	0xc08a405f	-4.320358
95	0xc0621099	-3.532263
96	0xc150752b	-13.028605
97	0x401a0a92	2.4068952
98	0x4068bbeb	3.6364696
99	0xc06cee98	-3.7020626
100	0x403be981	2.936127
101	0xbea2833d	-0.31740752
102	0xbd355352	-0.044268914
103	0x3ea0f980	0.31440353
104	0xbd9db99d	-0.077014185
105	0x40368901	2.852112
106	0xbe27c71e	-0.16384551
107	0x402cb4da	2.6985383
108	0x401bf88e	2.4370456
109	0xc0d5c8d7	-6.6807666
110	0xbddb7200	-0.10715103
111	0x40001b20	2.0016556
112	0xc14e885f	-12.908294
113	0x40517faf	3.2734182
114	0x4071ec87	3.7800615
115	0x3fdcd514	1.7252526
116	0xc056ef66	-3.3583617
117	0x409342c8	4.601902
118	0x4007d243	2.1222084
119	0xbff22ba7	-1.8919572
120	0x403cc4a3	2.9495018
121	0xbe8ef037	-0.27917644
122	0x404b158f	3.1731908
123	0xbdda26a4	-0.10651901
124	0xc05adacd	-3.4196045
125	0xbe124208	-0.14283001
126	0xbdc1ecc0	-0.094689846
127	0x4024375c	2.5658789
128	0x40067a6c	2.101222
129	0x3c7b2660	0.0153289735
130	0xbec748a9	-0.38922623
131	0xbec5c1a6	-0.38624305
132	0x41c47cf5	24.561014
133	0x3e1b53f0	0.15168738
134	0xc036e074	-2.8574495
135	0xbeb36bee	-0.3504328
136	0x3fe291b7	1.7700719
137	0x4015ff0c	2.3436918
138	0x403d3ae1	2.9567187
139	0x407fb4cd	3.9954102
140	0x402b1f16	2.6737723
141	0xc05f9323	-3.4933555
142	0x40464d55	3.09847
143	0xc067cd5e	-3.6219096
144	0x4186ddeb	16.858358
145	0xbe38308a	-0.17987266
146	0xbe836b47	-0.25667784
147	0x3fe3f9af	1.7810572
148	0x413eedcd	11.933057
149	0xbe97728d	-0.29579583
150	0x40308161	2.7578967
151	0xc032a7aa	-2.7914834
152	0x3e8ae75c	0.27129638
153	0xbe3c0f96	-0.1836532
154	0x4020a648	2.510149
155	0xbe957c3c	-0.29196346
156	0x403ac9d2	2.9185681
157	0xbea03824	-0.31292832
158	0x40611f98	3.5175533
159	0x40e2aa02	7.083253
160	0xbf59fd9e	-0.85152614
161	0x413f0aa4	11.940098
162	0xc06f7dbb	-3.742049
163	0x4060b220	3.510872
164	0xc068466b	-3.629298
165	0x40061bf3	2.095456
166	0x4068f714	3.6400805
167	0x4009df77	2.1542642
168	0x4027b228	2.6202488
169	0x4061f7bc	3.5307455
170	0x3e359728	0.17733443
171	0x40408df5	3.0086644
172	0x403d93b5	2.9621403
173	0x40382fd4	2.8779192
174	0xbff41715	-1.9069544
175	0x3ff32e84	1.899857
176	0xc1000d18	-8.003197
177	0x40baf63f	5.8425593
178	0xc0ea343e	-7.318877
179	0x400fc9d3	2.2466934
180	0x40ab4e9b	5.3533454
181	0x404cba65	3.1988766
182	0x400afd65	2.171716
183	0x4014bdcf	2.324085
184	0xbebf5d12	-0.37375695
185	0xc122767a	-10.153925
186	0x40213281	2.5187075
187	0xbfd9cf55	-1.7016398
188	0x4081f920	4.061661
189	0xbd3acee0	-0.045607448
190	0x3dc72aa8	0.09724933
191	0xbea401f4	-0.3203274
192	0xbe36336a	-0.1779305
193	0x407b604d	3.9277527
194	0xbfc8d154	-1.5688882
195	0xbd07db88	-0.033168346
196	0xc086c618	-4.2116814
197	0xbe2fdaa3	-0.17173247
198	0xbf303cd2	-0.68842804
199	0xc11864d1	-9.524613
200	0x3d88e590	0.066844106
201	0xbf92dae8	-1.1473055
202	0xbe197b5a	-0.14988461
203	0x406438d8	3.5659695
204	0x40283d46	2.6287398
205	0x401c0abf	2.438156
206	0x3fec7e73	1.8476089
207	0x3db06fac	0.0861505
208	0x403155f6	2.7708716
209	0xbea6f5b9	-0.32609347
210	0x3fdfe609	1.7492076
211	0xbec39759	-0.38201407
212	0x407225c7	3.7835557
213	0x3ff23b18	1.8924284
214	0xc017d81d	-2.3725655
215	0xc095d416	-4.6821394
216	0x3d421dae	0.047391586
217	0x3b624c00	0.0034530163
218	0xbee34b63	-0.44393453
219	0xbf48fb6a	-0.7850863
220	0xc0ac5109	-5.384892
221	0x3d1c40e0	0.038147807
222	0xc0905b22	-4.5111246
223	0x4007962e	2.1185412
224	0xbdfefc12	-0.12450422
225	0x402b67a5	2.678201
226	0x3e07bdb0	0.13255954
227	0xbe00af82	-0.12566951
228	0xc05bfbda	-3.4372468
229	0x3cd69d40	0.02619803
230	0xbec000b8	-0.37500548
231	0x3ea2cf56	0.3179881
232	0x40385152	2.8799634
233	0xc0f88e1d	-7.767348
234	0xbf872c72	-1.0560439
235	0x404bae6d	3.182521
236	0x3eb7562e	0.35807937
237	0x3e24e258	0.16101968
238	0x3fc3c93e	1.5295789
239	0xc045b1f5	-3.0889866
240	0x400d076c	2.203578
241	0xc09c8c76	-4.892146
242	0x3c2a1ec0	0.010383308
243	0x403aac92	2.9167829
244	0x4032a4f7	2.7913187
245	0x4007667f	2.1156309
246	0x400fc07e	2.2461238
247	0xc082d00b	-4.087896
248	0xbe86b76c	-0.26311815
249	0x4004fa4b	2.0777767
250	0x4004d411	2.0754435
251	0xbe6077e5	-0.21920736
252	0xbf9ab272	-1.2085707
253	0xbeb842c2	-0.35988432
254	0xc101734f	-8.0906515
255	0x409f3df9	4.976315

fc2.weight f4 [128, 256]
0	0x3d2f675b	0.042823177
1	0xbd3d6be5	-0.046245474
2	0xbc470f45	-0.012149637
3	0xbd49be50	-0.04925376
4	0xbd21e3cc	-0.039523885
5	0xbd64d530	-0.055867374
6	0x3df2a696	0.1184818
7	0xbcc8f2c5	-0.024529824
8	0xbd71c46d	-0.059025217
9	0xbce4678b	-0.027881404
10	0x3aabbecb	0.0013103125
11	0xb90a623a	-0.00013197298
12	0x3d2e3ea8	0.042540222
13	0xbd8c2599	-0.06843109
14	0xbd3d6ebe	-0.04624819
15	0xbd0a76ab	-0.033804577
16	0x3caa85de	0.020815786
17	0xbc1d8508	-0.009614237
18	0xbce7cfcb	-0.028297326
19	0xbd2947a7	-0.0413281
20	0x3d01cf9a	0.031692125
21	0xbd242400	-0.040073395
22	0xbbb17184	-0.0054151434
23	0x3cb8720c	0.02251532
24	0xbd1a0cc2	-0.037609823
25	0x3d406920	0.046975255
26	0x3ba6f5f0	0.005095236
27	0xbcb50804	-0.022098549
28	0x3d0ffcff	0.035153385
29	0xbb96e511	-0.0046049436
30	0x3d073400	0.033008575
31	0xbd7e8cf8	-0.062146157
32	0xbd34b0d1	-0.044113938
33	0x3d10152e	0.03517645
34	0xbd27e21c	-0.04098712
35	0x3d12af29	0.035811577
36	0xbcf8e902	-0.030384544
37	0x3cea9a1d	0.02863794
38	0xbc345a10	-0.011007801
39	0xbcfe9d40	-0.031080842
40	0xbd7c260a	-0.061559714
41	0xbc90cd06	-0.017675888
42	0xbd03784e	-0.032097153
43	0x3d0f12da	0.034930088
44	0xbd6cc0b2	-0.057800956
45	0xbd5ca79e	-0.05387079
46	0x3c09ef97	0.008418939
47	0x3c9d51f2	0.019204114
48	0xbd9ecc20	-0.077537775
49	0xbd6c2e76	-0.057661496
50	0xb7e9b000	-2.785772e-05
51	0xbd349be0	-0.044093966
52	0x3c97bb47	0.018521918
53	0x3ab5ca80	0.0013869554
54	0x3ce05834	0.027385809
55	0xbb1055af	-0.0022023728
56	0x3d467638	0.048452586
57	0x3d8e8f3c	0.069609135
58	0x3baf8055	0.0053558745
59	0xbc5e06d7	-0.013551435
60	0xbd4bab12	-0.049723692
61	0xbd7533c5	-0.059863824
62	0x3cf08ec1	0.029364945
63	0x3c397473	0.011319268
64	0x3d835cab	0.064141594
65	0x3d137fc0	0.036010504
66	0x3b45e038	0.003019346
67	0x3cc968af	0.02458605
68	0x3c470aa0	0.012148529
69	0xbd8775d7	-0.06614273
70	0xbd9ba0e3	-0.07599046
71	0x3d0b0fa2	0.033950455
72	0xbcc2d2d3	-0.02378217
73	0xbd9f3323	-0.077734254
74	0xbb1b4965	-0.002369487
75	0x3d7e93b4	0.06215258
76	0x3b04c220	0.002025731
77	0xbd2073a2	-0.039172776
78	0x3cfa11df	0.0305261
79	0xbbf45843	-0.0074568107
80	0xbb4bc975	-0.003109542
81	0xbd8cf344	-0.06882337
82	0x3c196c08	0.009364136
83	0xbc25413b	-0.010086353
84	0xbd239b27	-0.039942887
85	0xbd3e66cd	-0.046484757
86	0x3d07cb6a	0.033152975
87	0x3d025f20	0.031829
88	0xbc95324f	-0.018212466
89	0xbc5d81f0	-0.013519749
90	0xbd7e7ce8	-0.06213084
91	0xbd8eb305	-0.06967739
92	0xbd89b3a5	-0.067237176
93	0xbc757e45	-0.014983718
94	0x3bee8a3e	0.0072796633
95	0xbc073403	-0.008252147
96	0xbd6d4a79	-0.05793235
97	0xbd91ac40	-0.07112932
98	0xbc97a340	-0.01851046
99	0x3a54ac1c	0.00081128045
100	0xbcc72024	-0.024307318
101	0x3d5aa29d	0.053377736
102	0x3c15e8e8	0.009149767
103	0xbccc5568	-0.024943069
104	0xbd00a7a0	-0.03140986
105	0xbd90655a	-0.07050581
106	0x3cf339e4	0.02969069
107	0x3cf152fa	0.029458512
108	0xbd365886	-0.044518016
109	0xbd232d3a	-0.039838053
110	0x3cceaf5c	0.025230102
111	0x3c075f65	0.00826249
112	0xbd103694	-0.0352083
113	0xbd024d6c	-0.031812117
114	0xbd269283	-0.04066707
115	0xbd2473be	-0.040149443
116	0xbafb0840	-0.0019152239
117	0x3d37da1e	0.044885747
118	0x3d4d30ad	0.05009525
119	0xbd27d1e9	-0.04097167
120	0xbd443d7f	-0.04791021
121	0x3d37b50a	0.044850387
122	0xbd11acdd	-0.035565246
123	0xbd630fcc	-0.055434987
124	0x3d7996eb	0.060934942
125	0x3cffee20	0.031241477
126	0x3d43f7a4	0.04784359
127	0xbae132af	-0.0017181243
128	0xbd2ade47	-0.041715886
129	0x3ce92f78	0.028465018
130	0xbce26ff0	-0.027641267
131	0xbbad7cc0	-0.0052944124
132	0xbd11d659	-0.03560481
133	0x3c6d2a18	0.014475368
134	0x3cbeb365	0.023278901
135	0xbd1a3cc8	-0.03765562
136	0x3d1dc658	0.038519233
137	0xbd8e4ab8	-0.06947845
138	0xbd2cf222	-0.042223103
139	0xbd8bb4a3	-0.06821563
140	0xbd2fcae7	-0.042918112
141	0xb95179f8	-0.0001997723
142	0x3d1f09ae	0.03882759
143	0xbd5eb428	-0.05437103
144	0x3e05b302	0.13056567
145	0xbd28f5ec	-0.041250154
146	0xbd1d76e0	-0.038443446
147	0xbbf40837	-0.0074472683
148	0xbcccb81b	-0.024990132
149	0x3c8d6018	0.017257735
150	0xbd6ad8ea	-0.05733577
151	0x3d64c9b0	0.055856407
152	0x3d2ba690	0.041906893
153	0x3ce715bc	0.028208606
154	0x3ba6ea02	0.005093814
155	0xbd3f959e	-0.046773545
156	0xbd3e2bf6	-0.046428643
157	0x3cb8f2c8	0.022576705
158	0x3d09a733	0.03360672
159	0xbd233900	-0.03984928
160	0x3d4f3271	0.050585214
161	0x3b9406e0	0.004517421
162	0x3d236c8f	0.03989845
163	0xbd5e7f22	-0.054320462
164	0xbcfe06bc	-0.03100907
165	0xbd58f58f	-0.052968558
166	0x3ceb9ac5	0.028760323
167	0x3d001a28	0.031274945
168	0x3cec354f	0.028834013
169	0xbdb308c6	-0.08741908
170	0xbd3293ae	-0.04359787
171	0xbd8e7659	-0.06956167
172	0xbd77dc9b	-0.06051312
173	0xbc531558	-0.012883507
174	0x3d1b5c49	0.037929807
175	0xbd84f38c	-0.064917654
176	0x3d8885e9	0.06666166
177	0x3d336a1d	0.04380237
178	0xbc9467b0	-0.018115848
179	0xbd99e8bf	-0.07515096
180	0xbd39e62d	-0.04538553
181	0xbcf0f2d1	-0.029412659
182	0x3bbfa1aa	0.0058481293
183	0xbd5161a9	-0.051118527
184	0x3cb7932c	0.022409044
185	0xbd5db0af	-0.054123577
186	0xbd7c44d0	-0.061589062
187	0x3da1b397	0.07895582
188	0xbbe85623	-0.0070903464
189	0x3c8674e4	0.01641316
190	0xbbfbf8d0	-0.007689573
191	0xbb8f6e20	-0.0043771416
192	0xbd1b221c	-0.037874326
193	0xbc4f20fc	-0.012642141
194	0x3d5045f3	0.05084796
195	0x3c467228	0.012112178
196	0xbb0b4af1	-0.0021254385
197	0x3d5eb7a8	0.054374367
198	0x3d3f162c	0.046652004
199	0xbd87e674	-0.06635752
200	0xbd257698	-0.040396303
201	0x3d37c577	0.04486605
202	0xbc9e2ed8	-0.019309446
203	0x3c524235	0.012833168
204	0xbc64246f	-0.013924702
205	0xbd36b942	-0.04461027
206	0x3d1e9f39	0.038726065
207	0x3ad97480	0.0016590506
208	0xbd9dad4d	-0.0769907
209	0x3d52517e	0.05134725
210	0xbd4883a3	-0.048953664
211	0x3c9ac9a4	0.018894978
212	0xbd9a8e2d	-0.07546649
213	0x3d19e513	0.037571978
214	0x3b076966	0.0020662188
215	0x3d3fc3df	0.046817657
216	0x3d195c78	0.0374417
217	0xbb5aa080	-0.0033359826
218	0xbd714eae	-0.058912925
219	0x3b98277d	0.0046433792
220	0xbd64a96d	-0.05582564
221	0x3d13bce2	0.036068805
222	0x3d1d9702	0.03847409
223	0x3d5cedec	0.053937837
224	0xbc5fa728	-0.013650693
225	0xbc01d97f	-0.00792539
226	0xbd34e77e	-0.04416608
227	0x3cbc7f64	0.023009963
228	0xbb048f74	-0.0020227106
229	0x3d57732c	0.05260007
230	0x3b930bd0	0.004487492
231	0x3d66c822	0.056343205
232	0xbd99b36d	-0.07504926
233	0xbd2b9cf1	-0.041897718
234	0x3d7d7cde	0.06188666
235	0xbda206f2	-0.07911481
236	0xbd6eb302	-0.058276184
237	0xbb41e9e0	-0.0029588863
238	0xbd82802d	-0.06372104
239	0x3bd85441	0.0066018407
240	0x3d13fcbb	0.036129694
241	0x3c9c21e7	0.019059135
242	0x3d3fc0a6	0.046814583
243	0xbd8e4396	-0.06946485
244	0x3c31c6ef	0.010850652
245	0xbcc56a1a	-0.024098445
246	0xbd96ec80	-0.073693275
247	0x3c9da17e	0.019242045
248	0xbcadbe00	-0.021208763
249	0xbd00997b	-0.03139637
250	0x3d2835b9	0.04106686
251	0x3d06b5d2	0.03288824
252	0xbd4630b6	-0.048386298
253	0x3d7aea08	0.061258346
254	0xbc800ebe	-0.01563203
255	0x3c67a289	0.0141378725

fc2.bias f4 [128]
0	0x3809ffdf	3.2901644e-05
1	0x4063eaca	3.5612054
2	0x3cbd2c15	0.023092309
3	0x4047196f	3.1109273
4	0xbd5e1715	-0.05422123
5	0xc0c4de9f	-6.1521754
6	0xbca8b05f	-0.020591913
7	0xbcd93bf1	-0.02651784
8	0xbd3cdd6f	-0.046109613
9	0x3cb29890	0.021801263
10	0x3b268260	0.00254073
11	0xbd328d96	-0.043592058
12	0xbca2e647	-0.019885195
13	0x3ce1163f	0.027476428
14	0x3c8e3dcf	0.017363457
15	0x4009e44f	2.1545599
16	0x3cde1a1f	0.027112065
17	0xbd412a40	-0.047159433
18	0x3c9c10ff	0.019051073
19	0x40688751	3.633259
20	0xbda01806	-0.07817082
21	0xbd38fc3d	-0.04516243
22	0x3d583618	0.052785963
23	0xc08f8861	-4.485398
24	0xbd6beaf4	-0.057597116
25	0xbd9d9b9e	-0.07695697
26	0xbd5fa1e5	-0.054597754
27	0xbd2c0f0a	-0.04200653
28	0xbd688e52	-0.056776352
29	0x3d0e3fa0	0.034728646
30	0x3cedb99d	0.029019171
31	0xbf374fb7	-0.7160601
32	0x3d7410e8	0.059586436
33	0x3c4952a2	0.012287768
34	0x403c5455	2.9426472
35	0xbd8252d8	-0.063634574
36	0x3d083d86	0.0332618
37	0xbd84879d	-0.06471179
38	0xbd42400e	-0.04742437
39	0x3ceec9b6	0.029148918
40	0x3d3de523	0.0463611
41	0x403ac857	2.9184778
42	0xbc5f6720	-0.013635427
43	0x4052e835	3.2954228
44	0xbcab2f05	-0.020896444
45	0x3c691114	0.014225263
46	0xbbcab1d0	-0.0061857477
47	0xbdc0f205	-0.094211616
48	0x4064a716	3.572698
49	0xbd4efe9f	-0.050535794
50	0xbd585f2b	-0.052825134
51	0xbcc9558d	-0.024576927
52	0x40699e7d	3.6502984
53	0x3cc9d347	0.024636878
54	0xbd92bd5a	-0.07165022
55	0x404081ab	3.0079143
56	0x3c82d448	0.015970364
57	0x3bfde780	0.007748544
58	0xbd97b5bf	-0.07407712
59	0xbd3e4fca	-0.04646281
60	0xbdc5fd20	-0.096674204
61	0x3d25d1e4	0.04048337
62	0x3c7644a0	0.01503101
63	0x403d986a	2.9624276
64	0x3d301b9a	0.042995073
65	0x3f45e7d0	0.7730684
66	0x3d0fb389	0.035083327
67	0x3c2cfc62	0.01055822
68	0x3d41b676	0.04729315
69	0xbdacec8b	-0.084435545
70	0x3c57ab33	0.013163376
71	0x3ccfecb4	0.025381424
72	0x3bd1d4c7	0.006403539
73	0xbd2157f7	-0.03939053
74	0xbad014f9	-0.0015875391
75	0xbd7839da	-0.060602047
76	0x3c2021e0	0.009773701
77	0x400c4f1b	2.1923282
78	0x405f2355	3.4865315
79	0xbd83b5b8	-0.064311445
80	0xbceec284	-0.029145487
81	0x3c5c11a1	0.013431937
82	0xbd8b9b66	-0.06816749
83	0x4042ada0	3.0418472
84	0x405c6477	3.443632
85	0xbd60a907	-0.054848697
86	0x403aed5b	2.920737
87	0xbdb6bf8d	-0.08923254
88	0x3b8e28c2	0.004338355
89	0x3bb44bad	0.0055021853
90	0xbd4ac4d8	-0.04950413
91	0x4063205c	3.54885
92	0xbd8f223d	-0.06988952
93	0x41b25016	22.289104
94	0xc04ff4a8	-3.2493076
95	0xbd31b9fe	-0.043390267
96	0x3cc7d8b6	0.024395328
97	0x4038cc6d	2.8874772
98	0xbd4fb34f	-0.05070811
99	0x3c1ddaa0	0.009634644
100	0xbd239638	-0.03993818
101	0x4033be57	2.8084924
102	0x4153fd13	13.249286
103	0x3ce3ae94	0.027793206
104	0x403f53ae	2.9894824
105	0xbca0c8bc	-0.019626968
106	0xbcde897a	-0.027165163
107	0x3ba4c89b	0.005028797
108	0x3b753f5e	0.0037421803
109	0x3b9ec3e0	0.0048451275
110	0xbd96c252	-0.073612824
111	0xbd86a0ba	-0.06573625
112	0x3ca0e380	0.01963973
113	0xbc57e600	-0.013177395
114	0xbce2d5c3	-0.02768982
115	0x403dcc49	2.9655936
116	0xbd358fa8	-0.044326454
117	0x3cdd6296	0.027024549
118	0xbaff979d	-0.001950014
119	0xbd881095	-0.06643788
120	0xbd529541	-0.05141187
121	0x3b47c94f	0.003048498
122	0xbdc5a01a	-0.096496776
123	0x3c6c100c	0.014408123
124	0x40646df3	3.5692108
125	0x4046ec6c	3.10818
126	0x3d12a14a	0.03579835
127	0x3d0ce064	0.034393683

fc3_value.weight f4 [1, 128]
0	0x3da668d1	0.08125461
1	0x3efb50ef	0.49085185
2	0xbd978972	-0.073992625
3	0x3f14efe8	0.5817857
4	0x3dc7f426	0.097633645
5	0x3e0b2ffd	0.13592525
6	0x3cb22245	0.021744857
7	0xbc553c83	-0.013014915
8	0xbc4d3701	-0.012525321
9	0xbda3ab2b	-0.07991632
10	0xbd0e1b83	-0.034694206
11	0xbd68c46d	-0.05682795
12	0xbd1a7f05	-0.03771879
13	0xbb8bfc38	-0.00427201
14	0xbcc1efa4	-0.02367384
15	0x3ebdea31	0.37092736
16	0x3c2d662b	0.010583441
17	0x3c9df85c	0.019283466
18	0x3ba5b081	0.0050564413
19	0x3ee8858a	0.45414382
20	0xbd016a65	-0.031595606
21	0xbc53c948	-0.012926407
22	0x3bf32e10	0.0074212626
23	0x402c4196	2.691503
24	0xbd68f14f	-0.056870755
25	0xbc3edc32	-0.011649178
26	0xbd29cd40	-0.041455507
27	0xbd66b7c0	-0.05632758
28	0x3d20290f	0.039101657
29	0x3d6d235c	0.05789505
30	0xbd0dbe77	-0.03460547
31	0x3eb7a327	0.35866663
32	0x3d82072d	0.06349025
33	0x3be7137c	0.0070518833
34	0x3f1d3070	0.61402035
35	0xbda28667	-0.079357915
36	0xbd736766	-0.05942478
37	0xbc8caffe	-0.017173763
38	0x3cafc96d	0.021458352
39	0xbd11172f	-0.0354225
40	0xbbaca5a2	-0.0052687684
41	0x3f34bd96	0.70601785
42	0x3dabbdf9	0.08385844
43	0x3ecdbbac	0.40182245
44	0xbd32c220	-0.043642163
45	0xbd214baa	-0.0393788
46	0xbdacb310	-0.08432591
47	0xbd656549	-0.056004796
48	0x3f45964e	0.7718247
49	0xbbeac4ba	-0.007164565
50	0xbc99b64a	-0.01876368
51	0xbc88ee2e	-0.016715135
52	0x3efd47e7	0.4946892
53	0xbc7965ca	-0.015222022
54	0xbabf28e9	-0.0014584336
55	0x3f23afdc	0.63940215
56	0x3cb1ed40	0.021719575
57	0x3d9b5f34	0.07586518
58	0xbd605b14	-0.05477436
59	0xbd1c3ec6	-0.038145803
60	0xbc6c59aa	-0.014425674
61	0xbd38c53f	-0.045109984
62	0x3d26cf4a	0.04072503
63	0x3f131794	0.5745785
64	0xbd197c55	-0.037472088
65	0x3fde6e73	1.7377456
66	0xbd9f94fa	-0.07792087
67	0xbd07c972	-0.033151098
68	0x3cd26bbd	0.02568614
69	0xbcfae465	-0.030626485
70	0xbd2bb6f6	-0.041922532
71	0x3d9d0f73	0.07668962
72	0xbc328f80	-0.010898471
73	0xbc8d1a2f	-0.0172244
74	0xbd8c19eb	-0.06840881
75	0xbd0af74e	-0.033927254
76	0x3d062b51	0.032756153
77	0x3f8e47a3	1.1115612
78	0x3f3ce70d	0.73790056
79	0xbaa0cee8	-0.0012268694
80	0xbcaccb9c	-0.021093182
81	0xb9ef1175	-0.0004559864
82	0xbd945ff9	-0.07244868
83	0x3f38bc28	0.72162104
84	0x3effe9ce	0.49983066
85	0xbc4b8f9b	-0.012424375
86	0x3f3ad4fd	0.72981244
87	0xbd5aab40	-0.053385973
88	0x3be349a0	0.006936267
89	0xbcf2197a	-0.029553164
90	0xbd8cc571	-0.068735965
91	0x3eff8402	0.499054
92	0x3ccef6b8	0.025264129
93	0xbe8a2999	-0.26984861
94	0x3e97302d	0.29528943
95	0xbd111415	-0.035419542
96	0xbd52bb63	-0.051448237
97	0x3f33cd3a	0.70235026
98	0xbd889675	-0.066693224
99	0x3b72a920	0.0037027076
100	0xbd9e15ee	-0.077190265
101	0x3f2f115b	0.6838586
102	0xc036aa31	-2.8541377
103	0x3dd0dbbb	0.1019816
104	0x3f08e257	0.5347037
105	0xbb4e0960	-0.0031438693
106	0xbd529cae	-0.051418953
107	0xbc219265	-0.009861563
108	0xbd7b1d0d	-0.061307
109	0x3d2e6e76	0.042585813
110	0x3c78ad1f	0.015177994
111	0x3c5be979	0.013422363
112	0xbd629c37	-0.05532476
113	0x3da3b3dd	0.079932906
114	0xbd34abeb	-0.044109266
115	0x3f7e7688	0.99399614
116	0x3cf16964	0.0294692
117	0xbcfb6c91	-0.030691417
118	0xbbf7c26b	-0.007561018
119	0xbcc0fa69	-0.023556905
120	0xbb2131c4	-0.0024596313
121	0xbd7bc4ee	-0.061467104
122	0x3cd0ab76	0.025472384
123	0x3d2a45ab	0.041570347
124	0x3f42425e	0.7588252
125	0x3f34f438	0.7068515
126	0x3c23e970	0.010004386
127	0x3d32109a	0.043472864

fc3_advantage.weight f4 [4, 128]
0	0xbcead653	-0.02866665
1	0xbecf87c9	-0.40533283
2	0xbdbf2492	-0.09333147
3	0xbf0b0559	-0.54305035
4	0x3d9ad8aa	0.07560857
5	0xbf19b6e4	-0.60044694
6	0x3b576171	0.0032864476
7	0x3d88123d	0.06644104
8	0xbd8942d7	-0.06702202
9	0xbcdcc164	-0.026947685
10	0x3cf4e764	0.029895492
11	0x3c8c7b0f	0.017148523
12	0xbdae71d6	-0.08517806
13	0xbbfaf91a	-0.0076590898
14	0xbb95361b	-0.004553569
15	0xbf07edc9	-0.53097206
16	0xbd4fc889	-0.050728355
17	0xbd9dee52	-0.077114716
18	0x3c693847	0.014234609
19	0xbee8db73	-0.45479926
20	0x3d785f43	0.060637724
21	0x3da484d9	0.08033151
22	0x3dc1c81a	0.094619945
23	0x3e09d664	0.1346069
24	0x3d5267ee	0.051368646
25	0x3dcf04c8	0.10108334
26	0xbd4b8537	-0.04968759
27	0xbdc193ce	-0.0945202
28	0x3cf83d6f	0.030302731
29	0x3d8409fa	0.064472154
30	0xbc8cbeab	-0.017180761
31	0xbed211b7	-0.4102914
32	0xbd5066b8	-0.05087921
33	0xbd8f3889	-0.06993205
34	0xbf01bf48	-0.506825
35	0x3d211024	0.039322034
36	0x3d3751ee	0.04475587
37	0x3bf2dd9a	0.007411671
38	0xbcf8312d	-0.030296886
39	0x3d6b58f4	0.05745788
40	0x3d0a61f5	0.033784825
41	0xbf1c1d05	-0.6098178
42	0x3d9aa0a5	0.07550172
43	0xbf00dbdd	-0.50335485
44	0x3d093fc7	0.03350809
45	0x3d83f309	0.0644284
46	0xbd338547	-0.043828275
47	0xbd5a91b4	-0.05336161
48	0xbf28325e	-0.65701854
49	0x3d5d0fff	0.053970333
50	0x3c99aedf	0.018760143
51	0xbdbf7a2d	-0.09349475
52	0xbeee03b0	-0.46487188
53	0x3b9d9af5	0.004809732
54	0xbe0cc308	-0.13746274
55	0xbee44778	-0.44585776
56	0xbd2a9a1b	-0.041650873
57	0xbadb6f71	-0.0016741586
58	0xbc2c6e81	-0.010524393
59	0xbbf9e10c	-0.0076257046
60	0x3c967463	0.018366044
61	0x3d668d4a	0.056287088
62	0x3db13f3d	0.0865464
63	0xbf0ee946	-0.55824697
64	0x3dbcb079	0.09213347
65	0xbfb30bae	-1.3987939
66	0xbca21559	-0.01978557
67	0xbdadee0c	-0.084926695
68	0x3d917cba	0.07103868
69	0xbc05252c	-0.008126538
70	0xbc10ddab	-0.008841912
71	0xbd86493e	-0.065569386
72	0x3da524b3	0.080636404
73	0xbb8656cf	-0.004099704
74	0xbd8bedb8	-0.06832451
75	0x3d1b9c5c	0.037990913
76	0xbd0d5d83	-0.034513008
77	0xbf774036	-0.96582353
78	0xbf367350	-0.712697
79	0x3d5449a0	0.051828027
80	0xbd964fe9	-0.073394604
81	0xbd2ce8c1	-0.04221416
82	0xbc9a7959	-0.018856691
83	0xbf27857c	-0.65438056
84	0xbefc6c98	-0.493016
85	0xbdaccf7d	-0.08438013
86	0xbf260745	-0.6485484
87	0x3d5e03dd	0.054202903
88	0x3c83259a	0.01600914
89	0x3cfb57fb	0.0306816
90	0x3c9557be	0.018230315
91	0xbeede7d6	-0.4646594
92	0xbd7264d9	-0.059178207
93	0x3f9030e3	1.1264919
94	0xbeffb16b	-0.49940047
95	0xbdb79ddd	-0.08965657
96	0xbd812707	-0.06306272
97	0xbf267667	-0.6502442
98	0x3d19c490	0.037540972
99	0x3d8cf493	0.06882586
100	0x3d95a150	0.073061585
101	0xbf2ada69	-0.6673952
102	0x3fab3277	1.3374776
103	0x3d08b118	0.033372015
104	0xbef75510	-0.48307085
105	0x3d64b902	0.0558405
106	0xbd43686a	-0.047707
107	0x3c4e454f	0.012589767
108	0xbd5371f2	-0.05162234
109	0x3cf09664	0.029368587
110	0xbaf7476e	-0.0018865892
111	0x3cf17445	0.029474387
112	0xbcfad10e	-0.030617263
113	0xbcbb7b74	-0.022886015
114	0xbc7b91b9	-0.015354567
115	0xbf5cf982	-0.8631822
116	0xbbd80ef0	-0.0065935776
117	0xbd445898	-0.047936052
118	0x3b882896	0.004155229
119	0x3cd2880c	0.025699638
120	0x3d0a8cf1	0.03382582
121	0x3bd1656f	0.0063902657
122	0x3d6e7753	0.058219265
123	0xbd57d191	-0.052690092
124	0xbf0e2abf	-0.55533975
125	0xbf1b40a9	-0.6064554
126	0xbd3f88e8	-0.046761423
127	0xbd791541	-0.060811285
128	0xbc822e82	-0.015891317
129	0xbf031474	-0.51203084
130	0xbc841306	-0.016122352
131	0xbeff015d	-0.49805728
132	0x3d1e3466	0.03862419
133	0xbf13f543	-0.57796115
134	0xbd11ed5f	-0.035626765
135	0xbd8990fd	-0.067171074
136	0x3bb0a9d5	0.0053913393
137	0xbd93db6d	-0.072195865
138	0xbca19d1c	-0.019728236
139	0x3cbffc99	0.023435878
140	0x3d08cfd7	0.033401337
141	0x3d239473	0.039936494
142	0xbcb88fd0	-0.022529513
143	0xbee36148	-0.44410157
144	0x3d94a7b2	0.07258548
145	0x3d0cac6a	0.034344114
146	0xbd897dd6	-0.067134544
147	0xbf0acd8b	-0.54219884
148	0xbbc25d3e	-0.0059315255
149	0xbd053c16	-0.032528006
150	0x3daa293b	0.08308645
151	0x3f00abf3	0.50262374
152	0xbd96b530	-0.073587775
153	0x3d1d4b3b	0.038401823
154	0xbd85b188	-0.06528002
155	0xbbabd7bc	-0.0052442234
156	0x3d9de10e	0.077089414
157	0xbd78a10c	-0.06070046
158	0xbc6edd38	-0.01457911
159	0xbee16d2b	-0.440286
160	0x3cdf6b1c	0.027272753
161	0xba38a364	-0.000704339
162	0xbf2ac593	-0.66707724
163	0x3d81b90c	0.06334123
164	0x3d9cad80	0.0765028
165	0xbde7aa2b	-0.11311754
166	0x3c191b57	0.009344897
167	0xbd7b0e60	-0.061293006
168	0xbc2c3ecf	-0.010513022
169	0xbf276cf5	-0.6540063
170	0x3d512666	0.05106201
171	0xbef6d923	-0.48212537
172	0x3d73dcc4	0.05953671
173	0x3d01e7c2	0.031715162
174	0xbd36961f	-0.04457676
175	0xbd23e3c2	-0.04001213
176	0xbf261425	-0.6487449
177	0x3da3a7d6	0.079909965
178	0x3d08443b	0.033268195
179	0x3d5062ef	0.0508756
180	0xbf0127ae	-0.5045117
181	0x3bc9f3eb	0.0061631105
182	0xbd6270c1	-0.05528331
183	0xbf012fd7	-0.5046362
184	0x3d0cacc0	0.034344435
185	0xbcc028b4	-0.023456909
186	0x3d027f20	0.031859517
187	0xbd6523e9	-0.05594245
188	0x3b878dbb	0.0041367686
189	0xbc7f42e0	-0.015579909
190	0x3d93eecd	0.07223282
191	0xbf07cf8b	-0.5305106
192	0x3dc4be0a	0.096065596
193	0xbf7b41cf	-0.9814729
194	0xbd1b9641	-0.03798509
195	0xbdcc162e	-0.09965168
196	0x3daee6cf	0.08540117
197	0xbda991b8	-0.08279747
198	0x3df5e699	0.12006874
199	0xbdada716	-0.08479135
200	0xbdbe982c	-0.09306368
201	0x3b886415	0.0041623213
202	0x3d3f37d3	0.046684097
203	0x3d95b34c	0.07309589
204	0x3d932346	0.07184462
205	0xbf708820	-0.9395771
206	0xbf3e8c67	-0.74432987
207	0x3da84222	0.08215739
208	0xbcbe0abc	-0.023198478
209	0x3d0e8fda	0.034805156
210	0x3d527eb1	0.051390354
211	0xbf055c80	-0.5209427
212	0xbebc76fd	-0.3680953
213	0x3d2f0576	0.042729817
214	0xbf1532a3	-0.5828039
215	0xbd932e65	-0.071865834
216	0xbd24c8bc	-0.040230498
217	0x3d79352d	0.060841728
218	0x3db67cfb	0.08910557
219	0xbec64579	-0.38724878
220	0xbc8fd768	-0.017558768
221	0x3f8c5cc8	1.0965815
222	0xbf063751	-0.52428156
223	0x3d50493b	0.050851088
224	0x3d6b0bbe	0.057384245
225	0xbf1a2f1c	-0.60228133
226	0xbd61562b	-0.055013817
227	0xbbfa1c50	-0.0076327696
228	0x3ce953b7	0.028482301
229	0xbf2993e0	-0.66241264
230	0x401c851c	2.4456244
231	0x3d1395d7	0.03603157
232	0xbf009fd7	-0.50243896
233	0xbc596518	-0.013268732
234	0xbb98806b	-0.0046539805
235	0x3db4dd39	0.088312574
236	0xbc9fe502	-0.01951838
237	0x3c75d9d8	0.015005551
238	0x3d0e66a3	0.03476585
239	0x3c60d6ba	0.01372307
240	0xbc0d1709	-0.008611449
241	0xbdab223a	-0.083561376
242	0x3a7fc8bc	0.000975739
243	0xbf61f7a9	-0.88268524
244	0xbd8cf663	-0.06882932
245	0xbc872783	-0.016498333
246	0xbd4624d2	-0.04837496
247	0xbdd687ce	-0.104751214
248	0x3cdef39f	0.027215777
249	0xbd780981	-0.06055594
250	0xbd239e18	-0.03994569
251	0x3c5f8dde	0.013644664
252	0xbefb2d22	-0.4905787
253	0xbf2621ac	-0.6489513
254	0xbc948f08	-0.018134609
255	0x3db4e28f	0.08832275

fc3_advantage.bias f4 [4]
0	0xc0695674	-3.6459017
1	0xc039c0d0	-2.9023933
2	0xc0792dd0	-3.8934212
3	0x4048ef7b	3.1396167

fc1.weight f4 [256, 6]
0	0x3ce0d188	0.027443662
1	0x4078a837	3.885267
2	0xc1668cfa	-14.409418
3	0xc018ccee	-2.387508
4	0x407bbb51	3.933308
5	0xc13f6514	-11.962177
6	0x3e04e820	0.12979174
7	0xc0868ad9	-4.204449
8	0x4087de6f	4.2459025
9	0x3f35e44b	0.7105147
10	0xc057a852	-3.3696485
11	0x3f38a319	0.7212387
12	0x3e81b2ba	0.2533167
13	0xc01919ed	-2.3922074
14	0x40aa01c6	5.3127165
15	0xbfff1fa5	-1.9931532
16	0xbfbf3a45	-1.4939657
17	0x3f0d75e7	0.5525803
18	0xbeb9f1ec	-0.36317384
19	0x3de56c4f	0.11202299
20	0x3cbb253e	0.022844907
21	0xbe27254a	-0.16322818
22	0x3b2c231c	0.0026266044
23	0x3e2d27f5	0.16909774
24	0x3ce1781c	0.027523093
25	0x3f58df3c	0.8471563
26	0xc08f817e	-4.484557
27	0x40961850	4.690468
28	0x3fb85cbd	1.4403301
29	0xc094eb1a	-4.653699
30	0x3b8a6af5	0.004224176
31	0x411d5a04	9.834476
32	0x409f3015	4.9746194
33	0xc13af074	-11.683704
34	0x40fe3227	7.943622
35	0xc16d919f	-14.848052
36	0x3ddc254c	0.10749301
37	0xc1456e55	-12.339437
38	0x412ea5eb	10.915507
39	0xc1cf9771	-25.948946
40	0xc155aa86	-13.354132
41	0xbe36bd2a	-0.17845598
42	0x3dde720d	0.10861597
43	0xc08a19aa	-4.315633
44	0x40a08182	5.015809
45	0xbfd34635	-1.65058
46	0xc082945d	-4.0806108
47	0x3e1f608b	0.15564172
48	0x3db4138e	0.08792792
49	0x3f5fadc9	0.8737455
50	0x4117e658	9.493736
51	0x4135373e	11.325987
52	0x3f9cb583	1.2242893
53	0x408044f8	4.008419
54	0xbec5d90f	-0.38642165
55	0x40113039	2.2685683
56	0xc11810a0	-9.504059
57	0xc067e40f	-3.6232946
58	0x4006a641	2.1038973
59	0x41084636	8.517141
60	0x3dbab3d5	0.091163315
61	0xc0118e6a	-2.2743173
62	0x40a43a5a	5.132123
63	0xbfcfdf9e	-1.6240118
64	0xbff5a910	-1.9192219
65	0x3f6eaf51	0.9323626
66	0x3b13ba38	0.0022541415
67	0x3fff2027	1.9931687
68	0x412d0709	10.814218
69	0x4193ed93	18.491003
70	0x3f9d8b64	1.2308164
71	0x41e50be2	28.630802
72	0xbd295ac0	-0.04134631
73	0xbecbebc5	-0.39828315
74	0x3ecb5e1e	0.39720243
75	0x3cac0640	0.020999074
76	0xbeac428b	-0.33644518
77	0xbece8b96	-0.4034087
78	0x3cd5541a	0.02604108
79	0x3ff03c7f	1.8768462
80	0xc1219a6f	-10.1002035
81	0x42591068	54.26602
82	0x40098685	2.1488354
83	0x41aa3559	21.276049
84	0x3dcfe1ca	0.10150488
85	0x3f34e693	0.7066433
86	0xc04549f9	-3.08264
87	0x405e272d	3.471141
88	0x3f9d99e0	1.2312584
89	0xc0aab3c0	-5.334442
90	0x3e9e456f	0.3091235
91	0xc0024b45	-2.035844
92	0x40a4f8b3	5.155359
93	0xc04a9827	-3.1655366
94	0xbfa59b22	-1.2937968
95	0x3dbf46ca	0.09339674
96	0x3bb3bb0c	0.005484944
97	0x41292eff	10.573974
98	0x40bdb3ef	5.9282146
99	0xc1448d7b	-12.284541
100	0x40fd8e1e	7.9235983
101	0xc17a800d	-15.656262
102	0xbe795dea	-0.24352232
103	0x3d987450	0.0744406
104	0x3c16fc20	0.009215385
105	0xbdb80d90	-0.08986962
106	0xbebdebbd	-0.37093917
107	0x3e105904	0.14096457
108	0x3e626fbd	0.22112937
109	0xc074c94b	-3.824786
110	0x40875863	4.2295394
111	0x3ed8f6b1	0.4237571
112	0xc046c755	-3.1059163
113	0x3d502fdb	0.05082689
114	0x3eac81fd	0.33692923
115	0xbff496f8	-1.9108572
116	0x408d2be3	4.4116073
117	0xbf6a7be9	-0.9159532
118	0xbfe175f1	-1.7614118
119	0x3d54e121	0.051972512
120	0xbe3f5898	-0.1868614
121	0x3e64847b	0.22316162
122	0xbeb31543	-0.3497716
123	0x3d927a2b	0.07152208
124	0xbd8b08be	-0.06788777
125	0xbe3f4338	-0.18677986
126	0xbe192f7a	-0.14959517
127	0xbe13dcb4	-0.1443966
128	0x3e957fda	0.29199106
129	0xbb659200	-0.003502965
130	0xbe8e43c1	-0.27786067
131	0xbeb529be	-0.3538341
132	0x3eb83b4a	0.35982734
133	0xc03f5ac3	-2.9899147
134	0x409b18a5	4.8467584
135	0xbe9f6835	-0.3113419
136	0xc0316663	-2.7718742
137	0xbf04dfab	-0.5190379
138	0xbc1e8100	-0.009674311
139	0x3e7217ec	0.23641938
140	0xbeb86f79	-0.36022547
141	0x3e6d5de8	0.23180354
142	0xbe88869a	-0.26665193
143	0x3ea2ea08	0.31819177
144	0x3df71f1d	0.12066481
145	0xbe677419	-0.22602881
146	0x410e21b6	8.88323
147	0xc25c54d8	-55.082855
148	0xbed85e22	-0.42259318
149	0xc1730b76	-15.190298
150	0xbeb75379	-0.35805872
151	0x3e58f960	0.21188879
152	0xbe90bd24	-0.28269303
153	0x3eb31bce	0.3498215
154	0xbe5a67c9	-0.21328653
155	0xbdf14c00	-0.11782074
156	0xbe2ca46e	-0.168596
157	0xbef00450	-0.4687829
158	0xbd06b646	-0.032888673
159	0x3dcb0ec1	0.099149235
160	0x3dcae7d2	0.099074975
161	0x3e58857f	0.21144675
162	0xbe06bd90	-0.1315825
163	0x3e6d50f0	0.23175406
164	0x3d7b22c0	0.061312437
165	0x3e65f064	0.22454983
166	0xbe77c277	-0.24195276
167	0xbca669a0	-0.020314038
168	0x3e6bf2b9	0.2304181
169	0xc066c255	-3.605611
170	0x405f4bc1	3.4889987
171	0x3fa80054	1.31251
172	0xc074b13a	-3.823317
173	0x3fa9cec2	1.3266222
174	0x3ca6f253	0.020379221
175	0xc1339def	-11.226058
176	0x4113bfef	9.234359
177	0xc1904f2a	-18.038654
178	0xc126fe68	-10.437111
179	0x3fb545ab	1.4161886
180	0xbe447a8d	-0.19187374
181	0xbe9fd736	-0.3121888
182	0x3e5e37d0	0.21700978
183	0xbe645bce	-0.22300646
184	0xbea6d6dc	-0.325858
185	0x3de4a0d0	0.11163485
186	0x3b7176da	0.0036844523
187	0x41245cf1	10.272691
188	0x40a6549b	5.197828
189	0xc13e293f	-11.88507
190	0x40fa19b2	7.8156366
191	0xc17069b6	-15.025808
192	0x3e53eee0	0.20696592
193	0xbfb3f395	-1.405871
194	0x40b97e9d	5.7967057
195	0xc0a23211	-5.0686116
196	0xbf9de8e5	-1.2336699
197	0xbf6f33cf	-0.9343843
198	0x3eab46b3	0.33452377
199	0xc0671597	-3.6106927
200	0x4072fe55	3.7967732
201	0x3fb12fc8	1.3842707
202	0xc0475f2d	-3.115184
203	0x3fb9333a	1.4468758
204	0xbe829dc0	-0.2551098
205	0x3e49e026	0.19714412
206	0xbead33f3	-0.33828697
207	0xbecda875	-0.40167585
208	0xbd67aeae	-0.056563072
209	0xbf2d73ad	-0.6775463
210	0x3e2dcd92	0.1697295
211	0xc09df54c	-4.9361935
212	0x4080053e	4.00064
213	0xbf58606f	-0.84522146
214	0xc09fad9c	-4.9899426
215	0xbecc8d23	-0.3995143
216	0x3e89eda4	0.26939118
217	0xc013c56a	-2.3089242
218	0x40a49dfd	5.1442857
219	0xbfe3d11c	-1.779819
220	0xbfd8f44a	-1.6949551
221	0x3ea685be	0.32523912
222	0x3ea6f5c0	0.32609367
223	0xc04107bd	-3.0160973
224	0x4088bff4	4.273432
225	0x3ef003c1	0.46877864
226	0xc04de8c1	-3.2173312
227	0x3f7cdd98	0.98775625
228	0xbca0894b	-0.019596716
229	0x401aa714	2.4164476
230	0x4088c4ac	4.274008
231	0x41aeacf1	21.834444
232	0x3fae22f3	1.3604416
233	0x421c454d	39.067677
234	0xbe53d95d	-0.20688386
235	0x3eaa183c	0.33221614
236	0xbe5906e8	-0.21194041
237	0xbd26ebd0	-0.040752232
238	0xbe914151	-0.28370145
239	0xbe03dc1a	-0.12876931
240	0x3d023cde	0.03179633
241	0xc0fa6dbc	-7.8258953
242	0x4071f18a	3.7803674
243	0xbf9b1588	-1.2115946
244	0xc0f44a5b	-7.6340766
245	0x3f4327bd	0.7623251
246	0x3eab6e98	0.33482814
247	0xc0652629	-3.580454
248	0x407853bd	3.880111
249	0x3f057912	0.52137864
250	0xc0505484	-3.2551584
251	0x3f3fb270	0.7488165
252	0x3b96a0b8	0.004596796
253	0x4122a3a7	10.164954
254	0x40a9b045	5.3027673
255	0xc13d6251	-11.836503

fc1.bias f4 [256]
0	0xc077716f	-3.8662984
1	0x400f475d	2.2387307
2	0x405abe2c	3.4178572
3	0xbd59362c	-0.053030178
4	0xc0768e47	-3.852434
5	0xc053013c	-3.2969503
6	0x4182dc14	16.35746
7	0x400e918e	2.227634
8	0x4141c8cc	12.111523
9	0xc0911e84	-4.534975
10	0x4062c563	3.5432975
11	0x4081e7b2	4.059533
12	0xbd9937d0	-0.074813485
13	0xc115cb56	-9.362143
14	0x3f936490	1.1515064
15	0x407baef3	3.932553
16	0xc07230b0	-3.7842216
17	0xbcb5c940	-0.02219069
18	0x3ff13ee1	1.8847314
19	0x401e623b	2.4747455
20	0xbe97c21a	-0.29640275
21	0x3e3047d4	0.172149
22	0x4017cd2b	2.3718975
23	0x3e92e5c4	0.28690922
24	0x41b5fe89	22.749285
25	0xbeb82497	-0.35965416
26	0xbe8c3612	-0.27385002
27	0x3e59e63c	0.21279234
28	0x3fdde44f	1.7335299
29	0x412d14b4	10.817554
30	0x3e3319a8	0.17490256
31	0xc06ccc34	-3.6999636
32	0x40696fa9	3.6474402
33	0x4007667d	2.1156304
34	0xbdaa4b4f	-0.08315145
35	0x40117a85	2.273103
36	0x40397411	2.8977091
37	0x3fe72810	1.8059101
38	0x40832995	4.098826
39	0x3e8784e4	0.26468575
40	0x403be231	2.9356806
41	0x3fc70ddb	1.5551103
42	0xc070e107	-3.7637346
43	0x3d0f0640	0.03491807
44	0x3e7c6340	0.24647236
45	0x3e92a02a	0.2863782
46	0xc0a89e1b	-5.2693
47	0x4011dac3	2.2789772
48	0x400398fd	2.0562127
49	0xc095391c	-4.6632214
50	0x3e9088d8	0.28229403
51	0xbe66a9c3	-0.22525696
52	0x40085c02	2.1306157
53	0x3e58ac75	0.21159537
54	0x3d2966b0	0.041357696
55	0xc0826fab	-4.0761313
56	0xbe96e543	-0.29471788
57	0xc08ded46	-4.435214
58	0x40397af2	2.898129
59	0x4021ad63	2.5262077
60	0x3e9b1b4e	0.3029427
61	0xc11c1854	-9.7559395
62	0x400b0932	2.1724362
63	0xbf93f85c	-1.1560168
64	0xc002ee58	-2.0457973
65	0x3eb19f7a	0.34691983
66	0x40113815	2.269048
67	0x400c58f8	2.1929302
68	0x3e782c38	0.24235618
69	0x40d61fe8	6.691395
70	0x3feeaa61	1.8645746
71	0x40068ffd	2.1025383
72	0x4047f025	3.1240323
73	0x413c3a64	11.764256
74	0x40cb2da3	6.349321
75	0xbec24abf	-0.37947652
76	0xbedb3835	-0.4281632
77	0xc04a1012	-3.1572309
78	0x40c4c01a	6.14845
79	0x402c14c5	2.6887677
80	0xc02f2315	-2.7365162
81	0xc1280bd1	-10.502885
82	0xbe844c2c	-0.25839365
83	0x3fdd1d31	1.7274534
84	0x40610e65	3.5165036
85	0x40bb7719	5.8582883
86	0xc07a4631	-3.9105341
87	0x3dca30c0	0.098725796
88	0xbfa267ce	-1.2687929
89	0xbc1798c0	-0.009252727
90	0x3e7b7798	0.2455734
91	0x40a6d838	5.213894
92	0x41ba2e49	23.2726
93	0x401ec3d0	2.4807014
94	0xc08a3f98	-4.320263
95	0xc0620b72	-3.5319486
96	0xc150758d	-13.028699
97	0x401a0792	2.406712
98	0x4068bd31	3.6365473
99	0xc06cf220	-3.7022781
100	0x403be611	2.9359171
101	0xbea2749a	-0.31729585
102	0xbd355352	-0.044268914
103	0x3ea0f980	0.31440353
104	0xbd9dd381	-0.07706357
105	0x40368471	2.8518336
106	0xbe27c71e	-0.16384551
107	0x402caf08	2.698183
108	0x401bf4e5	2.4368222
109	0xc0d5de42	-6.683381
110	0xbddb7200	-0.10715103
111	0x40001a05	2.001588
112	0xc14e890f	-12.908462
113	0x40517c21	3.2732012
114	0x4071e74e	3.7797427
115	0x3fdcd01c	1.725101
116	0xc056f6a2	-3.3588033
117	0x4093451b	4.6021857
118	0x4007cc91	2.1218607
119	0xbff22d95	-1.892016
120	0x403cc0c3	2.9492652
121	0xbe8ef037	-0.27917644
122	0x404b1176	3.1729407
123	0xbdda26a4	-0.10651901
124	0xc05aa7bc	-3.4164877
125	0xbe124208	-0.14283001
126	0xbdc1ecc0	-0.094689846
127	0x40243408	2.5656757
128	0x40067734	2.1010256
129	0x3c7b2660	0.0153289735
130	0xbec748a9	-0.38922623
131	0xbec5c1a6	-0.38624305
132	0x41c47d8c	24.561302
133	0x3e1b53f0	0.15168738
134	0xc036d80d	-2.8569367
135	0xbeb36bee	-0.3504328
136	0x3fe28c60	1.7699089
137	0x4015f984	2.3433542
138	0x403d36eb	2.956477
139	0x407fadf7	3.994993
140	0x402b1b85	2.6735547
141	0xc05f9779	-3.4936202
142	0x404647b2	3.098126
143	0xc067d197	-3.6221673
144	0x4186dce1	16.857851
145	0xbe38308a	-0.17987266
146	0xbe836b47	-0.25667784
147	0x3fe3f447	1.7808923
148	0x413eec13	11.932635
149	0xbe97728d	-0.29579583
150	0x40307f05	2.7577527
151	0xc032853b	-2.7893817
152	0x3e8ae75c	0.27129638
153	0xbe3c0f96	-0.1836532
154	0x4020a2a9	2.509928
155	0xbe957c3c	-0.29196346
156	0x403ac57d	2.9183037
157	0xbea03824	-0.31292832
158	0x40611989	3.5171835
159	0x40e2a95d	7.083174
160	0xbf59fbb5	-0.851497
161	0x413f0b24	11.94022
162	0xc06f8188	-3.742281
163	0x4060adde	3.510612
164	0xc06849ef	-3.6295125
165	0x40061929	2.0952857
166	0x4068fca0	3.640419
167	0x4009dc0c	2.1540556
168	0x4027af2e	2.6200671
169	0x4061f33e	3.5304713
170	0x3e359728	0.17733443
171	0x4040881f	3.0083082
172	0x403d8fa0	2.9618912
173	0x40382c98	2.8777218
174	0xbff40386	-1.9063575
175	0x3ff326f1	1.8996259
176	0xc0fff669	-7.9988294
177	0x40baf63f	5.8425593
178	0xc0ea3288	-7.3186684
179	0x400fc6b0	2.246502
180	0x40ab4b4b	5.352941
181	0x404cb5df	3.1986005
182	0x400afaae	2.1715503
183	0x4014ba34	2.323865
184	0xbebf5d12	-0.37375695
185	0xc12275a6	-10.153723
186	0x40212ee2	2.5184865
187	0xbfd9b9ce	-1.7009828
188	0x4081f5df	4.0612636
189	0xbd3acee0	-0.045607448
190	0x3dc72aa8	0.09724933
191	0xbea401f4	-0.3203274
192	0xbe36336a	-0.1779305
193	0x407b58b8	3.92729
194	0xbfc8d510	-1.5690022
195	0xbd07db88	-0.033168346
196	0xc086c2f0	-4.211296
197	0xbe2fdaa3	-0.17173247
198	0xbf3026bd	-0.6880911
199	0xc1186405	-9.524419
200	0x3d88e590	0.066844106
201	0xbf92c3c2	-1.146599
202	0xbe197b5a	-0.14988461
203	0x40643dbd	3.5662682
204	0x402839a5	2.6285183
205	0x401c070d	2.4379303
206	0x3fec7910	1.8474445
207	0x3db06fac	0.0861505
208	0x40315186	2.7706008
209	0xbea6f5b9	-0.32609347
210	0x3fdfe115	1.7490565
211	0xbec39759	-0.38201407
212	0x407220bd	3.7832482
213	0x3ff238d6	1.8923595
214	0xc017dd13	-2.3728683
215	0xc095d643	-4.682405
216	0x3d421dae	0.047391586
217	0x3b624c00	0.0034530163
218	0xbee34b63	-0.44393453
219	0xbf48f2f3	-0.7849571
220	0xc0ac4f59	-5.384686
221	0x3d1c40e0	0.038147807
222	0xc0905b7e	-4.5111685
223	0x400792d4	2.1183367
224	0xbdfefc12	-0.12450422
225	0x402b6572	2.6780667
226	0x3e07bdb0	0.13255954
227	0xbe00af82	-0.12566951
228	0xc05bff9f	-3.4374769
229	0x3cd69d40	0.02619803
230	0xbec000b8	-0.37500548
231	0x3ea2cf56	0.3179881
232	0x40384dbd	2.8797448
233	0xc0f888ea	-7.766713
234	0xbf872ce3	-1.0560573
235	0x404ba9ef	3.182247
236	0x3eb7562e	0.35807937
237	0x3e24e258	0.16101968
238	0x3fc3c3fa	1.5294182
239	0xc045b435	-3.089124
240	0x400d047f	2.2033994
241	0xc09c8e86	-4.892398
242	0x3c2a1ec0	0.010383308
243	0x403aa93f	2.91658
244	0x4032a185	2.7911084
245	0x40076263	2.11538
246	0x400fbdcd	2.2459595
247	0xc082d21a	-4.088147
248	0xbe86b76c	-0.26311815
249	0x4004f724	2.0775843
250	0x4004d0e7	2.0752504
251	0xbe6077e5	-0.21920736
252	0xbf9ab0a5	-1.2085158
253	0xbeb842c2	-0.35988432
254	0xc101721d	-8.09036
255	0x409f40af	4.976646
