src/Saved_models/agent_checkpoint_dueling_fastenv.pth (torch, 578346 bytes, 28 tensors)

fc1.weight f4 [256, 6]
0	0xbc5c6d26	-0.013453757
1	0x3e1d2063	0.15344386
2	0xc01a1b64	-2.4079218
3	0xbf57922e	-0.8420743
4	0x3efd1fb6	0.49438256
5	0xbf514390	-0.8174372
6	0xbf800b04	-1.0003362
7	0x3f026c7a	0.5094677
8	0x3fc31543	1.5240864
9	0x3fdc564a	1.7213833
10	0xbd938745	-0.07203535
11	0xbf89db61	-1.0770074
12	0x3f8c589d	1.0964543
13	0xbe76e3c4	-0.24110323
14	0x3f89e02f	1.077154
15	0xbe894124	-0.2680751
16	0xbefee085	-0.4978067
17	0xbf1ea18d	-0.61965257
18	0x3e40d30b	0.18830507
19	0x3e868052	0.26269776
20	0x3efdb4f3	0.49552116
21	0x3ec4c630	0.38432455
22	0xbe1aebd9	-0.15129031
23	0x3e9edb95	0.31026903
24	0xbf3aad08	-0.72920275
25	0xbfc65f06	-1.5497749
26	0xbd9e7098	-0.07736319
27	0xbf8ab014	-1.0834985
28	0xbf20d4ec	-0.62824893
29	0xbefae10b	-0.4899982
30	0xbee96701	-0.45586398
31	0xbe94b3a1	-0.29043296
32	0x3e2af536	0.16695103
33	0xbe8d1246	-0.27553004
34	0xbc954e39	-0.018225776
35	0xbea0145f	-0.31265542
36	0x3f3813f0	0.7190542
37	0x3f146d02	0.5797883
38	0xbedbdf96	-0.4294402
39	0xbe2c619d	-0.16834112
40	0x3e1ddfd2	0.15417412
41	0x3e40d592	0.1883147
42	0x3edfbe56	0.43699902
43	0x3dcce264	0.10004118
44	0x3b9d2d16	0.0047966344
45	0xbf1d429f	-0.6142978
46	0x3f3fde1d	0.7494829
47	0xbfda8917	-1.7073087
48	0xbed22065	-0.4104034
49	0x3f330113	0.69923514
50	0xbf1950e8	-0.5988908
51	0xbeb58e1f	-0.35459992
52	0xbe9d3b40	-0.30709267
53	0xbf3d6fe8	-0.7399888
54	0x3dff2a9b	0.12459298
55	0xbf109d38	-0.56489897
56	0x3f2d200c	0.67627025
57	0x3e9c2cac	0.30502832
58	0x3f948800	1.1604004
59	0xbd8cb976	-0.06871311
60	0x3e854d0e	0.2603535
61	0x3dfb9502	0.1228428
62	0x3faeecfb	1.3666071
63	0x3f2e282d	0.68030053
64	0xbe969557	-0.29410812
65	0xbf1fff05	-0.62498504
66	0x3cb4aa09	0.022053735
67	0x3ec926df	0.3928747
68	0x3f8335a3	1.0250744
69	0xbe96eedb	-0.29479107
70	0x3ea9215b	0.3303326
71	0x3ea8057a	0.32816678
72	0x3eeeee78	0.46666312
73	0xbecafd6c	-0.3964647
74	0xbf94a309	-1.1612254
75	0xbf2316a2	-0.6370641
76	0x3f692a41	0.910801
77	0xbfa391bf	-1.2778853
78	0x3f5cf89a	0.86316836
79	0x3f6fef6f	0.9372472
80	0xbee9ec85	-0.45688263
81	0xbeaaf13a	-0.33387166
82	0x3e8f6361	0.28005508
83	0xbd1f5814	-0.038902357
84	0x3d2c4a6b	0.042063158
85	0x3e0dff78	0.13866985
86	0xc000d935	-2.0132573
87	0x3eb65023	0.35608014
88	0xbe6902d1	-0.2275498
89	0x3f6c4689	0.9229513
90	0xbf8112ec	-1.00839
91	0xbebd0b5f	-0.36922738
92	0x3d890c3e	0.06691788
93	0x3f9820b6	1.1884983
94	0xbd5df346	-0.05418708
95	0x3e98040d	0.2969059
96	0xbe7df4b7	-0.24800383
97	0x3f53f4a9	0.82795197
98	0x3dfb4537	0.12269061
99	0xbe06a265	-0.13147886
100	0x3efaec80	0.4900856
101	0x3e5319b9	0.20615281
102	0xbd74bea1	-0.05975211
103	0x3f6eb2df	0.93241686
104	0xbf322f47	-0.6960339
105	0x3fbb9535	1.4654909
106	0x3e5c6949	0.21524538
107	0xbe47816c	-0.19482964
108	0x3f7fbd22	0.9989797
109	0x3f998bb9	1.1995765
110	0x3e54d209	0.20783247
111	0x3eec5cd0	0.4616456
112	0x3e538423	0.20655875
113	0xbe749361	-0.23884346
114	0x3e0aa4bd	0.13539405
115	0x3f8a0c39	1.078498
116	0xbde2b997	-0.11070555
117	0x3f350a9e	0.70719326
118	0xbee5a0ce	-0.44849247
119	0xbf35cd80	-0.71016693
120	0xbe64bf22	-0.22338536
121	0x3e173dd8	0.14769685
122	0xbe79f220	-0.2440877
123	0x3c41e0b1	0.011833356
124	0xbda82c3d	-0.08211563
125	0xbf8b0956	-1.0862224
126	0x3f07fab8	0.5311694
127	0x3f3536df	0.7078685
128	0xbf99f677	-1.202834
129	0xbe9d02f5	-0.3066632
130	0xbe82605d	-0.25464144
131	0x3eb04fad	0.34435788
132	0xbd4d6037	-0.050140586
133	0xbed4393f	-0.41449925
134	0xbfd5bf49	-1.6699001
135	0xbed1bc21	-0.40963843
136	0x3f369e55	0.71335346
137	0xbf252bab	-0.6451976
138	0x3f2e6fa7	0.6813912
139	0xbf2b58c9	-0.6693235
140	0xbf1f3aa5	-0.6219886
141	0xbd997666	-0.07493286
142	0x3e92fe01	0.28709415
143	0x3f58bce7	0.8466324
144	0x3eb73219	0.3578041
145	0xbf60e35d	-0.8784693
146	0x3f2f83c3	0.6856043
147	0x3ed92e6d	0.42418233
148	0x3ea88cba	0.32919866
149	0x3f0d42b5	0.5517991
150	0xbd7fe546	-0.06247451
151	0x3f22573c	0.6341436
152	0x3f1d5413	0.6145641
153	0x3de2186f	0.110398166
154	0x3f00529d	0.5012606
155	0x3ed7e4dc	0.42166793
156	0x3ced4a81	0.02896619
157	0xbf4500f5	-0.76954585
158	0x3f91764e	1.1364229
159	0xbf75c70a	-0.96006835
160	0x3f4a584c	0.7904098
161	0x3d164275	0.036684472
162	0x3f1a6fb7	0.60326713
163	0xbf111c5c	-0.566839
164	0xbdd98cae	-0.10622536
165	0x3ec42827	0.38311884
166	0x3bd4c099	0.006492686
167	0xbe34268c	-0.1759283
168	0xba93151a	-0.0011221499
169	0x3e1dce06	0.15410623
170	0x3ed4c7b4	0.4155861
171	0x3fcc8886	1.5979164
172	0xbf0c8800	-0.5489502
173	0x3fc53033	1.5405334
174	0x3f460800	0.7735596
175	0x3ecc2b38	0.39876723
176	0xbea92c12	-0.33041435
177	0xbc74dbde	-0.014944999
178	0x3e0ce9c3	0.13761048
179	0x3e121481	0.14265634
180	0x3fd4d4dd	1.6627461
181	0x3eb7f3be	0.35928148
182	0xbebed74b	-0.3727363
183	0xbef26893	-0.4734541
184	0x3f16a267	0.58841556
185	0xbcdb51fb	-0.02677249
186	0x3ea9f371	0.33193544
187	0xbf192c7a	-0.5983349
188	0x3eaadaf8	0.33370185
189	0xbf955966	-1.1667907
190	0x3e600d90	0.21880174
191	0xbea7b397	-0.32754204
192	0xbfb05c58	-1.3778181
193	0x3e89732e	0.26845688
194	0x3d5ab634	0.05339642
195	0xbe54575b	-0.20736448
196	0x3f481ee4	0.78172135
197	0xbec3c56a	-0.38236552
198	0xbeb4ff0b	-0.35350832
199	0xbd8e8a86	-0.06960015
200	0x3e82c3df	0.25540063
201	0xbc320397	-0.010865114
202	0x3eb005bb	0.34379372
203	0xbee05395	-0.43813768
204	0x3f9a8433	1.2071594
205	0xbecad027	-0.39611933
206	0xbf420f09	-0.7580419
207	0xbe662e81	-0.22478677
208	0x3f5cd99f	0.86269563
209	0x3e08515b	0.13312285
210	0x3da24077	0.07922452
211	0x3f305942	0.68886197
212	0xbf99b185	-1.20073
213	0x3dd00c9d	0.10158656
214	0x3f885ed0	1.0653934
215	0x3f8a9fa0	1.0829964
216	0xbd85de05	-0.065364875
217	0xc0a773f1	-5.232903
218	0x3f551b23	0.8324453
219	0xbf8cb238	-1.0991888
220	0xc0ae76de	-5.45201
221	0xbdb55107	-0.08853345
222	0xbeeaab1c	-0.4583367
223	0xbf09c065	-0.53809196
224	0x3f8210e8	1.0161409
225	0xbe5ee72b	-0.21767871
226	0xbf0517e1	-0.5198956
227	0x3f9b8944	1.2151265
228	0xbfaa4c0c	-1.3304458
229	0x3f48ff33	0.78514403
230	0x3d718093	0.05896051
231	0x3d128e42	0.0357802
232	0xbef58f10	-0.4796071
233	0x3df55c93	0.11980548
234	0x3fb22484	1.3917394
235	0x3ed284ad	0.4111685
236	0xbeb68575	-0.35648695
237	0xbf3d7a84	-0.7401507
238	0xbf2eabbe	-0.6823081
239	0x3e95a0f2	0.29224354
240	0xbf4ae8de	-0.7926158
241	0xbe5fc4b1	-0.21852376
242	0x3f2debc2	0.6793786
243	0xbf2ee27b	-0.6831433
244	0x3eef680a	0.46759063
245	0x3e333ba0	0.17503214
246	0x3edf6a39	0.4363573
247	0x3fd9e95a	1.7024338
248	0x3f8a7448	1.0816736
249	0xbf9bf9cf	-1.218561
250	0xbf7fb888	-0.9989095
251	0xbf8c5d55	-1.0965983
252	0x3f21c0ce	0.6318482
253	0x3e8d6240	0.2761402
254	0x3d340db7	0.043958392
255	0x3ebf700c	0.37390172

fc1.bias f4 [256]
0	0xbef8fb35	-0.48629156
1	0x3f1a0ed5	0.6017888
2	0x3e6e013b	0.23242657
3	0x3e5b3683	0.21407513
4	0x00000000	0.0
5	0x00000000	0.0
6	0x3dcbebe8	0.09957105
7	0xbe360cf8	-0.17778385
8	0x00000000	0.0
9	0x3eb74765	0.35796657
10	0x3e5dee68	0.21672976
11	0x3e8f5f65	0.28002468
12	0x40181aa7	2.3766267
13	0x3e9812d8	0.29701877
14	0x3e812bea	0.25228816
15	0x00000000	0.0
16	0x3e42a36d	0.19007654
17	0xbf925a11	-1.1433736
18	0x3e3d8a8d	0.18509884
19	0xbfe67fbf	-1.8007735
20	0x00000000	0.0
21	0x3d1e8982	0.038705356
22	0xbe848041	-0.258791
23	0x3ec77ee4	0.38963997
24	0x3ec60fe6	0.38684005
25	0x3ec40fee	0.38293403
26	0x3e37ac90	0.17936921
27	0x3e09bcc2	0.13450912
28	0x3ec38070	0.38183928
29	0x3e340a1a	0.17581978
30	0x3e553f79	0.20824994
31	0x3f18265b	0.59433526
32	0x00000000	0.0
33	0x00000000	0.0
34	0x3ea60b25	0.32430378
35	0x3e7e6878	0.24844539
36	0xbd8ff2e1	-0.07028747
37	0xbe81ead3	-0.2537447
38	0x00000000	0.0
39	0x3e462cf8	0.19353092
40	0x00000000	0.0
41	0xbe0d3a88	-0.13791859
42	0x3ea611fd	0.324356
43	0x3eaf086d	0.34186116
44	0x00000000	0.0
45	0x3f83199e	1.0242193
46	0x3e4979aa	0.19675317
47	0x3eb249ab	0.3482183
48	0x00000000	0.0
49	0x3e8a259a	0.26981813
50	0x3ec0d589	0.37662914
51	0x3e875ecf	0.2643952
52	0x00000000	0.0
53	0x00000000	0.0
54	0x00000000	0.0
55	0xbe835bbd	-0.25655928
56	0x00000000	0.0
57	0xc025110c	-2.5791655
58	0x3ffbb47b	1.9664453
59	0x3f0e8fcd	0.5568817
60	0x00000000	0.0
61	0x3ef03ef0	0.46923018
62	0x00000000	0.0
63	0x3e9603f9	0.29299906
64	0x3f54bd34	0.831012
65	0x3e83f0d3	0.25769672
66	0x3dd4340f	0.10361492
67	0x3f12b232	0.57303154
68	0x3f5c91b0	0.861598
69	0xbfc89d62	-1.567303
70	0x3e5d5b06	0.21616754
71	0x3ea6bfc2	0.32568175
72	0x3e9f4251	0.31105283
73	0x00000000	0.0
74	0x3ed1354c	0.40860975
75	0xbfb3fd67	-1.4061707
76	0x00000000	0.0
77	0x3e959875	0.29217878
78	0xbeaeeaae	-0.3416342
79	0xbd399460	-0.045307517
80	0x00000000	0.0
81	0x3d8a7f82	0.067626014
82	0x3f5e434b	0.8682143
83	0x3e7a7339	0.24458016
84	0x3ea20281	0.31642535
85	0xc012c56a	-2.2932992
86	0x3dcd88be	0.10035847
87	0x3dcd6ed6	0.10030906
88	0x3ea365d8	0.31913638
89	0xbfe7176b	-1.8054022
90	0x3e6e16e6	0.23250923
91	0x3e570f8f	0.21002029
92	0x00000000	0.0
93	0x3e858b0d	0.2608265
94	0x3e9ddf7a	0.30834562
95	0x3fdb7af7	1.7146901
96	0x00000000	0.0
97	0x00000000	0.0
98	0x3e7fa9cf	0.2496712
99	0x3e1cdca5	0.15318544
100	0x3f2d3030	0.67651653
101	0x3f0887f7	0.53332466
102	0x00000000	0.0
103	0x40317ba2	2.773171
104	0x3e8f1e05	0.2795259
105	0xbf90ea61	-1.1321527
106	0x00000000	0.0
107	0x00000000	0.0
108	0x3e3e7566	0.18599471
109	0x3d9c66b1	0.07636774
110	0x3e8e81fd	0.27833548
111	0x00000000	0.0
112	0x00000000	0.0
113	0x3e10a211	0.14124323
114	0x3eafdee3	0.34349737
115	0x3c93f27f	0.018059967
116	0x3e9830cb	0.29724726
117	0x3d8c45b0	0.06849229
118	0x3ea5181e	0.32244962
119	0x3e3e52bb	0.18586247
120	0xbe2b8694	-0.16750556
121	0x3eaa3fba	0.33251745
122	0x00000000	0.0
123	0xc00ca877	-2.1977823
124	0x3e165502	0.14680865
125	0x3e6a6440	0.22889805
126	0x3ec75cf2	0.389381
127	0x00000000	0.0
128	0x00000000	0.0
129	0x00000000	0.0
130	0x3e9f1e19	0.3107765
131	0x3eafb4ee	0.34317726
132	0x00000000	0.0
133	0x3ea48afd	0.3213729
134	0x00000000	0.0
135	0x00000000	0.0
136	0x3eb852f7	0.36000797
137	0xbdac464b	-0.08411845
138	0xbcfe3e7f	-0.03103566
139	0x3eb62663	0.35576162
140	0x3eacaee8	0.33727193
141	0x3e9f1064	0.31067193
142	0xbfb514d8	-1.4146986
143	0x3e7e480b	0.2483217
144	0x3eb85e4c	0.36009443
145	0x00000000	0.0
146	0x3faef06e	1.3667123
147	0x3ea7383b	0.32660088
148	0x00000000	0.0
149	0xbf81d24d	-1.0142304
150	0x3e83d5f0	0.2574916
151	0x3e8de650	0.27714777
152	0x3e95d5bb	0.29264626
153	0xbfee3a7e	-1.86116
154	0xba0c3a49	-0.00053492613
155	0x3e94df3e	0.2907657
156	0x3dd096f2	0.101850405
157	0x3ee4b5e7	0.4467003
158	0xbd24ebfd	-0.04026412
159	0x3ec963ca	0.39333946
160	0x3e886255	0.2663752
161	0x00000000	0.0
162	0xc01ecc50	-2.4812202
163	0xbd8024c3	-0.06257012
164	0x3e93e7dd	0.28887835
165	0x3e97c37c	0.2964133
166	0x00000000	0.0
167	0x3eabd408	0.33560205
168	0xbca73aeb	-0.020413836
169	0x3f6e15f1	0.9300223
170	0xbf8aa4d2	-1.0831549
171	0x3e955512	0.29166466
172	0xbfb77507	-1.4332589
173	0x00000000	0.0
174	0x3ea2d329	0.31801727
175	0x3f150ca0	0.5822239
176	0x00000000	0.0
177	0xbe242305	-0.16028984
178	0x00000000	0.0
179	0x3e8fe5a5	0.28104892
180	0xbf83b94b	-1.0290922
181	0x3e6875aa	0.22701135
182	0x3f264a7b	0.649574
183	0x3e9f3306	0.31093615
184	0xbecd5ff6	-0.40112275
185	0xbf92f966	-1.148236
186	0x3df34171	0.11877716
187	0x3f58ac71	0.84638125
188	0x00000000	0.0
189	0x3e9f5f41	0.3112736
190	0xbd921d64	-0.07134512
191	0x00000000	0.0
192	0x3e85f9f9	0.26167277
193	0x00000000	0.0
194	0xbf4efbba	-0.80852854
195	0x00000000	0.0
196	0x3e2bb0fe	0.16766736
197	0x00000000	0.0
198	0xbd53af77	-0.05168101
199	0x3e86ac63	0.26303396
200	0xbd734a09	-0.059396777
201	0x3e867010	0.26257372
202	0x3ea39953	0.31952915
203	0x3e9c0c35	0.30478063
204	0x3ecdbf04	0.40184796
205	0x3ec5d483	0.38638696
206	0x00000000	0.0
207	0x00000000	0.0
208	0x3f272b20	0.6530018
209	0x3ed6742a	0.418855
210	0xbfd096f2	-1.6296065
211	0xbd61583f	-0.0550158
212	0x3e82d7c7	0.2555525
213	0x00000000	0.0
214	0xbdecae7c	-0.11556718
215	0x3e9108b8	0.28326964
216	0xbd8c6927	-0.06855994
217	0x3e30da01	0.17270662
218	0xbcf50bed	-0.029912913
219	0x3e9436ae	0.28947967
220	0x3ea4d54f	0.32193992
221	0x3f211f84	0.62938714
222	0x3cff2e6d	0.031150067
223	0xbd848e27	-0.06472426
224	0x00000000	0.0
225	0x3f88d59b	1.0690187
226	0x00000000	0.0
227	0xbd006c2c	-0.03135316
228	0x00000000	0.0
229	0x3e9b5ccc	0.30344236
230	0x3e167ea9	0.14696755
231	0x00000000	0.0
232	0x3ebece67	0.37266847
233	0xbfb1ade3	-1.3881191
234	0x3da632e1	0.08115173
235	0x3e2430e9	0.16034283
236	0x3e6f41fa	0.23365012
237	0xbe968d61	-0.2940474
238	0xbd850901	-0.06495858
239	0x00000000	0.0
240	0x00000000	0.0
241	0x3df06d6f	0.11739623
242	0x3e6e8b7a	0.23295394
243	0x3cddcb97	0.027074618
244	0x3dbb0447	0.09131675
245	0x3e242e38	0.16033256
246	0x3d8ec21e	0.06970619
247	0x3e81ac71	0.25326875
248	0x3ed01bd8	0.40646243
249	0x00000000	0.0
250	0x00000000	0.0
251	0x3f0ac9c7	0.5421414
252	0x3e7fe2af	0.24988817
253	0xbeac3c3c	-0.33639705
254	0x3e805e82	0.25072104
255	0x3d90ec1b	0.070762835

fc2.weight f4 [128, 256]
0	0x400f65b1	2.2405818
1	0xbfccba1f	-1.59943
2	0x3efcccaa	0.49374896
3	0xbdfaa21e	-0.12237953
4	0x3d2294bc	0.039692625
5	0xbe46e6f1	-0.19424035
6	0x3dab9f56	0.0838
7	0x3f27295b	0.6529748
8	0x3c7c689e	0.015405802
9	0x3e3da166	0.185186
10	0x3e87a277	0.26491138
11	0xbe437d75	-0.19090827
12	0xbff6a9a3	-1.9270519
13	0x3ebfc24c	0.37452924
14	0xc08d259c	-4.410841
15	0x3c2813b7	0.010258607
16	0xbdee8376	-0.11646168
17	0xbf352baa	-0.7076975
18	0x3de0eddc	0.10982868
19	0x3f1a2104	0.6020663
20	0xbc7b3e89	-0.015334734
21	0xbe707680	-0.23482704
22	0x3e7efdee	0.24901554
23	0xbf5c3df9	-0.8603206
24	0xbe8cdd1f	-0.27512452
25	0xbe7d7454	-0.24751407
26	0x400a5596	2.1614738
27	0x3e8b58f4	0.27216303
28	0xbf6b08b5	-0.9181016
29	0x3e29c6c4	0.1657973
30	0x3da0b08c	0.07846174
31	0x40305bcc	2.7556028
32	0xbd5e15f7	-0.054220166
33	0xbd996365	-0.07489661
34	0x3d59e138	0.0531933
35	0xbe06ae44	-0.13152415
36	0x3e9de1f8	0.30836463
37	0x3e5674d9	0.20943011
38	0x3b1c9921	0.0023894983
39	0x3e828877	0.2549474
40	0xbd3b3f74	-0.04571481
41	0x3f949e9c	1.1610904
42	0x3e3de62c	0.18544835
43	0x3c7bc023	0.015365633
44	0xbbee6a52	-0.007275858
45	0xbf30ddab	-0.6908824
46	0xbdbde9a7	-0.09273081
47	0xbd4d776a	-0.05016271
48	0x3d92232f	0.07135617
49	0xbdca437f	-0.09876155
50	0xbdad996a	-0.08476527
51	0xbcaf0066	-0.021362495
52	0xbc696a21	-0.0142464945
53	0x3d176147	0.036958005
54	0x3e30c841	0.17263891
55	0xc0bb8899	-5.8604245
56	0x3d785cbe	0.06063532
57	0x3f729627	0.94760364
58	0xbfb42a91	-1.407549
59	0xbe191602	-0.14949802
60	0x3ca37f16	0.01995806
61	0xbf95cba4	-1.1702771
62	0x3bcfcd8b	0.0063416413
63	0xbd6cbc0a	-0.057796516
64	0x3febfdf2	1.8436873
65	0x3ca5e8b0	0.020252556
66	0x3f06a616	0.5259718
67	0xbf00da1f	-0.50332826
68	0xbe3d2be8	-0.1847378
69	0x3f833e03	1.02533
70	0x3e92d9ba	0.28681737
71	0xbe7a41d3	-0.24439172
72	0xbe386f41	-0.1801119
73	0xbe0891cc	-0.13336867
74	0xbfe615e1	-1.7975427
75	0x3f049591	0.5179072
76	0x3dbc2b27	0.09187918
77	0xbe298814	-0.16555816
78	0x3f328f3f	0.69749826
79	0xbc1dd46c	-0.009633165
80	0x3e1710b6	0.14752468
81	0x3e2ba2d6	0.16761336
82	0x40945c93	4.6363006
83	0x3e2bd57e	0.1678066
84	0xbd857405	-0.065162696
85	0xbf14995f	-0.58046526
86	0x3ea0b896	0.31390828
87	0xbd3a531e	-0.045489423
88	0x3d3d0f2e	0.046157055
89	0x3fc88f0d	1.5668656
90	0x3e0dc829	0.13845886
91	0x3d1fe82b	0.039039772
92	0xbce528cb	-0.027973553
93	0xbe71085d	-0.23538347
94	0x3e9efcaa	0.31052142
95	0xbe857985	-0.26069275
96	0xbdfaa309	-0.12238128
97	0xbe2afefe	-0.16698834
98	0x3dfaec30	0.122520804
99	0x3d8ce8da	0.068803504
100	0x40186108	2.3809223
101	0xbf29bcaf	-0.66303533
102	0x3d7ba99a	0.06144104
103	0xc09d7325	-4.9203057
104	0x3e504d02	0.20341876
105	0xbfbe8743	-1.4885029
106	0xbdeb89a4	-0.11500862
107	0x3cb54802	0.022129063
108	0x3eb8f362	0.36123186
109	0x3c35abe3	0.011088344
110	0xbf477ccd	-0.77924806
111	0xbde4d6b7	-0.11173766
112	0x3d33badd	0.04387938
113	0xbf110184	-0.5664294
114	0xbe1595ca	-0.14607921
115	0xbf6367b9	-0.88830143
116	0x3e9a79a0	0.30170918
117	0x3fb5eab7	1.4212254
118	0x3e40b5cc	0.1881935
119	0x3e6913d3	0.22761469
120	0x3e0b8bda	0.13627568
121	0x3d8377fb	0.06419369
122	0xbe6aaf17	-0.22918354
123	0x3f346b9a	0.70476687
124	0x3d4e7cdf	0.050412055
125	0xbfa88fd8	-1.3168898
126	0x3fd20f64	1.6410947
127	0xbd0f82cb	-0.035036843
128	0x3e86f003	0.2635499
129	0xbd53a84b	-0.05167417
130	0x3eb5c501	0.35501865
131	0xbe9452cc	-0.2896942
132	0xbc4d9df9	-0.012549871
133	0xbe472829	-0.19448914
134	0xbde9ab7f	-0.114096634
135	0xbcfb9184	-0.030709036
136	0x3df9bead	0.12194572
137	0x3e968dcd	0.2940506
138	0xbc7ab789	-0.015302547
139	0xbe7fa4ab	-0.2496516
140	0xbe4e8eb8	-0.2017163
141	0xbd118a96	-0.035532556
142	0xbd678bea	-0.056529917
143	0x3e051194	0.12994987
144	0x3e98c14a	0.29834968
145	0xba8fe6da	-0.0010978833
146	0xc0d18d7f	-6.5485225
147	0xbfa5fe5a	-1.2968247
148	0xbdda1948	-0.10649353
149	0x3e953418	0.29141307
150	0xbe03004a	-0.12793079
151	0xbe2dc9f5	-0.16971572
152	0x3cd380ac	0.025818191
153	0x3ed98798	0.42486262
154	0x3f1bfe6a	0.6093508
155	0xbe5be597	-0.214743
156	0xbde22bf2	-0.11043538
157	0xbec342b5	-0.3813683
158	0x3e3bef24	0.18352944
159	0xbe84d002	-0.25939947
160	0x3e149997	0.14511715
161	0x3ca6b435	0.020349601
162	0x3fb8a611	1.442568
163	0x3efb80f9	0.49121836
164	0x3e5e25e9	0.21694149
165	0xbd4a0d93	-0.04932935
166	0xbdd0428d	-0.101689436
167	0x3edd0056	0.4316432
168	0x3cf865f2	0.030322049
169	0xbfac3601	-1.3453981
170	0x3f8c7700	1.0973816
171	0xbd1f72b0	-0.038927734
172	0x3fc36bc9	1.5267268
173	0xbd0dbc31	-0.0346033
174	0x3e337594	0.17525321
175	0x3fb43dc9	1.4081355
176	0x3cd2102d	0.025642479
177	0x3f4f3b0b	0.8094947
178	0xbdb63388	-0.088965476
179	0x3d8bc64c	0.068249315
180	0x4002ebcf	2.0456426
181	0xbe5e60f7	-0.21716677
182	0x3f4b5350	0.79424
183	0x3e15c714	0.14626724
184	0x401902f8	2.3908062
185	0x3f8a2638	1.0792913
186	0x3e988d2f	0.29795215
187	0x3f331ae3	0.699629
188	0x3e4668fb	0.19375984
189	0xbce71962	-0.028210346
190	0xbe05f888	-0.13083088
191	0xbd5cd732	-0.053916164
192	0xbcc31f2a	-0.023818571
193	0xbd00a35d	-0.031405795
194	0xbf926989	-1.1438457
195	0x3ca0daa2	0.019635502
196	0x3da7e1f7	0.08197396
197	0x3b8f1419	0.0043664095
198	0x3f911dae	1.1337183
199	0x3ed4b984	0.41547787
200	0xbe0361de	-0.12830302
201	0x3db9a4e5	0.09064654
202	0xbc0b7bae	-0.008513374
203	0x3db0ca2e	0.08632313
204	0xbd784658	-0.06061396
205	0xbfbb82be	-1.4649274
206	0xbe00280d	-0.12515278
207	0xbdc806bd	-0.0976691
208	0x3f4952f5	0.7864221
209	0x3f0cdd3e	0.5502509
210	0x3ec18b54	0.3780161
211	0x3fa5a203	1.2940067
212	0x3fdbd01f	1.7172889
213	0x3bd3395c	0.0064460468
214	0x3e96af2a	0.29430515
215	0xbf161536	-0.58626115
216	0x3f360a69	0.71109635
217	0xbe8ea3f3	-0.27859458
218	0x3c81878a	0.0158117
219	0x3ed626c6	0.41826457
220	0x3e76bafb	0.24094765
221	0xbe9f1985	-0.31074157
222	0xbe9352c4	-0.28774083
223	0xbd9f4114	-0.077760845
224	0xbde75924	-0.11296299
225	0xbf72c546	-0.94832265
226	0xbe2111af	-0.15729402
227	0x3d8927c8	0.06697041
228	0xbd2369e3	-0.039895903
229	0x3cc78a66	0.024357986
230	0x3f322fae	0.69604003
231	0x3e2faea9	0.17156471
232	0x3b471942	0.0030380045
233	0x3ea0e14d	0.3142189
234	0x3e07c223	0.13257651
235	0xbed37391	-0.41299108
236	0x3dca9529	0.09891731
237	0xbfa58aa0	-1.293293
238	0x3f979c5f	1.1844596
239	0x3d420262	0.047365554
240	0xbd881218	-0.06644076
241	0x3ff6731d	1.925388
242	0x3f88e645	1.0695273
243	0xbf010194	-0.50393033
244	0xbdbdd7f3	-0.09269705
245	0x3e381f79	0.17980756
246	0xbe83ebcf	-0.25765845
247	0x3c1ab062	0.009441467
248	0xc0804604	-4.008547
249	0x3db21c0e	0.08696757
250	0x3e25905c	0.1616835
251	0x3f29c6d3	0.66319007
252	0x3fc6755d	1.5504566
253	0x3f751e82	0.95749676
254	0xbda4d897	-0.08049124
255	0x3f5e3714	0.8680279

fc2.bias f4 [128]
0	0xbe8527f9	-0.2600706
1	0xbc8097e7	-0.015697433
2	0x3eee6988	0.4656489
3	0xbbc4c2aa	-0.006004651
4	0xbcb85a95	-0.02250413
5	0xbbe60c8d	-0.007020539
6	0xbbc4c915	-0.006005416
7	0x00000000	0.0
8	0xbc9a51d2	-0.018837843
9	0xbc97c34e	-0.018525746
10	0x3efae3ce	0.49001926
11	0xbbd5289b	-0.0065050847
12	0x3ecbfec3	0.39842805
13	0xbcea7e64	-0.02862472
14	0x3ec123d3	0.37722644
15	0xbc31cb3f	-0.01085168
16	0xbc1067c2	-0.0088138
17	0x00000000	0.0
18	0xbd02cb60	-0.031932235
19	0xbc0bf074	-0.008541215
20	0xbc998bee	-0.018743481
21	0x00000000	0.0
22	0x00000000	0.0
23	0xbbe23321	-0.0069030677
24	0x00000000	0.0
25	0x00000000	0.0
26	0xbcbe86b6	-0.023257595
27	0x00000000	0.0
28	0xbcc88d8b	-0.024481555
29	0xbc1e6c64	-0.009669397
30	0x3edbf192	0.4295774
31	0xbd12ec8d	-0.035870124
32	0xbca22300	-0.01979208
33	0xbb9b546a	-0.0047402875
34	0xbc210bb0	-0.009829447
35	0x00000000	0.0
36	0xbc4bdb93	-0.012442487
37	0x00000000	0.0
38	0x3f2ecaf6	0.68278444
39	0xbc09bb1d	-0.008406428
40	0x00000000	0.0
41	0xbca874fa	-0.020563591
42	0xbc0ad9ed	-0.008474809
43	0xbc4dafb7	-0.012554101
44	0x3ef66065	0.48120418
45	0xbbe0331d	-0.0068420307
46	0xbbe341b7	-0.006935324
47	0xbf9bb189	-1.2163554
48	0xbc34c343	-0.011032882
49	0xbd9716f0	-0.07377422
50	0x00000000	0.0
51	0xbc38238b	-0.011238943
52	0xbc03d69e	-0.008046774
53	0xbc703b14	-0.014662523
54	0x4008a48f	2.1350439
55	0xbc9da130	-0.0192419
56	0xbc2fbfa9	-0.010726848
57	0xbc149914	-0.0090697
58	0xbc45e3f5	-0.012078275
59	0xbbc4c425	-0.0060048276
60	0xbc26ef29	-0.010188856
61	0xbc6d5bf7	-0.014487258
62	0xbf3c19f4	-0.734771
63	0xbd034998	-0.032052606
64	0xbbf47e79	-0.007461366
65	0xbc5c9945	-0.013464277
66	0xbc08f225	-0.008358513
67	0x3e99a3e3	0.30007848
68	0x3ed1c724	0.40972245
69	0xbc9c0a81	-0.019047977
70	0xbcfc3d58	-0.03079097
71	0xbd23524b	-0.039873403
72	0xbf89d4f9	-1.0768119
73	0xbd2cd0a0	-0.042191148
74	0xbe74e29b	-0.23914568
75	0xbc046244	-0.008080069
76	0xbbf1233e	-0.0073589375
77	0x00000000	0.0
78	0xbea23023	-0.3167735
79	0xbd143eb9	-0.03619263
80	0x00000000	0.0
81	0x3e97ab0c	0.29622686
82	0xbd531c7e	-0.051540844
83	0xbcfde3b9	-0.030992376
84	0xbc87b5f1	-0.016566249
85	0x3eb5a5f2	0.3547817
86	0xbbd5c8da	-0.0065241875
87	0xbc146420	-0.009057075
88	0x00000000	0.0
89	0xbbaea259	-0.005329412
90	0x3e322818	0.17398107
91	0x00000000	0.0
92	0x00000000	0.0
93	0xbf9b6db6	-1.2142856
94	0xbbe6fe4f	-0.007049359
95	0x00000000	0.0
96	0xbc50cae2	-0.0127436835
97	0x3eb8ced5	0.360953
98	0xbcbb7ea8	-0.022887543
99	0xbbc51816	-0.006014834
100	0xbc929341	-0.017892482
101	0x3ea606d6	0.3242709
102	0xbc96cb0f	-0.018407373
103	0x3ebbf178	0.36707664
104	0x00000000	0.0
105	0xbbc917a5	-0.006136852
106	0x00000000	0.0
107	0xbbeda8b6	-0.007252778
108	0x3e2c67d7	0.16836487
109	0xbf0ac22b	-0.54202527
110	0xbc002a45	-0.007822578
111	0x00000000	0.0
112	0x3ed50761	0.41607192
113	0xbc2dcdbc	-0.010608133
114	0xbd01d744	-0.031699434
115	0xbbf5281d	-0.0074815885
116	0x00000000	0.0
117	0x00000000	0.0
118	0x00000000	0.0
119	0xbc23b963	-0.00999293
120	0xbc1d986e	-0.009618862
121	0xbfc52899	-1.5403014
122	0xbc119feb	-0.008888225
123	0x00000000	0.0
124	0xbbd9c708	-0.006646041
125	0xbc4fcfef	-0.012683853
126	0xbbd58ba7	-0.006516892
127	0x3ecc4b37	0.39901134

fc3_value.weight f4 [1, 128]
0	0x3f071741	0.5276986
1	0xbd1af277	-0.03782889
2	0x3ec7f8a7	0.39056894
3	0xbb35be63	-0.0027731888
4	0x3d9c7d41	0.07641078
5	0x3d893ef6	0.06701462
6	0xbe1a8f96	-0.15093836
7	0x3c962343	0.018327361
8	0x3c0ded4a	0.008662531
9	0x3cab0ac7	0.020879162
10	0x3dbe589b	0.09294244
11	0xbcf6a43e	-0.030107614
12	0x3e8cf1ba	0.27528173
13	0x3c4592db	0.012058939
14	0x3e6d2f04	0.23162466
15	0x3c2c3331	0.010510252
16	0xbd179e42	-0.03701616
17	0xbe64dffc	-0.22351068
18	0x3cf96aa1	0.030446352
19	0xbdbf07bd	-0.09327648
20	0xba67f1a3	-0.00088479574
21	0x3e4fcaad	0.20292158
22	0xbe5b20b2	-0.21399191
23	0xbb9b8355	-0.0047458806
24	0x3d4ca787	0.049964454
25	0x3d8960a1	0.067078836
26	0xbd83ccca	-0.06435545
27	0xbe51da21	-0.20493366
28	0x3cce1a96	0.025159162
29	0xbe806262	-0.2507506
30	0x3ea4d5e6	0.32194442
31	0x3d893b6d	0.06700788
32	0x3d2424c7	0.040074136
33	0x3ca64503	0.02029658
34	0xbd712110	-0.05886942
35	0xbdb57f1e	-0.08862136
36	0x3e794298	0.2434181
37	0xbd412485	-0.04715397
38	0x3ee06d50	0.438334
39	0xbe18b797	-0.14913784
40	0x3dcc84f5	0.09986297
41	0x3ce81e98	0.0283349
42	0xbe06dac7	-0.13169394
43	0x3e0e491d	0.13895078
44	0x3f013749	0.50474983
45	0x3d8f6f55	0.07003657
46	0xbd762cef	-0.060101446
47	0xc03d236a	-2.9552865
48	0x3ce58135	0.028015712
49	0xbe534d1e	-0.20634887
50	0x3d798323	0.060916077
51	0xbdb7b05d	-0.089691855
52	0xbe0403f5	-0.12892134
53	0x3bebf500	0.007200837
54	0x3edd6d7b	0.4324759
55	0xbd28e09a	-0.04122982
56	0x3d9d9103	0.076936744
57	0x3c0e8c9f	0.008700519
58	0x3d949440	0.07254839
59	0xbe41a0b2	-0.18908957
60	0xbe937961	-0.28803542
61	0x3d42838a	0.047488727
62	0x3e704b93	0.2346633
63	0xbe17f5cf	-0.14839862
64	0xbd1dec60	-0.038555503
65	0xbe087d1a	-0.13328972
66	0xbd103b75	-0.035212953
67	0x3e5bcacf	0.21464084
68	0x3eb70e8e	0.35753292
69	0xbd394c34	-0.04523869
70	0x3e5de3d3	0.2166894
71	0x3de04732	0.109510794
72	0xc01e687b	-2.475127
73	0xbdeca686	-0.11555199
74	0xbfb8e0b9	-1.444358
75	0x3dcd395f	0.10020708
76	0x3db775ce	0.08958016
77	0xbe58811f	-0.21143006
78	0xbf0df850	-0.5545702
79	0x3e243eae	0.16039535
80	0xbda5a53c	-0.080881566
81	0x3e49fa32	0.19724348
82	0xbd676bf2	-0.05649943
83	0x3e65bb58	0.22434747
84	0x3cd0e108	0.025497928
85	0x3e35fb74	0.17771703
86	0x3d810d13	0.06301322
87	0xbc819b0f	-0.015821008
88	0xbe0842b5	-0.13306697
89	0x3df9b67a	0.12193008
90	0x3bfe2f6f	0.0077571194
91	0xbe2f7be3	-0.17137103
92	0x3d62bd33	0.055356216
93	0x3d3c613c	0.045991167
94	0xbe31e872	-0.17373827
95	0x3e4ff92c	0.20309895
96	0x3d869c18	0.06572741
97	0x3cac0f66	0.021003436
98	0x3c24c653	0.01005705
99	0x3e2b66dd	0.16738458
100	0xbde01f30	-0.109434485
101	0x3e68613d	0.22693343
102	0xbda5a16a	-0.08087428
103	0x3ea859a3	0.32880887
104	0xbe40c779	-0.18826093
105	0x3e2142c2	0.15748122
106	0xbc3087a3	-0.010774526
107	0x3d99278e	0.074782476
108	0xbd1d47be	-0.038398497
109	0xbd5bc463	-0.053654086
110	0x3e8c87e3	0.27447423
111	0x3e02ced1	0.12774207
112	0x3e87d9c4	0.2653333
113	0xbe68817e	-0.22705647
114	0x3c9eb084	0.019371279
115	0xbded5095	-0.115876354
116	0x3e56bb87	0.20969974
117	0x3e0ea8c0	0.1393156
118	0x3eb38ac3	0.35066804
119	0xbd83a58d	-0.06428061
120	0xbe3d1db0	-0.18468356
121	0xbf1e1027	-0.61743397
122	0x3df8399a	0.121203616
123	0xbe28a720	-0.16470003
124	0x3e2bf7e6	0.16793784
125	0x3c433ba9	0.01191608
126	0xbdc08d06	-0.09401898
127	0x3ecbeff2	0.398315

fc3_advantage.weight f4 [4, 128]
0	0xbde9c94c	-0.114153475
1	0x3e0797c3	0.13241486
2	0xbe349c3a	-0.1763772
3	0xbc1e4231	-0.009659336
4	0x3db5cc0f	0.08876812
5	0x3e59f323	0.21284156
6	0xbe464baf	-0.19364808
7	0xbde91955	-0.11381785
8	0xbda56ba4	-0.080771714
9	0xbaaae38c	-0.0013037785
10	0xbd96c9ce	-0.0736271
11	0x3dde4524	0.10853031
12	0xbe4d0dd2	-0.20024803
13	0x3e355f71	0.1771219
14	0x3c864da7	0.01639445
15	0xbdc67f4a	-0.09692247
16	0x3e077a7d	0.1323032
17	0x3cd3cf8e	0.025855806
18	0xbdb19db4	-0.086726576
19	0x3d760255	0.060060818
20	0x3cd28946	0.025700223
21	0xbe759ff9	-0.23986806
22	0xbe4678e2	-0.1938205
23	0xbd04580d	-0.032310534
24	0xbe211ef0	-0.15734458
25	0xbdb7778b	-0.08958348
26	0x3e3184a3	0.17335753
27	0x3e35f2d3	0.17768411
28	0xbdd5efb3	-0.104461096
29	0xbd628b7b	-0.0553088
30	0xbe1196e4	-0.14217716
31	0x3c31ba7b	0.010847683
32	0xbd090549	-0.033452306
33	0x3dc4ca20	0.09608865
34	0x3e5a4ad1	0.21317603
35	0xbe31f2be	-0.17377755
36	0x3e933fbb	0.2875956
37	0x3e27416b	0.16333549
38	0xbea603c6	-0.32424754
39	0xbcd4d14d	-0.025978709
40	0x3d704884	0.058662906
41	0x3e0559b4	0.130225
42	0x3e8f7ccb	0.28024897
43	0xbd3789f3	-0.044809293
44	0xbe9253aa	-0.28579456
45	0xbd521dc3	-0.051297914
46	0x3d2dd828	0.04244247
47	0x3e476acb	0.19474332
48	0xbe397e3c	-0.18114561
49	0xbdef8568	-0.11695367
50	0xbe633563	-0.22188334
51	0xbd4f4f16	-0.05061253
52	0xbdc4a404	-0.09601596
53	0x3ce43798	0.02785854
54	0x3f89d071	1.0766736
55	0x3d781df1	0.06057543
56	0xbe426307	-0.18983088
57	0xbdb347a7	-0.08753901
58	0xbde0582e	-0.10954319
59	0x3e00c0d1	0.12573554
60	0xbe0c9cb5	-0.13731654
61	0x3e86c40f	0.26321456
62	0xbf9b5af2	-1.2137129
63	0x3d56d658	0.052450508
64	0x3c10145a	0.008793915
65	0xbcc95d4d	-0.024580622
66	0x3d893d92	0.06701197
67	0xbebd512b	-0.3697599
68	0xbeacab62	-0.33724505
69	0x3d954d0b	0.072900854
70	0x3e908d20	0.2823267
71	0xbddfc9d2	-0.10927166
72	0x3eb5ad56	0.35483807
73	0x3d720bc4	0.05909325
74	0xbf75e711	-0.96055704
75	0x3dfb197a	0.12260719
76	0xbd209fc1	-0.039214853
77	0xbd55c789	-0.052192245
78	0x3e75d474	0.24006826
79	0x3ebe5ea0	0.37181568
80	0xbe64f891	-0.22360446
81	0xbd0aa1ac	-0.03384559
82	0x3eb3d6de	0.35124868
83	0x3b4594e4	0.003014856
84	0xbe5c0c75	-0.21489127
85	0x3e32b178	0.17450511
86	0xbe0e1018	-0.13873327
87	0xbdef72d3	-0.11691823
88	0x3d0a5f30	0.033782184
89	0xbdaf0a8a	-0.08546932
90	0xbe0cb4d6	-0.13740858
91	0x3e7c0127	0.24609815
92	0xbd9a9ac5	-0.07549051
93	0xbefffd85	-0.49998108
94	0xbdd1324a	-0.1021467
95	0x3d893c75	0.067009844
96	0x3dda8fad	0.10671935
97	0x3e922420	0.28543186
98	0xbd08b861	-0.033378962
99	0x3c821e58	0.01588361
100	0x3c8285c0	0.015932918
101	0xbea4f604	-0.32218945
102	0x3d01c330	0.031680286
103	0xbe63cdbd	-0.22246452
104	0xbd5795d3	-0.052633118
105	0x3ca83c43	0.020536548
106	0x3de3e72b	0.11128076
107	0xbc5f01a8	-0.013611235
108	0xbc9f89e7	-0.019474937
109	0xbf3d3a0b	-0.7391669
110	0x3e02cdb9	0.1277379
111	0xbd9a8c1b	-0.07546254
112	0xbe844ff2	-0.25842243
113	0x3d9cb92e	0.07652508
114	0x3d9cee75	0.076626696
115	0xbd764e02	-0.060132988
116	0x3ce3753e	0.027765866
117	0xbe404d70	-0.1877954
118	0x3e046b0d	0.12931462
119	0xbcc41204	-0.023934372
120	0xbcfb55f2	-0.03068063
121	0x3fdd9ee1	1.7314111
122	0x3dd41bee	0.1035689
123	0x3e4e4966	0.20145187
124	0xbccd5141	-0.025063159
125	0xbb456f1b	-0.0030126038
126	0x3e34a931	0.17642666
127	0xbe699759	-0.22811641
128	0xbe660b80	-0.22465324
129	0x3e0c03e5	0.1367336
130	0xbe5f390e	-0.21799108
131	0x3e0ec250	0.13941312
132	0xbcdcaf76	-0.026939135
133	0xbd957e34	-0.07299462
134	0x3ddead59	0.10872907
135	0x3e1bd9b9	0.15219773
136	0x3d6d75a0	0.057973504
137	0xbdbcaf82	-0.09213163
138	0x3e1fad3a	0.15593424
139	0x3e9374fa	0.28800184
140	0xbe98b19a	-0.29823
141	0xbd0cc89d	-0.034371007
142	0xbe9909ac	-0.29890192
143	0xbd8d0357	-0.06885403
144	0xbdea5a16	-0.11442964
145	0x3d342368	0.04397908
146	0x3e21ab74	0.1578806
147	0x3d2c46cd	0.04205971
148	0x3c82ad78	0.015951857
149	0xbc37f3ca	-0.011227557
150	0xbbfaea79	-0.007657346
151	0x3e3dfabd	0.1855268
152	0xbdd446c3	-0.10365059
153	0xbd529e89	-0.051420722
154	0x3dceab6a	0.100912884
155	0x3dfe5e71	0.12420357
156	0x3e4921a0	0.19641733
157	0xbdfc701a	-0.12326069
158	0xbdeed219	-0.11661167
159	0xbc99e6ed	-0.018786872
160	0xbe190bf2	-0.14945963
161	0x3ded3875	0.11583034
162	0x3b347fc0	0.0027541965
163	0x3e021670	0.12703872
164	0x3e8595b0	0.26090765
165	0x3e2e9320	0.17048311
166	0xbe3bbd0b	-0.18333833
167	0xbc8bb41a	-0.017053653
168	0x3e2d3dab	0.16918056
169	0xbe1d6cf8	-0.153736
170	0xbdeeb1c6	-0.11655001
171	0x3cd182f2	0.025575135
172	0xbebf4a50	-0.37361383
173	0x3e101d56	0.14073691
174	0xbbf1a7e4	-0.0073747505
175	0x3fb48c1e	1.410526
176	0xbdf1b89e	-0.11802791
177	0xbd63515c	-0.055497512
178	0x3cb8b808	0.02254869
179	0xbd000803	-0.03125764
180	0x3e5aa92c	0.21353596
181	0x3daf0772	0.08546342
182	0x3eede005	0.46459976
183	0x3bc83808	0.006110195
184	0xbd245cca	-0.040127553
185	0xbdcc9496	-0.09989278
186	0x3e1bc78e	0.15212843
187	0x3decdd32	0.11565627
188	0xbd6e3185	-0.058152694
189	0xbe3fc797	-0.18728481
190	0xbf53ef3c	-0.8278692
191	0x3e85fff8	0.2617185
192	0x3c7e3c1b	0.01551726
193	0xbe060db2	-0.13091162
194	0x3a58ed1f	0.000827508
195	0xbe87d46a	-0.26529247
196	0xbe37a96a	-0.1793572
197	0x3e3490ed	0.1763341
198	0xbd9ebf34	-0.07751313
199	0x3d9ac86c	0.07557759
200	0x3f247596	0.6424192
201	0x3d9c8cad	0.07644019
202	0xbf400135	-0.7500184
203	0x3e33cc44	0.1755839
204	0xbc12cec5	-0.0089604305
205	0xbe5c50a5	-0.21515138
206	0xbeee84f0	-0.46585798
207	0x3e310f17	0.17290913
208	0xbde77e2c	-0.11303362
209	0xbe9b43e5	-0.30325237
210	0x3db56737	0.08857577
211	0xbe799d95	-0.24376519
212	0xbcbddb97	-0.023175998
213	0xbe50dcb9	-0.20396699
214	0xbc28557f	-0.01027429
215	0x3e824e78	0.25450492
216	0x3d3b7c0f	0.04577261
217	0x3abab794	0.0014245384
218	0xbe8879d6	-0.26655453
219	0x3cc58b75	0.02411435
220	0xbdf22563	-0.11823537
221	0xbf11fe74	-0.5702889
222	0x3d754bf8	0.059886903
223	0xbd3cfb5a	-0.046138145
224	0xbca52edc	-0.020163946
225	0x3e9f1d6a	0.3107713
226	0x3d63ead2	0.055643864
227	0x3d9793d9	0.074012466
228	0xbd665961	-0.056237582
229	0xbdb74c2b	-0.08950075
230	0xbe61e211	-0.22058894
231	0xbdf8e955	-0.121538796
232	0x3dbd1d66	0.09234123
233	0x3dd2d004	0.10293582
234	0x3da8001a	0.08203144
235	0xbe2ac7f7	-0.16677843
236	0x3c124392	0.008927243
237	0xbf24bc28	-0.64349604
238	0x3e2c1444	0.16804606
239	0x3e822db5	0.25425497
240	0xbe85d751	-0.26140836
241	0x3c4c4ad3	0.012469011
242	0x3d37ada2	0.044843324
243	0xbcc7af6d	-0.024375642
244	0x391564e7	0.00014247336
245	0xbc925474	-0.017862536
246	0xbe63eee5	-0.222591
247	0xbd365fc7	-0.044524934
248	0xbdf54e41	-0.119778164
249	0x3e138d8e	0.14409468
250	0xbe2b8234	-0.16748887
251	0x3e625584	0.22102934
252	0xbdb7b1c8	-0.08969456
253	0x3ca3631f	0.019944726
254	0xbd4022ff	-0.046908375
255	0xbe963ee3	-0.29344854

fc3_advantage.bias f4 [4]
0	0xbe0a9b61	-0.13535835
1	0xbd622468	-0.0552105
2	0x3dc2273f	0.09480142
3	0x3c83abfe	0.016073223

fc1.weight f4 [256, 6]
0	0xbc5c6d26	-0.013453757
1	0x3e1d2063	0.15344386
2	0xc01a1b64	-2.4079218
3	0xbf57922e	-0.8420743
4	0x3efd1fb6	0.49438256
5	0xbf514390	-0.8174372
6	0xbf80999c	-1.0046878
7	0x3f017878	0.50574446
8	0x3fc291ec	1.5200782
9	0x3fdbbe05	1.7167364
10	0xbd9baeaf	-0.076016776
11	0xbf8a5539	-1.0807258
12	0x3f8c5338	1.0962896
13	0xbe772ddd	-0.24138589
14	0x3f89df76	1.077132
15	0xbe895914	-0.26825774
16	0xbeff021c	-0.49806297
17	0xbf1eab8d	-0.61980516
18	0x3e40b238	0.18817985
19	0x3e865e9a	0.2624405
20	0x3efdba98	0.49556422
21	0x3ec4b71c	0.3842095
22	0xbe1b23b2	-0.15150335
23	0x3e9ece9e	0.3101701
24	0xbf3aad08	-0.72920275
25	0xbfc65f06	-1.5497749
26	0xbd9e7098	-0.07736319
27	0xbf8ab014	-1.0834985
28	0xbf20d4ec	-0.62824893
29	0xbefae10b	-0.4899982
30	0xbee96701	-0.45586398
31	0xbe94b3a1	-0.29043296
32	0x3e2af536	0.16695103
33	0xbe8d1246	-0.27553004
34	0xbc954e39	-0.018225776
35	0xbea0145f	-0.31265542
36	0x3f380c4e	0.71893775
37	0x3f145bb8	0.5795245
38	0xbedbd9c3	-0.42939577
39	0xbe2c83d2	-0.1684716
40	0x3e1da5a4	0.15395218
41	0x3e40ba0d	0.18820973
42	0x3edfc73a	0.43706685
43	0x3dcc1785	0.099654235
44	0x3ba3b891	0.0049963673
45	0xbf1d4a26	-0.61441267
46	0x3f3fc8df	0.7491588
47	0xbfda7569	-1.7067081
48	0xbed22065	-0.4104034
49	0x3f330113	0.69923514
50	0xbf1950e8	-0.5988908
51	0xbeb58e1f	-0.35459992
52	0xbe9d3b40	-0.30709267
53	0xbf3d6fe8	-0.7399888
54	0x3dfeeb6d	0.12447248
55	0xbf10ab20	-0.56511116
56	0x3f2d2103	0.67628497
57	0x3e9c209e	0.30493635
58	0x3f9481eb	1.1602148
59	0xbd8cf4bf	-0.06882619
60	0x3e8548a8	0.26031995
61	0x3dfb7d5f	0.12279772
62	0x3faeee3e	1.3666456
63	0x3f2e2912	0.6803142
64	0xbe969ac3	-0.2941495
65	0xbf1fff6a	-0.62499106
66	0x3cb3924c	0.021920346
67	0x3ec904ed	0.3926157
68	0x3f8335e6	1.0250823
69	0xbe970568	-0.29496312
70	0x3ea9039b	0.33010563
71	0x3ea7f508	0.32804132
72	0x3eeec8c2	0.4663754
73	0xbecb33bb	-0.39687905
74	0xbf94cffa	-1.162597
75	0xbf234e20	-0.63791084
76	0x3f6916f6	0.9105066
77	0xbfa42d62	-1.282635
78	0x3f5cefc8	0.8630338
79	0x3f6fdd81	0.93697363
80	0xbee9e8c2	-0.45685393
81	0xbeaafd1f	-0.3339624
82	0x3e8f4522	0.27982432
83	0xbd1fe2d2	-0.039034672
84	0x3d27519e	0.04084932
85	0x3e0c94db	0.13728659
86	0xc000e95b	-2.014243
87	0x3eb5d0e1	0.35510924
88	0xbe6a5bc3	-0.22886567
89	0x3f6bf7c6	0.9217495
90	0xbf8112ec	-1.00839
91	0xbebd0b5f	-0.36922738
92	0x3d890c3e	0.06691788
93	0x3f9820b6	1.1884983
94	0xbd5df346	-0.05418708
95	0x3e98040d	0.2969059
96	0xbe7df851	-0.24801756
97	0x3f53e81d	0.8277605
98	0x3dfba5b9	0.122874685
99	0xbe06b54c	-0.13155097
100	0x3efadaf6	0.4899518
101	0x3e531ff3	0.20617656
102	0xbd77a589	-0.0604606
103	0x3f6e81a7	0.93166584
104	0xbf326044	-0.6967814
105	0x3fbb65a0	1.4640388
106	0x3e5bdf7d	0.21471973
107	0xbe47c4c8	-0.1950866
108	0x3f7fb45f	0.998846
109	0x3f9982b8	1.1993017
110	0x3e54d6fe	0.20785138
111	0x3eec4632	0.46147305
112	0x3e53464c	0.20632285
113	0xbe74b252	-0.23896149
114	0x3e088bd2	0.13334587
115	0x3f89bb00	1.0760193
116	0xbde4b9d6	-0.11168258
117	0x3f34b086	0.70581853
118	0xbee6da10	-0.45088243
119	0xbf3688a2	-0.71302235
120	0xbe64bf22	-0.22338536
121	0x3e173dd8	0.14769685
122	0xbe79f220	-0.2440877
123	0x3c41e0b1	0.011833356
124	0xbda82c3d	-0.08211563
125	0xbf8b0956	-1.0862224
126	0x3f07f858	0.5311332
127	0x3f3529ae	0.70766723
128	0xbf99f1e2	-1.2026942
129	0xbe9d10cf	-0.30676886
130	0xbe82710d	-0.25476876
131	0x3eb04f42	0.3443547
132	0xbd4d6037	-0.050140586
133	0xbed4393f	-0.41449925
134	0xbfd5bf49	-1.6699001
135	0xbed1bc21	-0.40963843
136	0x3f369e55	0.71335346
137	0xbf252bab	-0.6451976
138	0x3f2e6782	0.6812669
139	0xbf2b6c05	-0.669617
140	0xbf1f37ee	-0.62194717
141	0xbd99952c	-0.074991554
142	0x3e92dff7	0.28686497
143	0x3f58b417	0.84649795
144	0x3eb71f53	0.35766086
145	0xbf60f431	-0.87872607
146	0x3f2f8446	0.6856121
147	0x3ed926e0	0.42412472
148	0x3ea8708d	0.3289837
149	0x3f0d398e	0.55165946
150	0xbd8035a9	-0.06260235
151	0x3f22458e	0.6338738
152	0x3f1d55f8	0.614593
153	0x3de1d771	0.1102742
154	0x3f0043c3	0.50103396
155	0x3ed7d50c	0.4215473
156	0x3cec8e1d	0.028876359
157	0xbf451098	-0.76978445
158	0x3f9178cf	1.1364993
159	0xbf75ccca	-0.9601561
160	0x3f4a4600	0.7901306
161	0x3d15a326	0.036532544
162	0x3f1a6954	0.6031697
163	0xbf112a8f	-0.56705564
164	0xbdd9781a	-0.10618611
165	0x3ec418ce	0.38300174
166	0x3bce8733	0.006302738
167	0xbe343f92	-0.17602375
168	0xbaa7dec6	-0.001280748
169	0x3e1d83cd	0.1538231
170	0x3ed4c8dd	0.41559497
171	0x3fcc8403	1.5977787
172	0xbf0c95d3	-0.54916114
173	0x3fc52c7c	1.54042
174	0x3f45ff8a	0.77343047
175	0x3ecc087f	0.39850232
176	0xbea928ec	-0.33039033
177	0xbc769a3c	-0.015051421
178	0x3e0cae1b	0.13738291
179	0x3e11f275	0.14252646
180	0x3fd4d04e	1.662607
181	0x3eb7cf4d	0.35900345
182	0xbebed563	-0.37272176
183	0xbef27cba	-0.47360784
184	0x3f1692b9	0.5881763
185	0xbcdc6ad8	-0.026906416
186	0x3ea8b563	0.32950887
187	0xbf19c1da	-0.6006142
188	0x3ea9a20c	0.33131444
189	0xbf95b800	-1.1696777
190	0x3e5d7ded	0.21630068
191	0xbea93b13	-0.33052883
192	0xbfb05c58	-1.3778181
193	0x3e89732e	0.26845688
194	0x3d5ab634	0.05339642
195	0xbe54575b	-0.20736448
196	0x3f481ee4	0.78172135
197	0xbec3c56a	-0.38236552
198	0xbeb4ff0b	-0.35350832
199	0xbd8e8a86	-0.06960015
200	0x3e82c3df	0.25540063
201	0xbc320397	-0.010865114
202	0x3eb005bb	0.34379372
203	0xbee05395	-0.43813768
204	0x3f9a7fe7	1.2070283
205	0xbecaf279	-0.39638117
206	0xbf420d92	-0.75801957
207	0xbe6645f1	-0.22487618
208	0x3f5ccb3b	0.86247605
209	0x3e082e4e	0.13298914
210	0x3da21971	0.07915009
211	0x3f304b62	0.68865025
212	0xbf99ae89	-1.2006389
213	0x3dcfed88	0.10152727
214	0x3f88592a	1.0652211
215	0x3f8a9d30	1.082922
216	0xbd98b870	-0.07457054
217	0xc0a79912	-5.2374353
218	0x3f52aea3	0.82297724
219	0xbf8d428a	-1.1035931
220	0xc0aea891	-5.458077
221	0xbdc7dbf6	-0.09758751
222	0xbeeb596c	-0.4596666
223	0xbf0a095c	-0.5392053
224	0x3f81e8ae	1.0149133
225	0xbe5fbfb7	-0.21850477
226	0xbf055a2a	-0.52090704
227	0x3f9b783d	1.2146069
228	0xbfaa4c0c	-1.3304458
229	0x3f48ff33	0.78514403
230	0x3d718093	0.05896051
231	0x3d128e42	0.0357802
232	0xbef58f10	-0.4796071
233	0x3df55c93	0.11980548
234	0x3fb21fc9	1.391595
235	0x3ed2611c	0.41089714
236	0xbeb683c5	-0.35647407
237	0xbf3d81dd	-0.7402628
238	0xbf2ebb0e	-0.6825417
239	0x3e958ed5	0.29210535
240	0xbf4ae8de	-0.7926158
241	0xbe5fc4b1	-0.21852376
242	0x3f2debc2	0.6793786
243	0xbf2ee27b	-0.6831433
244	0x3eef680a	0.46759063
245	0x3e333ba0	0.17503214
246	0x3ee01dac	0.43772638
247	0x3fda0df1	1.7035505
248	0x3f8aa6d3	1.0832161
249	0xbf9bdbb9	-1.2176429
250	0xbf7f776f	-0.99791616
251	0xbf8c1429	-1.0943652
252	0x3f21b7d6	0.63171136
253	0x3e8d4337	0.27590343
254	0x3d3417f0	0.04396814
255	0x3ebf6207	0.37379476

fc1.bias f4 [256]
0	0xbef8fb35	-0.48629156
1	0x3f18f2c6	0.5974544
2	0x3e6dd399	0.2322525
3	0x3e5b144a	0.21394458
4	0x00000000	0.0
5	0x00000000	0.0
6	0x3dcbae0e	0.09945308
7	0xbe35fb32	-0.17771605
8	0x00000000	0.0
9	0x3eb736dd	0.35784045
10	0x3e5de27d	0.2166843
11	0x3e8f4d9d	0.27988902
12	0x40181356	2.3761802
13	0x3e980087	0.29687902
14	0x3e8087de	0.25103658
15	0x00000000	0.0
16	0x3e429f39	0.19006051
17	0xbf926f48	-1.144021
18	0x3e3d6651	0.18496062
19	0xbfe6bad3	-1.8025764
20	0x00000000	0.0
21	0x3d1e6917	0.03867444
22	0xbe848041	-0.258791
23	0x3ec76e3f	0.389513
24	0x3ec5fc50	0.38669062
25	0x3ec3fe54	0.38279974
26	0x3e379027	0.17926084
27	0x3e09a27b	0.13440888
28	0x3ec36b22	0.38167673
29	0x3e33e752	0.1756871
30	0x3e551a46	0.20810804
31	0x3f1786e0	0.5919018
32	0x00000000	0.0
33	0x00000000	0.0
34	0x3ea5f97b	0.324169
35	0x3e7e5566	0.24837264
36	0xbda2ce01	-0.079494484
37	0xbe829a55	-0.2550837
38	0x00000000	0.0
39	0x3e46068a	0.19338432
40	0x00000000	0.0
41	0xbe0bec76	-0.13664421
42	0x3ea5ff09	0.3242114
43	0x3eaef592	0.3417173
44	0x00000000	0.0
45	0x3f832cb0	1.0248013
46	0x3e4955bb	0.1966161
47	0x3eb23560	0.34806347
48	0x00000000	0.0
49	0x3e8a13ee	0.2696833
50	0x3ec0c126	0.3764736
51	0x3e874dac	0.26426446
52	0x00000000	0.0
53	0x00000000	0.0
54	0x00000000	0.0
55	0xbe82a459	-0.25516012
56	0x00000000	0.0
57	0xc024edd9	-2.577017
58	0x3ffb0cd7	1.9613293
59	0x3f0e84f1	0.556716
60	0x00000000	0.0
61	0x3ef033dc	0.46914566
62	0x00000000	0.0
63	0x3e95ef56	0.2928416
64	0x3f5426b3	0.8287155
65	0x3e83e83c	0.25763118
66	0x3dd0458c	0.10169515
67	0x3f12a803	0.57287616
68	0x3f5cb160	0.8620815
69	0xbfc82920	-1.563755
70	0x3e5d34a7	0.21602117
71	0x3ea6b366	0.32558745
72	0x3e9f6363	0.31130514
73	0x00000000	0.0
74	0x3ed170b5	0.409063
75	0xbfb3a4fb	-1.4034723
76	0x00000000	0.0
77	0x3e958517	0.29203102
78	0xbeaeeaae	-0.3416342
79	0xbd399460	-0.045307517
80	0x00000000	0.0
81	0x3d8a49ea	0.06752379
82	0x3f5e8b2d	0.86931115
83	0x3e7a5b36	0.24448857
84	0x3ea1eea1	0.31627372
85	0xc012ca18	-2.2935848
86	0x3dd01068	0.10159379
87	0x3dcd3c10	0.10021222
88	0x3ea352ea	0.31899196
89	0xbfe75dc2	-1.8075488
90	0x3e6df1c2	0.23236755
91	0x3e56f573	0.20992069
92	0x00000000	0.0
93	0x3e857971	0.26069215
94	0x3e9dcf78	0.3082235
95	0x3fdb95c9	1.7155086
96	0x00000000	0.0
97	0x00000000	0.0
98	0x3e7f8959	0.24954738
99	0x3e1cba80	0.15305519
100	0x3f2d4316	0.6768049
101	0x3f087cbd	0.53315336
102	0x00000000	0.0
103	0x4031a423	2.775643
104	0x3e8f0c6f	0.27939174
105	0xbf910c23	-1.1331829
106	0x00000000	0.0
107	0x00000000	0.0
108	0x3e3e4cca	0.1858398
109	0x3d9c2c8b	0.076256834
110	0x3e8e2c12	0.27767998
111	0x00000000	0.0
112	0x00000000	0.0
113	0x3e109a92	0.14121464
114	0x3eafcb24	0.34334671
115	0x3c8c3e15	0.017119447
116	0x3e981c91	0.29709294
117	0x3d8c2f6f	0.06844985
118	0x3ea506ce	0.32231754
119	0x3e3e2eec	0.18572587
120	0xbe2b8694	-0.16750556
121	0x3eaa2e7b	0.33238587
122	0x00000000	0.0
123	0xc00c92d0	-2.1964607
124	0x3e1632e4	0.1466785
125	0x3e6a3430	0.2287147
126	0x3ec72f85	0.38903442
127	0x00000000	0.0
128	0x00000000	0.0
129	0x00000000	0.0
130	0x3e9f0e56	0.31065625
131	0x3eafa32b	0.34304175
132	0x00000000	0.0
133	0x3ea337b0	0.31878424
134	0x00000000	0.0
135	0x00000000	0.0
136	0x3eb8407a	0.35986692
137	0xbdac464b	-0.08411845
138	0xbcfe3e7f	-0.03103566
139	0x3eb611bf	0.35560414
140	0x3eac98c6	0.33710307
141	0x3e9efbdb	0.31051525
142	0xbfb57673	-1.4176773
143	0x3e7e2255	0.24817784
144	0x3eb84d8e	0.3599667
145	0x00000000	0.0
146	0x3fafda27	1.373845
147	0x3ea7c2d1	0.3276582
148	0x00000000	0.0
149	0xbf818c3a	-1.0120919
150	0x3e83c282	0.25734335
151	0x3e8dd742	0.2770329
152	0x3e95c239	0.29249743
153	0xbfedd0fd	-1.8579403
154	0xba322b8b	-0.00067966495
155	0x3e94c1ce	0.2905411
156	0x3dd063c5	0.101752795
157	0x3ee49e93	0.44652233
158	0xbd24ebfd	-0.04026412
159	0x3ec94e4a	0.39317542
160	0x3e8852df	0.26625726
161	0x00000000	0.0
162	0xc01eadbe	-2.4793544
163	0xbd7222ea	-0.059115328
164	0x3e93d432	0.2887283
165	0x3e97b144	0.2962743
166	0x00000000	0.0
167	0x3eabc3cd	0.33547822
168	0xbca73aeb	-0.020413836
169	0x3f709889	0.9398275
170	0xbf8a9985	-1.08281
171	0x3e954418	0.29153514
172	0xbfb74740	-1.4318619
173	0x00000000	0.0
174	0x3ea2becd	0.31786194
175	0x3f151255	0.582311
176	0x00000000	0.0
177	0xbe242305	-0.16028984
178	0x00000000	0.0
179	0x3e8fd38f	0.28091094
180	0xbf83ecb1	-1.0306607
181	0x3e685ab2	0.22690848
182	0x3f264f4f	0.64964765
183	0x3e9f2011	0.31079152
184	0xbecc4803	-0.3989869
185	0xbf92baa9	-1.1463214
186	0x3df2d2d0	0.118566155
187	0x3f588436	0.8457674
188	0x00000000	0.0
189	0x3e9f4a00	0.31111145
190	0xbd921d64	-0.07134512
191	0x00000000	0.0
192	0x3e85e889	0.26153973
193	0x00000000	0.0
194	0xbf4ea2f6	-0.8071741
195	0x00000000	0.0
196	0x3e2b89a1	0.1675172
197	0x00000000	0.0
198	0xbd53af77	-0.05168101
199	0x3e86983e	0.26288027
200	0xbd734a09	-0.059396777
201	0x3e85adf7	0.26109287
202	0x3ea38687	0.31938574
203	0x3e9bfbf6	0.30465668
204	0x3ecdab06	0.40169543
205	0x3ec5ac08	0.38607812
206	0x00000000	0.0
207	0x00000000	0.0
208	0x3f270dba	0.6525532
209	0x3ed66137	0.41871044
210	0xbfd081b7	-1.6289586
211	0xbd61583f	-0.0550158
212	0x3e827a72	0.25484043
213	0x00000000	0.0
214	0xbdeb6263	-0.11493375
215	0x3e90fa6d	0.2831606
216	0xbd8859b0	-0.066577315
217	0x3e30b622	0.17256978
218	0xbcf50bed	-0.029912913
219	0x3e942254	0.2893244
220	0x3ea4c12e	0.32178634
221	0x3f21160e	0.6292428
222	0x3cfeee31	0.031119438
223	0xbd848e27	-0.06472426
224	0x00000000	0.0
225	0x3f88dc93	1.0692314
226	0x00000000	0.0
227	0xbd00907f	-0.031387802
228	0x00000000	0.0
229	0x3e9b4ad5	0.3033053
230	0x3e165d06	0.14683923
231	0x00000000	0.0
232	0x3ebeb3c6	0.3724653
233	0xbfb14c5e	-1.385143
234	0x3da62ff1	0.08114613
235	0x3e1bedd8	0.15227449
236	0x3e6f1cf3	0.23350887
237	0xbe97dbe0	-0.2965994
238	0xbd850901	-0.06495858
239	0x00000000	0.0
240	0x00000000	0.0
241	0x3deff917	0.11717432
242	0x3e6e797d	0.23288532
243	0x3ce3bfc5	0.027801404
244	0x3dbaff5e	0.09130739
245	0x3e240df6	0.1602095
246	0x3d8e98e0	0.06962752
247	0x3e819a93	0.25313243
248	0x3ed00abe	0.40633196
249	0x00000000	0.0
250	0x00000000	0.0
251	0x3f0a9489	0.54132897
252	0x3e803ecf	0.2504792
253	0xbeaca3e4	-0.3371879
254	0x3e804c8f	0.2505841
255	0x3d933193	0.0718719
