src/Saved_models/agent_checkpoint.pth (torch, 703786 bytes, 32 tensors)

fc1.0.weight f4 [256, 6]
-0.006343543 -2.7439816 2.1547487 -6.3476334 -1.6264794 -11.448663 -0.004055729 -2.2231817
1.3766174 -7.736589 -0.97089547 -15.377562 -0.0018876678 4.328637 -5.192871 5.8192735
4.019187 17.849648 0.003918659 -1.9345553 8.179842 23.188284 0.045050137 11.115131
-0.01949847 4.0837207 -3.4077606 10.844601 3.6131032 13.6879225 -0.25807863 -0.20397027
0.04983908 0.03188491 -0.17782494 -0.23805176 -0.27353537 -0.08138108 -0.1854968 -0.31048682
0.0032811165 -0.078012794 -0.06446186 -0.29629797 -0.298889 0.25648797 -0.2256226 0.10807139
-0.18729593 -0.863093 21.008492 33.006325 0.6845299 6.816191 -0.015076593 4.0175333
-2.8626637 9.072128 3.5744627 11.2591095 -0.026778156 3.6117744 -2.2562141 15.341248
3.2987952 9.825304 0.005267504 -0.33758852 6.8166904 5.4694242 -0.24169213 20.784655
-0.029796664 -3.6028595 9.8731985 16.495016 -1.5939965 -10.48502 0.022962647 0.5168904
-33.308395 -24.811867 1.2081586 0.5602623 -0.040144447 -1.6454312 2.4058466 -5.484055
-1.9028056 3.7836628 -0.42980418 -0.8205396 8.647911 21.213074 0.4061473 3.4836137
-0.041749287 -1.800182 6.769907 21.005907 -0.08143296 12.772606 -0.0057144933 -1.3311362
1.8652459 0.059306674 -0.4209003 -4.4885087 -0.97180015 -0.007273428 -12.506663 -5.305582
0.4247727 -16.770273 -0.00589489 0.83728075 8.544389 11.967368 1.7377796 7.904835
-0.04812473 -0.063874066 -0.032823026 0.029629111 -0.061238945 0.16060585 -0.10860214 -0.11768526
0.3307407 -0.25559145 -0.39865294 0.34846234 -0.33923498 0.03382591 -0.26965842 0.12763813
-0.016353387 0.3185373 -0.04102753 -2.0913298 2.6719387 -5.768758 -2.1550887 4.31025
-0.0062227547 0.061789036 -0.4008131 -0.022125423 -0.35089174 -0.27573836 -0.012242628 0.9419157
4.9352345 22.44206 1.0739424 30.178364 -0.0012728339 -1.2952167 0.34422496 -6.017519
-0.9203448 -12.738823 -0.00017187296 -0.73469085 5.468879 7.2044396 -0.11685713 22.215612
-0.1866742 0.2635547 -0.27608317 0.37878728 -0.25620687 -0.15210164 -0.2530303 -0.29521397
-0.3504836 0.03235489 -0.36948934 0.14437896 0.023775665 1.6600524 -21.441593 -11.663092
1.3008614 19.046633 -0.036520258 -0.8592468 7.5361633 22.585695 0.03585503 7.731254
-0.005605603 -2.3929255 1.5098182 -8.115596 -1.3138691 -12.261315 0.011008039 0.98024946
-41.672623 -27.19068 1.3778303 -3.3869479 -0.0060571525 -4.010638 1.9434152 -13.01281
-4.257803 -4.3991914 -0.045806576 -1.102338 4.4882674 3.2553353 -0.26199347 4.864872
-0.008473422 -0.60589814 2.7760415 4.5291066 -0.34589404 -2.3663337 -0.009182251 -1.1978787
3.020312 2.7998765 -0.0088447435 1.5202762 -0.2189305 -0.034068555 0.047051877 -0.19215733
-0.032506734 -0.16880096 -0.12961698 -0.37889326 0.266459 0.18896633 -0.30771753 0.38018048
-0.0028652977 3.663147 -9.94875 0.6602679 4.0614505 16.457941 -0.07784888 -0.34030306
-0.37408864 -0.3948497 -0.40675914 0.2675259 -0.16570196 0.015772045 0.21914542 0.3508737
00000000: 7fdd cfbb 659d 2fc0 67e7 0940 d01f cbc0
00000010: 7a30 d0bf b92d 37c1 ece5 84bb 9c48 0ec0
00000020: 0035 b03f 2392 f7c0 9b8c 78bf 7e0a 76c1
00000030: 9f6b f7ba 3284 8a40 002c a6c0 7d37 ba40
00000040: 2e9d 8040 14cc 8e41 1868 803b 829f f7bf
00000050: a2e0 0241 9b81 b941 7e86 383d 94d7 3141
00000060: 41bb 9fbc d7ad 8240 c018 5ac0 7c83 2d41
00000070: 153d 6740 bb01 5b41 e222 84be 95dd 50be
00000080: 1024 4c3d c099 023d be17 36be d7c3 73be
00000090: d40c 8cbe 20ab a6bd e0f2 3dbe 21f8 9ebe
000000a0: 0008 573b 2cc5 9fbd 9404 84bd 5eb4 97be
000000b0: fb07 99be 6452 833e 9c09 67be 8854 dd3d
000000c0: 81ca 3fbe aaf3 5cbf 6411 a841 7a06 0442
000000d0: 5a3d 2f3f 3d1e da40 d003 77bc a28f 8040
000000e0: e235 37c0 7027 1141 ffc3 6440 5025 3441
000000f0: dd5d dbbc 5027 6740 d065 10c0 c075 7541
00000100: 761f 5340 7234 1d41 079b ac3b 67d8 acbe
00000110: 5422 da40 8605 af40 247e 77be f946 a641
00000120: 2218 f4bc 4095 66c0 9ff8 1d41 cbf5 8341
00000130: 1408 ccbf a4c2 27c1 291c bc3c ee52 043f
00000140: cc3b 05c2 b47e c6c1 f1a4 9a3f 5a6d 0f3f
00000150: 816e 24bd 7d9d d2bf 64f9 1940 617d afc0
00000160: 228f f3bf 8827 7240 4b0f dcbe e20e 52bf
00000170: d85d 0a41 60b4 a941 8af2 cf3e 87f3 5e40
00000180: 4d01 2bbd 5d6c e6bf 14a3 d840 190c a841
00000190: 53c6 a6bd 985c 4c41 a540 bbbb ac62 aabf
000001a0: 61c0 ee3f 8eeb 723d 3e80 d7be dda1 8fc0
000001b0: e5c7 78bf f055 eebb 4b1b 48c1 54c7 a9c0
000001c0: cf7b d93e 8529 86c1 ec29 c1bb 0858 563f
000001d0: d1b5 0841 577a 3f41 906f de3f 69f4 fc40
000001e0: 701e 45bd 68d0 82bd 7071 06bd c0b8 f23c
000001f0: b0d5 7abd dc75 243e cc6a debd f804 f1bd
00000200: d856 a93e e2dc 82be 3d1c ccbe a869 b23e
00000210: 35b0 adbe 0a8d 0a3d ab10 8abe 92b3 023e
00000220: 8af7 85bc 5217 a33e 7c0c 28bd 59d8 05c0
00000230: 0b01 2b40 aa99 b8c0 f9ec 09c0 91ed 8940
00000240: 40e8 cbbb 8016 7d3d 6037 cdbe 6040 b5bc
00000250: 15a8 b3be 942d 8dbe 4e95 48bc 6321 713f
00000260: 71ed 9d40 5789 b341 f276 893f 4a6d f141
00000270: 38d5 a6ba a9c9 a5bf 413e b03e 848f c0c0
00000280: b89b 6bbf 38d2 4bc1 cc38 34b9 b314 3cbf
00000290: 0f01 af40 c58a e640 ca52 efbd 93b9 b141
000002a0: 8627 3fbe a4f0 863e c65a 8dbe 68f0 c13e
000002b0: 8c2d 83be 88c0 1bbe 308d 81be 4926 97be
000002c0: 9672 b3be 9086 043d b52d bdbe 14d8 133e
000002d0: 2fc5 c23c 997c d43f 6288 abc1 069c 3ac1
000002e0: a082 a63f 815f 9841 4496 15bd 99f7 5bbf
000002f0: 4028 f140 81af b441 b9dc 123d 6f66 f740
00000300: 35af b7bb b125 19c0 b941 c13f 7bd9 01c1
00000310: dd2c a8bf 592e 44c1 105b 343c a1f1 7a3f
00000320: c4b0 26c2 8386 d9c1 be5c b03f c1c3 58c0
00000330: 147b c6bb 2657 80c0 d4c1 f83f 7834 50c1
00000340: ec3f 88c0 2dc6 8cc0 ad9f 3bbd 6919 8dbf
00000350: e39f 8f40 6a57 5040 0224 86be 08ad 9b40
00000360: 1cd4 0abc 241c 1bbf aaaa 3140 71ee 9040
00000370: 0619 b1be 0372 17c0 2771 16bc 1754 99bf
00000380: cb4c 4140 2d31 3340 8be9 10bc 6998 c23f
00000390: 512f 60be 788b 0bbd 78b9 403d e4c4 44be
000003a0: c825 05bd 29da 2cbe 50ba 04be 4cfe c1be
000003b0: 506d 883e 6480 413e 278d 9dbe 04a7 c23e
000003c0: b8c7 3bbb 0071 6a40 142e 1fc1 5107 293f
000003d0: 67f7 8140 dda9 8341 3c6f 9fbd 343c aebe
000003e0: 8c88 bfbe bd29 cabe bc42 d0be 28f9 883e
000003f0: c6ad 29be 6034 813c a867 603e b8a5 b33e

fc1.0.bias f4 [256]
36.038853 49.84676 -51.163277 -24.90256 -37.77643 -0.036386758 0.29449296 -0.23258042
0.92772746 -34.699142 -22.649708 -40.608055 -12.640734 -44.919888 12.430247 -11.638093
-10.979937 26.661283 -6.34463 -40.133026 -0.07093242 0.2388714 0.1756693 11.766511
0.17060196 58.329277 62.85587 -30.263548 -0.18032774 0.26536697 -55.180565 -5.081111
43.44569 -48.219063 20.230478 9.123605 24.799858 15.943543 -0.24194205 0.24859816
-53.454876 -0.0066720545 -0.31738442 -4.116111 -42.109623 0.011652738 65.81096 54.589237
0.081059396 2.5898633 -0.07661748 -38.116947 -37.846066 27.412703 -1.5761107 -33.041832
-28.116482 7.3527365 64.30582 -33.844315 10.011865 -0.07380378 0.29678473 -20.088232
59.89834 -47.039745 -0.3424516 26.416737 35.120922 -0.14505553 -20.879114 -0.10102728
59.852337 58.626785 -27.931398 66.34144 57.24473 0.07181993 18.47955 -34.84486
-19.648018 59.39899 0.25455523 -31.21095 63.590786 -0.3612871 0.082463235 0.10643387
0.2824394 -30.982244 -0.0028691795 0.09671079 -16.742315 55.45773 -29.617609 -0.23164514
-46.649197 -0.111560225 -0.34066272 8.493248 -46.790474 5.37977 64.36295 36.955826
53.062744 -50.200317 -35.208584 -0.3862004 0.12630951 -28.985617 62.60489 0.3652307
-0.038835227 60.55462 -32.359104 65.618454 -27.917702 25.941301 0.39042932 -25.223284
0.01842145 -0.23593324 -0.1975988 34.105053 -27.688826 9.658278 0.23119104 -52.80503
0.044597574 -12.505478 -0.3876488 -37.24699 -19.58913 53.53692 -46.50131 -0.3893842
-39.6213 52.1679 33.230114 -49.58869 -0.39318296 -0.32634333 51.882946 33.968857
-2.5136893 -11.684277 0.19550574 51.109524 57.735733 51.793606 -48.02102 -37.450214
23.958698 24.776825 -0.08740631 0.31496304 33.499428 0.36997962 0.3386886 -7.6467004
-37.823696 0.19544816 -39.873665 59.62842 -34.093616 5.2439656 -11.323529 -40.000477
34.07614 53.788364 56.97533 0.16734773 0.28285468 31.350748 -39.603397 15.206809
51.424202 8.093276 -52.263 24.67522 -4.9042363 -0.31541556 0.26776284 57.914894
-49.32673 0.30985376 14.564863 59.58658 51.91033 -0.392183 43.292957 40.529465
0.015699178 47.58112 -12.183399 -24.556961 65.58701 0.33939093 64.782684 0.3432274
-32.316536 -30.954987 0.20415372 -50.63099 -32.184444 -37.594532 -38.967144 -0.16738725
-19.486687 -0.40521464 -0.13916457 0.05563143 -25.918633 -8.049574 64.156334 27.810398
49.92016 13.207503 66.776825 0.24331105 53.80465 42.956806 8.428236 10.766785
-28.392685 60.072506 0.21328175 -46.443356 -27.15035 -33.647957 -0.28478408 -19.413649
-32.64201 -50.606907 0.2899366 0.19442856 0.23659343 -28.470552 0.08315698 -15.694454
34.604355 -40.97274 -12.937138 52.379513 -11.238519 0.77376467 51.711967 -0.16673014
0.012846589 51.937916 -19.16264 -21.267536 0.010531013 0.31603056 -0.3332007 0.07278231
00000000: c927 1042 1563 4742 32a7 4cc2 7138 c7c1
00000010: 101b 17c2 480a 15bd c8c7 963e 9029 6ebe
00000020: 8c7f 6d3f eccb 0ac2 9a32 b5c1 a66e 22c2
00000030: 7240 4ac1 f7ad 33c2 4be2 4641 a135 3ac1
00000040: d2ad 2fc1 4f4a d541 3507 cbc0 3888 20c2
00000050: 0445 91bd b49a 743e a7e2 333e a143 3c41
00000060: 48b2 2e3e 2e51 6942 696c 7b42 bf1b f2c1
00000070: d6a7 38be 2ede 873e e6b8 5cc2 7698 a2c0
00000080: 63c8 2d42 52e0 40c2 05d8 a141 49fa 1141
00000090: 1c66 c641 c118 7f41 a8bf 77be 8490 7e3e
000000a0: cbd1 55c2 40a1 dabb 3680 a2be 2eb7 83c0
000000b0: 4170 28c2 20eb 3e3c 369f 8342 615b 5a42
000000c0: 7802 a63d 52c0 2540 a0e9 9cbd c177 18c2
000000d0: 5f62 17c2 374d db41 ffbd c9bf d62a 04c2
000000e0: 8eee e0c1 9e49 eb40 949c 8042 9460 07c2
000000f0: 9930 2041 7026 97bd 2bf4 973e b3b4 a0c1
00000100: e697 6f42 b328 3cc2 d155 afbe 7a55 d341
00000110: d37b 0c42 7089 14be 6d08 a7c1 64e7 cebd
00000120: cb68 6f42 d481 6a42 8173 dfc1 d1ae 8442
00000130: 9bfa 6442 5416 933d 1ed6 9341 2361 0bc2
00000140: 242f 9dc1 9198 6d42 1055 823e 07b0 f9c1
00000150: f75c 7e42 9ffa b8be 7ce2 a83d 00fa d93d
00000160: e69b 903e a3db f7c1 d808 3cbb 4f10 c63d
00000170: 43f0 85c1 b7d4 5d42 ddf0 ecc1 6234 6dbe
00000180: c798 3ac2 b079 e4bd 586b aebe 58e4 0741
00000190: 7229 3bc2 1327 ac40 d5b9 8042 c4d2 1342
000001a0: 4040 5442 20cd 48c2 97d5 0cc2 0fbc c5be
000001b0: 4857 013e 8be2 e7c1 686b 7a42 85ff ba3e
000001c0: b011 1fbd ee37 7242 b96f 01c2 a63c 8342
000001d0: 7457 dfc1 c987 cf41 5ae6 c73e 49c9 c9c1
000001e0: 95e8 963c 7c98 71be 5757 4abe 936b 0842
000001f0: b782 ddc1 4f88 1a41 58bd 6c3e 5a38 53c2
00000200: f2ab 363d 7016 48c1 e779 c6be ebfc 14c2
00000210: 8ab6 9cc1 ce25 5642 5701 3ac2 5e5d c7be
00000220: 367c 1ec2 eeab 5042 a3eb 0442 d25a 46c2
00000230: 474f c9be 7916 a7be 2388 4f42 1ce0 0742
00000240: 49e0 20c0 ccf2 3ac1 a832 483e 2770 4c42
00000250: 64f1 6642 a72c 4f42 8615 40c2 05cd 15c2
00000260: 6aab bf41 f036 c641 1402 b3bd d642 a13e
00000270: 6aff 0542 f86d bd3e 9868 ad3e c5b1 f4c0
00000280: 774b 17c2 9023 483e a27e 1fc2 8183 6e42
00000290: dd5f 08c2 91ce a740 2d2d 35c1 7d00 20c2
000002a0: f84d 0842 4927 5742 bde6 6342 345d 2b3e
000002b0: 54d2 903e 55ce fa41 e169 1ec2 174f 7341
000002c0: 62b2 4d42 0f7e 0141 500d 51c2 da66 c541
000002d0: 81ef 9cc0 267e a1be 3618 893e daa8 6742
000002e0: 924e 45c2 27a5 9e3e ae09 6941 a858 6e42
000002f0: 2ea4 4f42 36cc c8be fd2b 2d42 2c1e 2242
00000300: 909b 803c 1153 3e42 34ef 42c1 a874 c4c1
00000310: 8d2c 8342 a6c4 ad3e bc90 8142 80bb af3e
00000320: 2244 01c2 d0a3 f7c1 ac0d 513e 2286 4ac2
00000330: dfbc 00c2 cd60 16c2 5bde 1bc2 9067 2bbe
00000340: bce4 9bc1 4b78 cfbe 2881 0ebe c8dd 633d
00000350: 5c59 cfc1 0ecb 00c1 0b50 8042 b27b de41
00000360: 3eae 4742 ef51 5341 bc8d 8542 8826 793e
00000370: f637 5742 c5d3 2b42 0eda 0641 c044 2c41
00000380: 3824 e3c1 3f4a 7042 8866 5a3e ffc5 39c2
00000390: eb33 d9c1 8297 06c2 38cf 91be 274f 9bc1
000003a0: 6b91 02c2 796d 4ac2 9272 943e 4818 473e
000003b0: 8c45 723e b1c3 e3c1 354e aa3d 7c1c 7bc1
000003c0: dc6a 0a42 16e4 23c2 84fe 4ec1 9f84 5142
000003d0: f9d0 33c1 7115 463f 0ed9 4e42 4ebb 2abe
000003e0: 807a 523c 6dc0 4f42 164d 99c1 ea23 aac1
000003f0: 458a 2c3c c2ce a13e 4899 aabe e40e 953d

fc2.0.weight f4 [128, 256]
-0.34676465 -0.5787022 0.21479398 0.32106218 0.17146988 -0.01623115 0.028948538 -0.052711308
-0.79918814 0.121621594 -0.00835523 1.0611818 -2.1295974 0.45902374 0.0044022687 -0.8720458
0.47977713 0.0772431 -0.031051716 -1.3916799 -0.042181887 0.060020715 -0.029593816 0.020390643
-0.050293237 0.9527709 -0.11418161 1.2497402 -0.056048118 0.03988401 0.7139149 -0.32722318
-0.45753473 1.2983631 0.34379113 0.15676136 0.121333584 0.0449882 -0.05343508 0.036083683
-0.2564545 0.015766189 -0.013803795 -1.88467 0.18003279 -0.048314556 0.07761274 0.084508955
0.029282436 0.011230541 0.001614429 -2.1378908 -1.433524 -0.12872048 -0.16058472 -0.64442796
0.504329 0.06800341 0.15784046 -3.3773975 -0.051493134 -0.01977656 0.08018997 0.96498597
1.2950023 0.6003128 0.027039915 0.09632129 0.9530833 -0.040083364 0.40606365 0.025403872
0.856097 0.6359206 -0.6324422 0.07207553 0.72037864 -0.056124352 -0.2614811 -1.4071306
-0.74461573 0.9478388 0.005480163 -0.81676346 0.1119673 -0.037933946 -0.041834667 -0.00852336
0.021617964 0.12238898 -0.62394345 -0.5788978 -0.107426696 -0.33608666 0.061127443 0.02726484
-0.44043773 -0.017754622 0.04751236 -0.1580367 0.7511433 -0.05517903 0.058022536 -0.97062474
-0.26039892 0.93460256 -0.44696644 -0.6209214 0.0063251182 0.12585065 0.050646108 -0.5880804
-0.056785986 1.202915 -3.3352838 0.12768212 1.1572356 0.023879146 -0.0039815456 -0.6611082
-0.039889596 -0.037362494 -0.043066695 0.9380479 -0.08676497 -0.029906387 -0.011922878 1.1875973
0.03421877 -0.65083575 0.0057004765 0.10188326 0.70924926 -0.1813146 0.97075766 -0.027069427
-2.3219326 0.42432055 -0.2850908 1.0607558 -0.023743019 0.0335598 0.8225607 -0.19848368
-0.03072633 -0.5630822 0.05494298 0.45609537 0.5658535 0.7466754 0.21282978 -0.5449964
0.61497337 0.018808179 0.016998515 0.019587576 1.0127285 -0.046508193 0.007869884 0.29806867
0.58933717 -0.014300138 -1.6709485 1.0357416 0.10917371 0.007815643 -1.888773 0.112081505
1.0517672 -0.153002 0.28183517 0.15169434 0.030101918 -0.23387833 1.2083029 0.07905276
-0.8567965 -0.11475719 0.17021084 0.14208433 -0.8540314 0.008605681 -0.014493011 1.0516964
-0.037945036 -0.588362 0.13216549 0.918986 0.86195254 -0.04417699 -0.9754936 0.7641676
0.03671492 -0.5459333 -0.9464896 -0.15259846 0.019565377 -0.061112553 0.07212165 -0.022101022
-1.7965436 0.7502347 0.027176537 0.2686336 0.21362415 -2.3733842 1.498622 0.0044507533
-1.6493614 0.007233329 -0.006794803 -0.025106445 -0.37632468 0.006312835 0.0003799035 -0.079794794
-1.5548563 -0.08758504 0.087737046 -0.04009661 -0.17478548 -0.6361527 -0.0987517 0.029199373
-1.8344195 1.1101631 0.032834634 -0.010161407 0.0820847 -4.122856 0.030474946 -1.0452999
-0.039343618 0.30570844 0.020582967 0.009552248 -0.013017364 -0.60066825 0.043050505 0.7447871
0.7952001 -1.5883853 -1.1139446 0.42771342 -0.41716585 -0.19107649 -0.45933414 -0.05711829
-0.044871755 1.1424725 0.902352 0.4802894 -0.0135393655 -0.023205057 0.029324502 0.055289216
00000000: 238b b1be d425 14bf f4f2 5b3e 4362 a43e
00000010: cd95 2f3e 30f7 84bc 7c25 ed3c d0e7 57bd
00000020: 9897 4cbf be14 f93d 60e4 08bc ced4 873f
00000030: 534b 08c0 2905 eb3e e840 903b 653e 5fbf
00000040: 59a5 f53e a131 9e3d 2b60 febc 9122 b2bf
00000050: eac6 2cbd 48d8 753d bb6e f2bc 470a a73c
00000060: 4800 4ebd cbe8 733f 0cd8 e9bd 7df7 9f3f
00000070: b692 65bd 6a5d 233d 20c3 363f cc89 a7be
00000080: fe41 eabe c330 a63f 6405 b03e 0d86 203e
00000090: be7d f83d 8c45 383d bede 5abd 7ccc 133d
000000a0: 014e 83be 1828 813c 5029 62bc de3c f1bf
000000b0: 845a 383e 7ce5 45bd 6ef3 9e3d 0813 ad3d
000000c0: b8e1 ef3c 4e00 383c 409b d33a 34d3 08c0
000000d0: b77d b7bf 4dcf 03be 5270 24be 3bf9 24bf
000000e0: b51b 013f 5f45 8b3d eea0 213e 4827 58c0
000000f0: 77ea 52bd 7402 a2bc a43a a43d 5209 773f
00000100: a3c2 a53f 1aae 193f d082 dd3c 1944 c53d
00000110: 44fd 733f 742e 24bd 93e7 cf3e c81b d03c
00000120: 2c29 5b3f b1cb 223f bbe7 21bf 569c 933d
00000130: bc6a 383f a6e2 65bd dae0 85be db1c b4bf
00000140: 239f 3ebf 90a5 723f f092 b33b 6917 51bf
00000150: 1d4f e53d a060 1bbd d45a 2bbd 90a5 0bbc
00000160: 2818 b13c 13a7 fa3d c2ba 1fbf a532 14bf
00000170: 8702 dcbd 8d13 acbe c560 7a3d 845a df3c
00000180: 0e81 e1be 2472 91bc 529c 423d 5fd4 21be
00000190: ed4a 403f 6803 62bd 0aa9 6d3d dd7a 78bf
000001a0: 0253 85be 1d42 6f3f c9d8 e4be b4f4 1ebf
000001b0: f042 cf3b fede 003e 4b72 4f3d 708c 16bf
000001c0: 6c98 68bd 1ef9 993f 4a75 55c0 1abf 023e
000001d0: 4c20 943f 339e c33c a077 82bb 633e 29bf
000001e0: 4663 23bd 6a09 19bd b466 30bd e823 703f
000001f0: d5b1 b1bd 3dfe f4bc 2d58 43bc 3003 983f
00000200: fb28 0c3d 2c9d 26bf 10cb ba3b 2ca8 d03d
00000210: 5c91 353f 89aa 39be 9383 783f b4c0 ddbc
00000220: 8b9a 14c0 8b40 d93e 6cf7 91be d9c6 873f
00000230: b880 c2bc 0076 093d 5793 523f 4e3f 4bbe
00000240: c9b5 fbbc 2826 10bf e40b 613d 5585 e93e
00000250: c6db 103f 1e26 3f3f 0df0 593e e284 0bbf
00000260: e56e 1d3f 9c13 9a3c 7840 8b3c 2076 a03c
00000270: 16a1 813f 607f 3ebd b0f0 003c 759c 983e
00000280: cdde 163f 204b 6abc a4e1 d5bf 2e93 843f
00000290: 7796 df3d 2f0d 003c 50c3 f1bf fd8a e53d
000002a0: 4fa0 863f 8eac 1cbe b34c 903e c355 1b3e
000002b0: 4c98 f63c cd7d 6fbe aba9 9a3f 6ae6 a13d
000002c0: 0457 5bbf d105 ebbd c04b 2e3e 8e7e 113e
000002d0: cda1 5abf d8fe 0c3c 1874 6dbc fd9d 863f
000002e0: 416c 1bbd e49e 16bf 6456 073e ab42 6b3f
000002f0: eca8 5c3f eef2 34bd f3b9 79bf 7da0 433f
00000300: 6262 163d 49c2 0bbf 244d 72bf c542 1cbe
00000310: 9247 a03c 2851 7abd 84b4 933d 340d b5bc
00000320: 24f5 e5bf 620f 403f 54a1 de3c 588a 893e
00000330: 4ac0 5a3e 87e5 17c0 d8d2 bf3f a0d7 913b
00000340: 461e d3bf 9005 ed3b f0a6 debb 08ac cdbc
00000350: a1ad c0be e6db ce3b c92d c739 746b a3bd
00000360: 8805 c7bf c95f b3bd 7baf b33d 583c 24bd
00000370: f7fa 32be e7da 22bf 553e cabd 8633 ef3c
00000380: 42ce eabf d319 8e3f 9c7d 063d 087c 26bc
00000390: 061c a83d 70ee 83c0 98a6 f93c 63cc 85bf
000003a0: c626 21bd d185 9c3e 9c9d a83c 0881 1c3c
000003b0: c846 55bc 65c5 19bf ba55 303d 5eaa 3e3f
000003c0: 3c92 4b3f 3650 cbbf bd95 8ebf 41fd da3e
000003d0: c396 d5be 8ea9 43be d82d ebbe def4 69bd
000003e0: 72cb 37bd 8a3c 923f 8a00 673f 7ee8 f53e
000003f0: 37d4 5dbc 8818 bebc f039 f03c f276 623d

fc2.0.bias f4 [128]
26.785204 -0.07245861 -0.019084875 0.1353014 -0.052179128 0.23098114 -0.05780562 6.288278
7.3272653 -0.05470541 6.280173 0.0028706298 -0.058036566 0.018638654 0.011568214 -0.044940848
26.087015 17.50738 49.11447 0.039385878 -0.08670481 1.3034741 -0.12982775 8.619585
14.529841 -0.034235753 23.423075 3.1589174 -0.012495691 12.812035 -0.07178622 -0.045666203
-0.0051498986 0.0055240034 -0.021267345 -0.041229334 -0.03272823 6.4396095 -0.034442306 -0.08591333
26.539265 23.94365 0.026623763 0.03623631 -10.502175 0.015535991 -0.014305938 62.30236
-0.026969917 42.307858 0.022238433 0.0073219445 0.002429047 0.007456657 5.6155734 -0.1018577
-0.013058674 32.83045 -0.004576438 7.0845723 -0.043436408 31.434324 0.013236328 61.36609
7.394545 0.017116062 8.109883 -0.0090954965 6.6791253 -3.3866153 6.827114 0.0026316508
-0.021622885 44.937164 10.072822 15.927249 0.035108786 0.0219822 33.107246 17.286476
0.01415895 7.044272 -0.0008771225 -0.00813427 -0.033967055 -0.014004144 0.027089959 0.03139949
6.3556247 0.012606932 -0.047689255 6.1747165 6.6852465 -0.07925167 -0.025353454 -0.06682267
-1.2055249 18.246977 0.035319347 6.5513153 -0.036333043 5.6115565 0.111148715 -0.07077604
-0.039879672 0.02175213 -0.086809985 8.269034 63.93685 0.03205905 -0.0075521283 -0.009682944
17.270742 -0.00538145 -0.043547418 -0.03499446 -0.00949697 -0.877764 39.68681 -0.028906994
22.082312 0.040081378 -0.031288095 -3.8792055 5.897284 21.529291 -0.06724891 0.13870126
00000000: 1948 d641 2e65 94bd e257 9cbc 738c 0a3e
00000010: c8b9 55bd 5286 6c3e 96c5 6cbd 9339 c940
00000020: f578 ea40 c812 60bd 2df7 c840 2d21 3c3b
00000030: c0b7 6dbd 17b0 983c 9b88 3d3c e513 38bd
00000040: 35b2 d041 1d0f 8c41 3875 4442 1653 213d
00000050: 4b92 b1bd 3dd8 a63f 91f1 04be d2e9 0941
00000060: 3b7a 6841 ca3a 0cbd 7562 bb41 b42b 4a40
00000070: baba 4cbc 18fe 4c41 a704 93bd 7c0c 3bbd
00000080: 7bc0 a8bb b302 b53b db38 aebc 17e0 28bd
00000090: 090e 06bd 4811 ce40 6013 0dbd 54f3 afbd
000000a0: 6a50 d441 988c bf41 141a da3c 866c 143d
000000b0: e908 28c1 ab8a 7e3c 7463 6abc 9e35 7942
000000c0: 04f0 dcbc 3f3b 2942 602d b63c ecec ef3b
000000d0: a530 1f3b f956 f43b c7b2 b340 c59a d0bd
000000e0: 0cf4 55bc 6152 0342 f2f5 95bb d1b4 e240
000000f0: 60ea 31bd 7f79 fb41 2fdd 583c e076 7542
00000100: 1da0 ec40 fc36 8c3c 15c2 0141 4705 15bc
00000110: 65bb d540 4ebe 58c0 b877 da40 c677 2c3b
00000120: 7a22 b1bc a8bf 3342 472a 2141 03d6 7e41
00000130: 3bce 0f3d 0414 b43c d26d 0442 b44a 8a41
00000140: f1fa 673c ad6a e140 b2ee 65ba 9a45 05bc
00000150: 0a21 0bbd a371 65bc c3eb dd3c c09c 003d
00000160: 4761 cb40 4e8d 4e3c cf55 43bd 4797 c540
00000170: 8aed d540 b34e a2bd 0cb2 cfbc 53da 88bd
00000180: a44e 9abf cff9 9141 05ab 103d 60a4 d140
00000190: f5d1 14bd df91 b340 f0a1 e33d 07f3 90bd
000001a0: de58 23bd 8631 b23c 6fc9 b1bd f74d 0441
000001b0: 56bf 7f42 5a50 033d d877 f7bb 36a5 1ebc
000001c0: 7b2a 8a41 e056 b0bb c75e 32bd 5a56 0fbd
000001d0: 2e99 1bbc 24b5 60bf 4bbf 1e42 5cce ecbc
000001e0: 93a8 b041 5f2c 243d f227 00bd e744 78c0
000001f0: 8db6 bc40 fd3b ac41 ccb9 89bd b407 0e3e

fc3.0.weight f4 [64, 128]
-0.12574853 -0.04149698 0.10671533 -0.012405932 -0.03700349 -0.116670854 -0.0800885 0.55633205
0.13968223 0.004307706 0.42558363 -0.031519867 -0.04340063 0.05935949 -0.014262343 0.10671682
0.26342827 0.4662015 0.10240929 0.04203254 -0.034622323 0.94083977 -0.02764619 0.3187412
0.62895405 0.008771036 0.21530895 0.23898566 0.055431984 0.001388033 -0.06666202 -0.015209455
-0.03765675 -0.04646097 -0.015575546 0.0064784857 0.008941972 0.3268311 0.10056651 0.01948072
0.5041888 1.1971778 0.07245169 0.00711098 -2.4397464 -0.005894722 0.025738303 0.3851601
0.036336742 0.29625836 0.012940258 -0.045481198 0.06688597 0.06384937 0.4715101 0.039682146
-0.06360396 -0.4286701 -0.070943214 0.22960755 0.09376297 -0.3766113 0.04420552 0.40573236
0.2926506 0.09324138 0.31145254 0.055731706 0.296214 -0.14220528 0.27321088 0.05477646
0.095926635 0.03540453 0.3684879 0.29737473 -0.024838675 -0.06460891 -0.17762071 1.0012995
-0.094133064 0.5097908 0.06649652 -0.07292356 0.044337228 0.01593087 0.002422009 -0.05638222
0.27939844 0.039624125 -0.044415034 0.35125342 0.34318325 -0.028522886 0.027427271 -0.018946253
0.09699561 -0.008209745 0.017187383 0.26168767 0.03921253 0.7815878 -0.064453036 0.05979672
0.049167927 -0.055958852 -0.04231946 0.21072592 0.5445518 -0.026897086 -0.006077717 -0.055620223
-0.06648597 -0.010992274 -0.0630922 0.09595851 -0.028897893 0.13205862 -1.1568327 0.11554269
0.46052295 0.05783606 -0.09709327 0.040049803 0.5033939 0.7423292 0.0719641 -0.07040495
0.21111463 -0.046905566 -0.024637243 -0.044769585 0.02486994 0.07169732 -0.018838177 0.27724594
-0.09298503 -0.038920823 0.3995267 0.050627295 -0.053750485 0.0039579812 0.006738006 0.041463133
1.2954684 0.41341716 -0.055237204 -0.044372093 -0.06429967 0.20611708 -0.09159396 -0.011686016
0.026568772 0.0027265067 0.5301798 0.23104961 0.031189948 0.18573633 -0.09002116 -0.037173115
0.05379547 0.030238487 -0.011536837 -0.04505806 0.03599637 0.131399 0.08327446 -0.034190487
1.0114063 -0.27139196 0.03675001 -0.07381386 -0.7816012 0.0533046 -0.036719445 -0.71589553
0.06790137 0.16134425 -0.01660351 0.052109815 0.108786486 -0.056420468 0.24553852 -0.030051947
-0.005872011 0.08148724 -0.014924954 0.1675064 0.03286995 0.11112268 -0.028487042 0.8002446
0.09106612 0.021378227 0.12119701 0.042725563 0.17889228 0.18871637 0.103456624 0.028850468
-0.0075899614 0.5299343 0.40105507 -0.1736863 0.08541573 0.085383296 0.07885465 -0.8533162
-0.058407918 0.4308493 0.11095513 -0.008188192 0.021156717 0.063559905 0.034640647 -0.06226004
0.35850114 0.065051205 -0.05053847 0.16452752 0.12379814 0.049834237 -0.02324073 0.033057775
-0.024526529 0.26755548 0.07298525 0.2863408 0.066274576 0.34853047 -0.03562108 0.02429254
-0.05333077 -0.006322823 -0.008963009 -0.015411389 0.5276871 -0.012078032 -0.050410554 0.08341656
0.5971128 -0.008981351 0.068542235 -0.0379965 -0.048143003 -0.029212419 -0.6229707 0.010673937
1.2735343 -0.0014868837 -0.097247064 -0.0023549804 0.464922 -0.27719527 0.011842347 -0.0034304664
00000000: 39c4 00be bdf8 29bd 918d da3d 4042 4bbc
00000010: f990 17bd 21f1 eebd 7105 a4bd c76b 0e3f
00000020: dc08 0f3e a827 8d3b 19e6 d93e fa1a 01bd
00000030: dcc4 31bd f022 733d 9aac 69bc 598e da3d
00000040: 12e0 863e f7b1 ee3e f6bb d13d 502a 2c3d
00000050: 23d0 0dbd e0da 703f 437a e2bc 0c32 a33e
00000060: 2203 213f 64b4 0f3c f379 5c3e a8b8 743e
00000070: a60c 633d a9ee b53a 1986 88bd 1431 79bc
00000080: f73d 1abd dc4d 3ebd 9330 7fbc 7a49 d43b
00000090: 5981 123c 6856 a73e d0f5 cd3d 0896 9f3c
000000a0: 8412 013f 1f3d 993f 8d61 943d 3903 e93b
000000b0: ce24 1cc0 8328 c1bb 22d9 d23c b433 c53e
000000c0: d6d5 143d 2daf 973e 6003 543c 7e4a 3abd
000000d0: 83fb 883d 75c3 823d c669 f13e bf89 223d
000000e0: cb42 82bd a67a dbbe ad4a 91bd 3e1e 6b3e
000000f0: cd06 c03d 32d3 c0be d910 353d 27bc cf3e
00000100: 4dd6 953e 56f5 be3d b576 9f3e ee46 643d
00000110: 5da9 973e 439e 11be 4ce2 8b3e 485d 603d
00000120: 2f75 c43d 5704 113d 72aa bc3e 8041 983e
00000130: 7a7a cbbc ad51 84bd 34e2 35be 952a 803f
00000140: d6c8 c0bd a681 023f 542f 883d f358 95bd
00000150: f49a 353d 7581 823c 91ba 1e3b 0bf1 66bd
00000160: 500d 8f3e e84c 223d 8aec 35bd 7dd7 b33e
00000170: b7b5 af3e d4a8 e9bc 28af e03c 2c35 9bbc
00000180: a2a5 c63d 2b82 06bc 8ecc 8c3c edfb 853e
00000190: 519d 203d 2316 483f f4ff 83bd 68ed 743d
000001a0: 4f64 493d 1c35 65bd 2c57 2dbd 89c8 573e
000001b0: bf67 0b3f 4757 dcbc 9627 c7bb 08d2 63bd
000001c0: cc29 88bd f018 34bc 7c36 81bd e585 c43d
000001d0: 46bb ecbc 603a 073e 1813 94bf a5a1 ec3d
000001e0: aac9 eb3e 81e5 6c3d d6d8 c6bd 430b 243d
000001f0: 6cde 003f 4909 3e3f ea61 933d 7830 90bd
00000200: 6f2e 583e 0d20 40bd 0bd4 c9bc 5060 37bd
00000210: 0bbc cb3c 0bd6 923d 8552 9abc 2ef3 8d3e
00000220: ef6e bebd 716b 1fbd c38e cc3e 915e 4f3d
00000230: 7829 5cbd f4b1 813b 7eca dc3b 3fd5 293d
00000240: e9d1 a53f 6aab d33e 6840 62bd 83bf 35bd
00000250: 8caf 83bd 5b10 533e 9d95 bbbd b476 3fbc
00000260: c1a6 d93c 31af 323b ddb9 073f 4598 6c3e
00000270: 1082 ff3c aa31 3e3e 045d b8bd d642 18bd
00000280: a458 5c3d b4b6 f73c 0005 3dbc cd8e 38bd
00000290: ee70 133d 768d 063e cd8b aa3d 530b 0cbd
000002a0: c375 813f e3f3 8abe 2e87 163d b92b 97bd
000002b0: 0417 48bf ed55 5a3d 2167 16bd ee44 37bf
000002c0: e00f 8b3d 6d37 253e 1604 88bc 1a71 553d
000002d0: 73cb de3d 2619 67bd 736e 7b3e 802f f6bc
000002e0: 006a c0bb c8e2 a63d cb87 74bc cc86 2b3e
000002f0: a4a2 063d 4a94 e33d a85d e9bc d5dc 4c3f
00000300: e080 ba3d 6421 af3c 2336 f83d 0001 2f3d
00000310: 8a2f 373e dd3e 413e 11e1 d33d d157 ec3c
00000320: 36b5 f8bb c6a9 073f 1757 cd3e d2da 31be
00000330: 71ee ae3d 70dd ae3d 8c7e a13d ee72 5abf
00000340: 243d 6fbd 4898 dc3e 713c e33d c427 06bc
00000350: da50 ad3c b22b 823d 5ae3 0d3d 6204 7fbd
00000360: 768d b73e 9139 853d 6d01 4fbd e779 283e
00000370: e189 fd3d fc1e 4c3d 5863 bebc 9767 073d
00000380: dceb c8bc 08fd 883e 4a79 953d 439b 923e
00000390: f7ba 873d 9672 b23e 69e7 11bd 2601 c73c
000003a0: 5e71 5abd af2f cfbb 96d9 12bc 0d80 7cbc
000003b0: 8016 073f f0e2 45bc 4c7b 4ebd 4dd6 aa3d
000003c0: 62dc 183f 8426 13bc df5f 8c3d 38a2 1bbd
000003d0: 9931 45bd e24e efbc 027b 1fbf bde1 2e3c
000003e0: 2c03 a33f 8ae3 c2ba 7829 c7bd 0456 1abb
000003f0: 420a ee3e 8aec 8dbe 6706 423c add1 60bb

fc3.0.bias f4 [64]
71.36704 68.208885 -0.17839666 51.803135 -35.980732 46.09504 -0.20071083 -28.433233
-0.11491458 -0.14274423 -0.2211051 38.353558 -5.8648267 -57.60967 29.301634 68.487114
-2.2552435 -9.786241 23.140324 68.58801 66.24736 53.89986 67.67822 64.31108
-57.437035 56.086838 -9.271247 68.16584 -0.24392204 68.03997 37.473614 65.61745
65.53282 68.35682 69.07206 69.23532 67.30617 55.51351 0.47983214 68.72294
48.354153 69.54249 53.719772 48.49365 68.35539 35.040337 69.43439 44.13063
57.077923 53.575634 42.213036 65.86112 68.584816 25.849669 1.9208556 29.144783
26.891394 35.30911 28.205538 70.9063 68.89248 41.988815 56.171318 -9.120022
00000000: edbb 8e42 f36a 8842 9dad 36be 6936 4f42
00000010: 45ec 0fc2 5261 3842 2487 4dbe 4377 e3c1
00000020: 5658 ebbd 8b2b 12be 6069 62be 0b6a 1942
00000030: a9ac bbc0 4d70 66c2 bf69 ea41 67f9 8842
00000040: e955 10c0 7194 1cc1 621f b941 102d 8942
00000050: a67e 8442 7599 5742 405b 8742 469f 8042
00000060: 86bf 65c2 ec58 6042 0757 14c1 e954 8842
00000070: b3c6 79be 7714 8842 fbe4 1542 223c 8342
00000080: ce10 8342 b1b6 8842 e524 8a42 7c78 8a42
00000090: c29c 8642 d60d 5e42 8fac f53e 2572 8942
000000a0: a76a 4142 c115 8b42 0ce1 5642 7ff9 4142
000000b0: f6b5 8842 4e29 0c42 68de 8a42 c485 3042
000000c0: cb4f 6442 734d 5642 26da 2842 e5b8 8342
000000d0: 6d2b 8942 1fcc ce41 99de f53f 8428 e941
000000e0: 9321 d741 873c 0d42 f1a4 e141 07d0 8d42
000000f0: f3c8 8942 8cf4 2742 6eaf 6042 9ceb 11c1

fc4.weight f4 [4, 64]
0.87283754 0.41817173 -0.4316619 5.5867596 -1.3454102 4.1427617 0.041285187 2.1674438
0.091685265 -0.09869442 -0.07241599 2.0947452 0.44954446 1.6183925 2.1016765 0.014908521
0.20395818 0.045360167 2.361862 0.73015714 0.42122248 1.5962026 0.5211147 -1.0927272
1.5280048 1.0164404 0.06808136 0.59368306 0.01627047 -0.030835407 1.4510632 -0.5269639
-0.11064045 -0.019244388 0.46231177 0.37967548 0.5493254 2.6774487 0.70657283 0.72795904
1.8860266 0.7125297 0.5876987 0.92821354 0.03025619 1.5864683 0.42775 0.20328069
0.5145335 1.1582749 1.0127057 1.0376848 0.18154809 3.5976295 0.0033994392 0.4124846
2.4337173 2.1562963 1.7257943 1.1729298 0.23023427 1.8710576 1.3623388 -0.12859227
0.6611425 0.57229495 -0.25319818 2.8409524 -1.3796017 2.2823265 -0.0010540228 3.3603268
-0.03609724 -0.059792925 -0.06057619 2.0171626 0.6265345 -0.8461925 2.7350106 0.90902567
0.20877372 0.016241672 0.7016794 1.2209649 0.43512678 1.8423971 0.81808263 -0.49824855
-1.5154988 1.6249429 0.80362815 0.62347126 -0.018772027 0.55965805 1.9067355 -0.05028527
0.22536531 0.8520606 0.82842803 -0.09115297 0.9174614 2.000165 0.32058808 1.2119825
2.1560283 -0.080388725 1.2800572 0.5260962 -0.23600279 1.7568773 0.36466318 -0.22925979
0.2381841 1.4703294 1.859719 0.99849826 0.44140938 2.7565122 0.008049731 -0.16899341
2.4388514 3.1396854 1.7409813 0.94151396 0.4578538 2.1893988 0.80157936 0.011875342
1.0373288 0.9995961 -0.028062467 2.4528122 -2.0471866 2.2209551 -0.055427473 1.9929415
-0.068333134 0.027972283 -0.019348899 1.5946484 -0.081348546 -0.13924985 4.5069795 0.5080153
-0.09359436 -0.13684395 2.65312 0.708975 1.0219849 2.2295685 0.019315107 0.24960616
-0.21343024 1.562605 -0.044645343 0.8111225 0.012542596 0.395384 2.8722925 -0.072607994
0.64968747 0.4859795 0.41763696 0.647277 0.2566797 2.8207083 0.36733785 1.4736618
2.2520325 0.30118817 1.2141051 0.8719936 0.52193356 1.583494 0.60791767 0.66025525
-0.059166845 1.5963846 1.8526781 0.7286244 0.2347938 2.7154562 -0.06401289 0.119343705
3.016455 3.9987311 3.411283 0.8380715 0.44734317 2.5523803 0.8578656 0.29572323
0.29060385 1.4009552 0.10531916 2.3415186 -4.283351 2.039676 -0.0021398105 -0.73777777
-0.050605416 -0.04279184 0.061084177 1.5627952 -0.46317017 -1.7357582 5.461052 0.560484
-0.20529063 -0.10772309 5.867553 0.47583008 0.9513089 2.1092343 0.5081589 1.6073189
-1.5740676 1.6356044 -0.4641837 0.84208405 0.028979799 0.5476757 3.5071251 0.5231603
0.9002219 0.4318446 0.49758896 0.41844693 0.5849776 2.1308012 -0.02086313 1.5888367
2.105826 0.44462562 1.5880234 1.1835132 0.37227282 1.8842671 0.4579509 1.6601392
1.6618886 1.6108981 1.842872 1.7845552 0.54052573 3.4781556 0.6095343 1.172086
3.3539217 3.6576667 5.8790965 0.42365363 0.4862285 2.4176729 1.9855447 -0.2956292
00000000: 4872 5f3f 9b1a d63e ca02 ddbe bcc6 b240
00000010: 6736 acbf 8191 8440 a81a 293d 66b7 0a40
00000020: 7cc5 bb3d 4d20 cabd d64e 94bd 4e10 0640
00000030: b12a e63e 7c27 cf3f de81 0640 df42 743c
00000040: 6ada 503e 95cb 393d bf28 1740 94eb 3a3f
00000050: 79aa d73e 5e50 cc3f c667 053f 7cde 8bbf
00000060: a995 c33f b81a 823f 3d6e 8b3d 9dfb 173f
00000070: a649 853c 899a fcbc 70bc b93f 1be7 06bf
00000080: 7697 e2bd 68a6 9dbc 21b4 ec3e d364 c23e
00000090: 97a0 0c3f 525b 2b40 f5e1 343f 865b 3a3f
000000a0: 5269 f13f 5968 363f 6c73 163f 679f 6d3f
000000b0: d4db f73c 6511 cb3f 0c02 db3e d028 503e
000000c0: 78b8 033f 5a42 943f 57a0 813f dbd2 843f
000000d0: bee7 393e 903f 6640 20c9 5e3b 2e31 d33e
000000e0: 06c2 1b40 c200 0a40 d4e6 dc3f 9022 963f
000000f0: 88c2 6b3e d17e ef3f 1e61 ae3f b1ad 03be
00000100: a340 293f ec81 123f 31a3 81be 2ad2 3540
00000110: ca96 b0bf a311 1240 2327 8aba 980f 5740
00000120: b3da 13bd 6de9 74bd bd1e 78bd 3119 0140
00000130: 9164 203f 12a0 58bf 6a0a 2f40 e8b5 683f
00000140: c7c8 553e 410d 853c 43a1 333f 9448 9c3f
00000150: f0c8 de3e abd3 eb3f dd6d 513f 6f1a ffbe
00000160: ddfb c1bf 21fe cf3f 93ba 4d3f d09b 1f3f
00000170: cbc7 99bc c045 0f3f e90f f43f edf7 4dbd
00000180: 2ac6 663e a520 5a3f dc13 543f 69ae babd
00000190: c0de 6a3f b402 0040 1f24 a43e 3e22 9b3f
000001a0: 5efc 0940 d8a2 a4bd ead8 a33f 3eae 063f
000001b0: b7aa 71be 5be1 e03f 22b5 ba3e 14c3 6abe
000001c0: 88e6 733e c133 bc3f 460b ee3f 959d 7f3f
000001d0: 6900 e23e b26a 3040 05e3 033c 9c0c 2dbe
000001e0: 2416 1c40 9bf0 4840 7ad8 de3f 0f07 713f
000001f0: d06b ea3e 1c1f 0c40 4e34 4d3f cb90 423c
00000200: 31c7 843f 88e5 7f3f 42e3 e5bc e0fa 1c40
00000210: 1b05 03c0 2124 0e40 eb07 63bd b518 ff3f
00000220: 3ef2 8bbd 2126 e53c 9581 9ebc 701d cc3f
00000230: 119a a6bd 8397 0ebe 2d39 9040 4a0d 023f
00000240: 66ae bfbd d220 0cbe b8cc 2940 637f 353f
00000250: 67d0 823f 40b1 0e40 b73a 9e3c c298 7f3e
00000260: 758d 5abe 7103 c83f 09de 36bd b9a5 4f3f
00000270: 767f 4d3c c66f ca3e a4d3 3740 80b3 94bd
00000280: eb51 263f 4ed2 f83e 83d4 d53e f2b3 253f
00000290: 866b 833e 7c86 3440 b513 bc3e f3a0 bc3f
000002a0: 4d21 1040 5635 9a3e cc67 9b3f f93a 5f3f
000002b0: 709d 053f eeaf ca3f 7ea0 1b3f 7d06 293f
000002c0: ef58 72bd 5556 cc3f 8e24 ed3f 2187 3a3f
000002d0: c96d 703e 09ca 2d40 3119 83bd 796a f43d
000002e0: 990d 4140 36eb 7f40 7652 5a40 db8b 563f
000002f0: 2a0a e53e 335a 2340 149d 5b3f 0969 973e
00000300: 07ca 943e 8052 b33f 92b1 d73d 71db 1540
00000310: 3611 89c0 0d8a 0240 103c 0cbb 01df 3cbf
00000320: a047 4fbd 7f46 2fbd 6733 7a3d ac09 c83f
00000330: a424 edbe 532d debf f0c0 ae40 e17b 0f3f
00000340: b537 52be ec9d dcbd ffc2 bb40 00a0 f33e
00000350: fb88 733f b2fd 0640 b416 023f a0bc cd3f
00000360: 0c7b c9bf 7c5b d13f 7ca9 edbe d292 573f
00000370: 0b67 ed3c 7a34 0c3f bd74 6040 d5ed 053f
00000380: f174 663f bc1a dd3e fbc3 fe3e ad3e d63e
00000390: 18c1 153f 0c5f 0840 28e9 aabc 005f cb3f
000003a0: dac5 0640 f8a5 e33e 5a44 cb3f 5c7d 973f
000003b0: 8b9a be3e aa2f f13f 8a78 ea3e 717f d43f
000003c0: c4b8 d43f e931 ce3f 3be3 eb3f 4e6c e43f
000003d0: e55f 0a3f 1a9a 5e40 710a 1c3f ea06 963f
000003e0: a7a6 5640 3617 6a40 8f21 bc40 21e9 d83e
000003f0: f1f2 f83e 27bb 1a40 5426 fe3f b65c 97be

fc4.bias f4 [4]
18.619097 14.488631 27.192541 65.870094
00000000: e9f3 9441 6fd1 6741 538a d941 7dbd 8342

fc1.0.weight f4 [256, 6]
-0.006343543 -2.7439816 2.1547487 -6.3476334 -1.6264794 -11.448663 -0.004055729 -2.2231817
1.3766174 -7.736589 -0.97089547 -15.377562 -0.0007400094 4.3264303 -5.1913347 5.8208942
4.0171747 17.850014 0.0043714163 -1.932317 8.17897 23.189621 0.047224853 11.115365
-0.021012753 4.0818524 -3.4086227 10.843021 3.6113687 13.6869135 -0.25807863 -0.20397027
0.04983908 0.03188491 -0.17782494 -0.23805176 -0.27353537 -0.08138108 -0.1854968 -0.31048682
0.0032811165 -0.078012794 -0.06446186 -0.29629797 -0.298889 0.25648797 -0.2256226 0.10807139
-0.18697594 -0.8634857 21.01149 33.00771 0.6841463 6.8182473 -0.017790437 4.014977
-2.8648403 9.069292 3.5722568 11.257831 -0.028840417 3.6105404 -2.2571585 15.339402
3.2977521 9.824433 0.0058583864 -0.33645007 6.8154407 5.4711556 -0.24095185 20.785706
-0.029796664 -3.6028595 9.8731985 16.495016 -1.5939965 -10.48502 0.021468302 0.5168231
-33.309578 -24.813623 1.2080805 0.55991584 -0.040144447 -1.6454312 2.4058466 -5.484055
-1.9028056 3.7836628 -0.42969543 -0.82023925 8.649279 21.213144 0.40644753 3.4829955
-0.041749287 -1.800182 6.769907 21.005907 -0.08143296 12.772606 -0.0057144933 -1.3311362
1.8652459 0.059306674 -0.4209003 -4.4885087 -0.97055686 -0.006686333 -12.50772 -5.3048034
0.42535982 -16.765131 -0.005682722 0.8361717 8.543822 11.967571 1.7365738 7.905709
-0.04812473 -0.063874066 -0.032823026 0.029629111 -0.061238945 0.16060585 -0.10860214 -0.11768526
0.3307407 -0.25559145 -0.39865294 0.34846234 -0.33923498 0.03382591 -0.26965842 0.12763813
-0.016353387 0.3185373 -0.04102753 -2.0913298 2.6719387 -5.768758 -2.1550887 4.31025
-0.0062227547 0.061789036 -0.4008131 -0.022125423 -0.35089174 -0.27573836 -0.012564554 0.9435747
4.9356513 22.441467 1.0755514 30.175875 -0.0012728339 -1.2952167 0.34422496 -6.017519
-0.9203448 -12.738823 0.0007291573 -0.7324797 5.467475 7.2068367 -0.1148843 22.21637
-0.1866742 0.2635547 -0.27608317 0.37878728 -0.25620687 -0.15210164 -0.2530303 -0.29521397
-0.3504836 0.03235489 -0.36948934 0.14437896 0.02395373 1.6597369 -21.441671 -11.662566
1.3004831 19.047012 -0.036520258 -0.8592468 7.5361633 22.585695 0.03585503 7.731254
-0.005605603 -2.3929255 1.5098182 -8.115596 -1.3138691 -12.261315 0.010776765 0.9804193
-41.671795 -27.191456 1.3779027 -3.3872075 -0.0060571525 -4.010638 1.9434152 -13.01281
-4.257803 -4.3991914 -0.045806576 -1.102338 4.4882674 3.2553353 -0.26199347 4.864872
-0.008473422 -0.60589814 2.7760415 4.5291066 -0.34589404 -2.3663337 -0.009182251 -1.1978787
3.020312 2.7998765 -0.0088447435 1.5202762 -0.2189305 -0.034068555 0.047051877 -0.19215733
-0.032506734 -0.16880096 -0.12961698 -0.37889326 0.266459 0.18896633 -0.30771753 0.38018048
-0.0026578235 3.6617956 -9.947155 0.66159695 4.060164 16.457891 -0.07784888 -0.34030306
-0.37408864 -0.3948497 -0.40675914 0.2675259 -0.16570196 0.015772045 0.21914542 0.3508737
00000000: 7fdd cfbb 659d 2fc0 67e7 0940 d01f cbc0
00000010: 7a30 d0bf b92d 37c1 ece5 84bb 9c48 0ec0
00000020: 0035 b03f 2392 f7c0 9b8c 78bf 7e0a 76c1
00000030: 31fd 41ba 1e72 8a40 6a1f a6c0 c444 ba40
00000040: b28c 8040 d4cc 8e41 193e 8f3b 2a56 f7bf
00000050: 10dd 0241 5884 b941 d96e 413d 89d8 3141
00000060: f022 acbc 899e 8240 e026 5ac0 047d 2d41
00000070: aa20 6740 99fd 5a41 e222 84be 95dd 50be
00000080: 1024 4c3d c099 023d be17 36be d7c3 73be
00000090: d40c 8cbe 20ab a6bd e0f2 3dbe 21f8 9ebe
000000a0: 0008 573b 2cc5 9fbd 9404 84bd 5eb4 97be
000000b0: fb07 99be 6452 833e 9c09 67be 8854 dd3d
000000c0: 9f76 3fbe 660d 5dbf 8817 a841 e507 0442
000000d0: 3624 2f3f 152f da40 40bd 91bc b17a 8040
000000e0: 8b59 37c0 d21b 1141 db9f 6440 1320 3441
000000f0: bd42 ecbc 1813 6740 4975 10c0 316e 7541
00000100: 5f0e 5340 e130 1d41 b5f7 bf3b 2f43 acbe
00000110: 1718 da40 b513 af40 15bc 76be 2049 a641
00000120: 2218 f4bc 4095 66c0 9ff8 1d41 cbf5 8341
00000130: 1408 ccbf a4c2 27c1 4bde af3c 854e 043f
00000140: 023d 05c2 4d82 c6c1 62a2 9a3f a556 0f3f
00000150: 816e 24bd 7d9d d2bf 64f9 1940 617d afc0
00000160: 228f f3bf 8827 7240 0a01 dcbe 33fb 51bf
00000170: 7263 0a41 85b4 a941 e419 d03e 66e9 5e40
00000180: 4d01 2bbd 5d6c e6bf 14a3 d840 190c a841
00000190: 53c6 a6bd 985c 4c41 a540 bbbb ac62 aabf
000001a0: 61c0 ee3f 8eeb 723d 3e80 d7be dda1 8fc0
000001b0: 6a76 78bf 0719 dbbb 9f1f 48c1 f3c0 a9c0
000001c0: c3c8 d93e fd1e 86c1 2136 babb 590f 563f
000001d0: 7fb3 0841 2c7b 3f41 0d48 de3f 91fb fc40
000001e0: 701e 45bd 68d0 82bd 7071 06bd c0b8 f23c
000001f0: b0d5 7abd dc75 243e cc6a debd f804 f1bd
00000200: d856 a93e e2dc 82be 3d1c ccbe a869 b23e
00000210: 35b0 adbe 0a8d 0a3d ab10 8abe 92b3 023e
00000220: 8af7 85bc 5217 a33e 7c0c 28bd 59d8 05c0
00000230: 0b01 2b40 aa99 b8c0 f9ec 09c0 91ed 8940
00000240: 40e8 cbbb 8016 7d3d 6037 cdbe 6040 b5bc
00000250: 15a8 b3be 942d 8dbe 8fdb 4dbc 1d8e 713f
00000260: dbf0 9d40 2088 b341 abab 893f 3168 f141
00000270: 38d5 a6ba a9c9 a5bf 413e b03e 848f c0c0
00000280: b89b 6bbf 38d2 4bc1 eb24 3f3a ca83 3bbf
00000290: 8ef5 ae40 689e e640 7648 ebbd 20bb b141
000002a0: 8627 3fbe a4f0 863e c65a 8dbe 68f0 c13e
000002b0: 8c2d 83be 88c0 1bbe 308d 81be 4926 97be
000002c0: 9672 b3be 9086 043d b52d bdbe 14d8 133e
000002d0: 9d3a c43c 4272 d43f 8b88 abc1 df99 3ac1
000002e0: 3b76 a63f 4860 9841 4496 15bd 99f7 5bbf
000002f0: 4028 f140 81af b441 b9dc 123d 6f66 f740
00000300: 35af b7bb b125 19c0 b941 c13f 7bd9 01c1
00000310: dd2c a8bf 592e 44c1 0791 303c c2fc 7a3f
00000320: ebaf 26c2 1a88 d9c1 1e5f b03f 02c8 58c0
00000330: 147b c6bb 2657 80c0 d4c1 f83f 7834 50c1
00000340: ec3f 88c0 2dc6 8cc0 ad9f 3bbd 6919 8dbf
00000350: e39f 8f40 6a57 5040 0224 86be 08ad 9b40
00000360: 1cd4 0abc 241c 1bbf aaaa 3140 71ee 9040
00000370: 0619 b1be 0372 17c0 2771 16bc 1754 99bf
00000380: cb4c 4140 2d31 3340 8be9 10bc 6998 c23f
00000390: 512f 60be 788b 0bbd 78b9 403d e4c4 44be
000003a0: c825 05bd 29da 2cbe 50ba 04be 4cfe c1be
000003b0: 506d 883e 6480 413e 278d 9dbe 04a7 c23e
000003c0: e12e 2ebb dc5a 6a40 8c27 1fc1 6b5e 293f
000003d0: ddec 8140 c3a9 8341 3c6f 9fbd 343c aebe
000003e0: 8c88 bfbe bd29 cabe bc42 d0be 28f9 883e
000003f0: c6ad 29be 6034 813c a867 603e b8a5 b33e

fc1.0.bias f4 [256]
36.038853 49.84676 -51.16006 -24.899162 -37.780132 -0.036386758 0.29449296 -0.23258042
0.92931825 -34.704613 -22.65414 -40.60384 -12.640734 -44.918297 12.430247 -11.637791
-10.979937 26.661283 -6.3440423 -40.129303 -0.07093242 0.2388714 0.1756693 11.766511
0.17060196 58.32275 62.85587 -30.259726 -0.18032774 0.26536697 -55.17617 -5.081111
43.44569 -48.215626 20.230478 9.123605 24.799858 15.943543 -0.24194205 0.24859816
-53.45257 -0.0066720545 -0.31738442 -4.116111 -42.104607 0.011652738 65.805916 54.58337
0.081059396 2.5898633 -0.07661748 -38.111107 -37.84228 27.412703 -1.5761107 -33.04261
-28.11367 7.3527365 64.301056 -33.841328 10.011865 -0.07380378 0.29678473 -20.085798
59.893753 -47.036057 -0.3424516 26.416737 35.120922 -0.14505553 -20.87563 -0.10102728
59.84886 58.621338 -27.93474 66.336716 57.23807 0.07181993 18.47955 -34.841488
-19.645283 59.393993 0.25455523 -31.207777 63.585762 -0.3612871 0.082463235 0.10643387
0.2824394 -30.984734 -0.0040751966 0.09548972 -16.747036 55.45717 -29.622427 -0.23164514
-46.65321 -0.111560225 -0.34066272 8.493248 -46.788284 5.37977 64.3588 36.956886
53.05805 -50.197742 -35.204624 -0.38719326 0.12630951 -28.987392 62.599922 0.36410892
-0.038835227 60.55 -32.354294 65.61372 -27.91447 25.941301 0.39042932 -25.220932
0.01842145 -0.23593324 -0.1975988 34.105053 -27.685738 9.658278 0.23119104 -52.802364
0.044597574 -12.504804 -0.3876488 -37.250633 -19.58649 53.53692 -46.498543 -0.3893842
-39.620033 52.17076 33.230114 -49.586555 -0.39318296 -0.32634333 51.879246 33.970608
-2.5136893 -11.683364 0.19550574 51.10623 57.730076 51.79073 -48.022804 -37.44641
23.958698 24.776825 -0.08740631 0.31496304 33.499428 0.36997962 0.3386886 -7.6481786
-37.81979 0.19544816 -39.8701 59.62392 -34.094585 5.2439656 -11.323529 -40.00211
34.07614 53.788364 56.96962 0.16734773 0.28285468 31.350748 -39.59978 15.206809
51.42321 8.093276 -52.25908 24.67522 -4.9027214 -0.31541556 0.26776284 57.909447
-49.323112 0.30864286 14.564863 59.582115 51.906845 -0.392183 43.29366 40.529465
0.015699178 47.58112 -12.1804905 -24.5552 65.58221 0.33939093 64.77776 0.3432274
-32.312527 -30.954987 0.20415372 -50.629513 -32.188606 -37.59092 -38.962685 -0.16738725
-19.486687 -0.40521464 -0.13916457 0.05563143 -25.915487 -8.0449505 64.15124 27.810398
49.91759 13.207503 66.772095 0.24331105 53.80465 42.956806 8.428236 10.766785
-28.389383 60.068027 0.21328175 -46.438232 -27.147333 -33.64508 -0.28478408 -19.40759
-32.644066 -50.602917 0.2899366 0.19442856 0.23659343 -28.473845 0.08315698 -15.695406
34.604355 -40.969048 -12.935226 52.37568 -11.235366 0.77376467 51.707993 -0.16673014
0.012846589 51.93428 -19.15998 -21.264349 0.010531013 0.31603056 -0.3332007 0.07278231
00000000: c927 1042 1563 4742 e7a3 4cc2 7c31 c7c1
00000010: db1e 17c2 480a 15bd c8c7 963e 9029 6ebe
00000020: cde7 6d3f 86d1 0ac2 ae3b b5c1 556a 22c2
00000030: 7240 4ac1 56ac 33c2 4be2 4641 6434 3ac1
00000040: d2ad 2fc1 4f4a d541 6502 cbc0 6884 20c2
00000050: 0445 91bd b49a 743e a7e2 333e a143 3c41
00000060: 48b2 2e3e 7f4a 6942 696c 7b42 eb13 f2c1
00000070: d6a7 38be 2ede 873e 66b4 5cc2 7698 a2c0
00000080: 63c8 2d42 cddc 40c2 05d8 a141 49fa 1141
00000090: 1c66 c641 c118 7f41 a8bf 77be 8490 7e3e
000000a0: 6fcf 55c2 40a1 dabb 3680 a2be 2eb7 83c0
000000b0: 1e6b 28c2 20eb 3e3c a19c 8342 5f55 5a42
000000c0: 7802 a63d 52c0 2540 a0e9 9cbd c671 18c2
000000d0: 7f5e 17c2 374d db41 ffbd c9bf a22b 04c2
000000e0: cce8 e0c1 9e49 eb40 249a 8042 855d 07c2
000000f0: 9930 2041 7026 97bd 2bf4 973e b7af a0c1
00000100: 3493 6f42 ec24 3cc2 d155 afbe 7a55 d341
00000110: d37b 0c42 7089 14be 4a01 a7c1 64e7 cebd
00000120: 3c65 6f42 407c 6a42 597a dfc1 66ac 8442
00000130: c9f3 6442 5416 933d 1ed6 9341 af5d 0bc2
00000140: 8a29 9dc1 7393 6d42 1055 823e 87a9 f9c1
00000150: d257 7e42 9ffa b8be 7ce2 a83d 00fa d93d
00000160: e69b 903e bce0 f7c1 3a89 85bb 1d90 c33d
00000170: eef9 85c1 24d4 5d42 bbfa ecc1 6234 6dbe
00000180: e39c 3ac2 b079 e4bd 586b aebe 58e4 0741
00000190: 3427 3bc2 1327 ac40 b5b7 8042 dad3 1342
000001a0: 713b 5442 7dca 48c2 89d1 0cc2 323e c6be
000001b0: 4857 013e 2ee6 e7c1 5266 7a42 7c6c ba3e
000001c0: b011 1fbd 3333 7242 cc6a 01c2 3a3a 8342
000001d0: d650 dfc1 c987 cf41 5ae6 c73e 78c4 c9c1
000001e0: 95e8 963c 7c98 71be 5757 4abe 936b 0842
000001f0: 647c ddc1 4f88 1a41 58bd 6c3e 9f35 53c2
00000200: f2ab 363d ad13 48c1 e779 c6be a600 15c2
00000210: 22b1 9cc1 ce25 5642 82fe 39c2 5e5d c7be
00000220: ea7a 1ec2 dcae 5042 a3eb 0442 a258 46c2
00000230: 474f c9be 7916 a7be 5984 4f42 e7e1 0742
00000240: 49e0 20c0 0fef 3ac1 a832 483e c86c 4c42
00000250: 99eb 6642 b529 4f42 5a17 40c2 20c9 15c2
00000260: 6aab bf41 f036 c641 1402 b3bd d642 a13e
00000270: 6aff 0542 f86d bd3e 9868 ad3e e1bd f4c0
00000280: 7747 17c2 9023 483e fb7a 1fc2 e57e 6e42
00000290: db60 08c2 91ce a740 2d2d 35c1 2902 20c2
000002a0: f84d 0842 4927 5742 e4e0 6342 345d 2b3e
000002b0: 54d2 903e 55ce fa41 2d66 1ec2 174f 7341
000002c0: 5eb1 4d42 0f7e 0141 4c09 51c2 da66 c541
000002d0: 18e3 9cc0 267e a1be 3618 893e 46a3 6742
000002e0: de4a 45c2 7006 9e3e ae09 6941 1654 6e42
000002f0: 9ca0 4f42 36cc c8be b52c 2d42 2c1e 2242
00000300: 909b 803c 1153 3e42 4ae3 42c1 0d71 c4c1
00000310: 172a 8342 a6c4 ad3e 378e 8142 80bb af3e
00000320: 0740 01c2 d0a3 f7c1 ac0d 513e 9f84 4ac2
00000330: 22c1 00c2 1a5d 16c2 cad9 1bc2 9067 2bbe
00000340: bce4 9bc1 4b78 cfbe 2881 0ebe c8dd 633d
00000350: eb52 cfc1 1eb8 00c1 6f4d 8042 b27b de41
00000360: 9dab 4742 ef51 5341 508b 8542 8826 793e
00000370: f637 5742 c5d3 2b42 0eda 0641 c044 2c41
00000380: 751d e3c1 a945 7042 8866 5a3e c0c0 39c2
00000390: bd2d d9c1 9094 06c2 38cf 91be bf42 9bc1
000003a0: 8693 02c2 6369 4ac2 9272 943e 4818 473e
000003b0: 8c45 723e 6fca e3c1 354e aa3d 6220 7bc1
000003c0: dc6a 0a42 4ee0 23c2 b0f6 4ec1 b280 5142
000003d0: 0fc4 33c1 7115 463f fcd4 4e42 4ebb 2abe
000003e0: 807a 523c b4bc 4f42 a447 99c1 631d aac1
000003f0: 458a 2c3c c2ce a13e 4899 aabe e40e 953d
