src/Saved_models/agent_checkpoint_baseline.pth (torch, 23264 bytes, 24 tensors)

fc1.weight f4 [24, 6]
00000000: c066 90be a8e2 c7bd 560d c1be 4f0a 29be
00000010: d04c 8abc 70dd 143e bfd9 b53e 51f3 0a41
00000020: 62c1 35c1 7b07 3641 abd1 c740 7c50 8e40
00000030: 9903 013f 036d 0bc0 85f5 2e41 1885 55be
00000040: c780 bd3e ce5b 73c0 3288 ff3e 9f54 b8bf
00000050: ffca 3041 958a b23e e226 723e 9bf6 4ac0
00000060: 9bde c2bc 3fea 8d3f 2f97 8941 3c72 b641
00000070: 8bf3 2d40 858f af41 3bf2 fa3e 4021 c4c0
00000080: 2885 1c41 891d 50c1 638e 2fc0 7dad b2c0
00000090: 1faa babe 8849 813d 8c3b 513e 2005 93bd
000000a0: 10d3 89bd c834 a1be 49f3 b3bc 0c4c a13f
000000b0: 123d 5441 d92e 8041 9697 2440 0ffa ad41
000000c0: 1660 84be fb48 d0be 2ce7 a23e c87b a9bd
000000d0: 00eb 363d e811 153e 0098 743e 5058 9cbf
000000e0: baaf 3241 23ee 963f 1a20 443e c77b 29c0
000000f0: 1d4d 0b3f 07b3 a2bf dffe 1d41 9c6b 97bf
00000100: 609f 493e f088 05c0 6105 65be f4a0 57be
00000110: 1082 bdbc c84d 4f3e efe2 443d d4ab 69be
00000120: a462 f73e 7c88 eac0 768a 1041 d4ca 89c1
00000130: 9b26 41c0 7a2e eac0 0e5d d53b 89cb 09c2
00000140: ea0e 4a40 7ffc 50c2 9ee8 07c2 0167 6240
00000150: 30ed 10bd 4ec6 49be bed9 59be 9055 7d3e
00000160: 447a b2be 7c17 b13d 9ecf 1cbc c428 98be
00000170: 6d1e c7be 4ff8 b93e 6880 e2be f8ba e2be
00000180: 80a2 d43e 9f04 c3c0 657b 1941 e46a 90c1
00000190: 7952 0cc0 1902 c7c0 f3f2 4cbd 65f8 13c2
000001a0: 2feb 9b40 71ac 17c2 c532 19c2 0502 f541
000001b0: ca00 bfbc 7e66 b6c1 82e8 f140 ba52 b4c1
000001c0: d725 b8c1 02d9 9441 4c87 05bd 128d 2040
000001d0: 91ba 0e41 ce4c 2f42 4435 6840 b83d 0542
000001e0: 110f 40be 045f 65be e894 f03d 417f aabe
000001f0: dcd1 f2bd 88d1 4c3e bbcb 593e 7f67 c0c0
00000200: 5426 2b41 6a31 49c1 155b 9abf 204e f9c0
00000210: aea6 8dbe eb36 3dbe 8697 20be 703e f2bc
00000220: 7658 8ebe 19fe babe beba 6abc fda8 73bf
00000230: 8943 9a41 5c3a 1e41 ba98 2a3f f27a 03c2
-0.28203392 -0.09760028 -0.37705487 -0.16507839 -0.01688233 0.14537597 0.3551769 8.684403
-11.359713 11.376826 6.244344 4.4473248 0.50396115 -2.1785285 10.934941 -0.20851552
0.37012312 -3.8024783 0.49908596 -1.4400824 11.04956 0.34871355 0.23647645 -3.1713016
-0.023787787 1.1087111 17.19882 22.805779 2.7179897 21.945078 0.49012932 -6.129059
9.782509 -13.007211 -2.7430656 -5.583678 -0.36457917 0.06312853 0.20432872 -0.07178712
-0.0672971 -0.3148558 -0.021966593 1.2601333 13.26491 16.022875 2.571752 21.747099
-0.25854558 -0.4068068 0.31816995 -0.082755625 0.044657707 0.14557612 0.23886108 -1.2214451
11.167902 1.1791424 0.19152871 -2.6481798 0.5441454 -1.2710885 9.874724 -1.1829715
0.19689703 -2.086483 -0.22365333 -0.21057492 -0.023133308 0.20244515 0.048067983 -0.22819453
0.48317444 -7.3291607 9.033804 -17.224037 -3.0179813 -7.3181734 0.006511337 -34.448765
3.1571603 -52.24658 -33.977165 3.5375369 -0.03538245 -0.19704553 -0.21274468 0.24739671
-0.34858906 0.086470574 -0.009570984 -0.29718602 -0.388904 0.36322257 -0.4423859 -0.4428327
0.41530228 -6.094314 9.592626 -18.052193 -2.1925337 -6.219006 -0.050036382 -36.992573
4.872459 -37.9184 -38.29958 30.625986 -0.023315806 -22.800045 7.5596323 -22.540394
-23.018476 18.60596 -0.032599732 2.5086102 8.920548 43.825005 3.628251 33.310272
-0.18755747 -0.22399527 0.117471516 -0.33300212 -0.11856434 0.20001805 0.21269123 -6.012634
10.696857 -12.574564 -1.2059046 -7.7907867 -0.2766623 -0.18477981 -0.15682802 -0.029570788
-0.27801865 -0.36521986 -0.014326749 -0.9517973 19.282976 9.889248 0.6663929 -32.870064

fc1.bias f4 [24]
00000000: f879 143e fbcd b8c2 a67f be42 f49d be42
00000010: 8a94 9e42 0288 b242 603a 83be ba9e 9b42
00000020: a0eb fdbc b012 bd42 8387 bb42 9113 00be
00000030: 2c71 af42 ec18 8f42 a0d8 c5be c5ef 5f3e
00000040: 22c4 ad42 7c60 f041 f656 af41 116f a142
00000050: 702a ee3c 7690 af42 eee1 893e 32d4 24c2
0.14499652 -92.402306 95.24931 95.3085 79.290115 89.26564 -0.25630474 77.81001
-0.030996144 94.5365 93.76467 -0.12507464 87.72104 71.548676 -0.38641834 0.21868809
86.88307 30.047112 21.917461 80.71693 0.02907297 87.78215 0.26930183 -41.207222

fc2.weight f4 [24, 24]
00000000: 9819 dd3d efc9 56c0 d52d fc3d 8db1 e33d
00000010: 400d 1c40 dd92 053f 2ece dabd d579 7940
00000020: e88c e53c c430 9abd df58 a03e 5d49 c6bc
00000030: 848b 4a3f 630b 28c0 2482 203e cad5 e3bd
00000040: d7cf 653f c87b f340 7743 a440 6bda 8d40
00000050: 0d19 d8bd 4057 363e 36e3 193e e690 afc1
00000060: 2a61 93bd b9e6 c73c 8a8d b03d 7a42 34bd
00000070: f134 1dbe 6821 a1bd 1f73 18be 6841 a13d
00000080: 8343 e0bd c2ce 57bd ded8 5dbe 3af3 573d
00000090: abfc f83c 7f30 d2bd 20ab 05be f91d 45be
000000a0: b12e ffbc a760 2ebe 2153 573d 370a 70be
000000b0: 1c60 1d3d 1904 993d e816 173d a5c0 4fbd
000000c0: 8033 59bc b5bc 47c0 ddde a23e 93cb ac3e
000000d0: 99a0 5740 9609 ce3e 44dc bb3d 048d 3c40
000000e0: c8a7 483d 3550 953e c62a 9d3e 1a3a c1bd
000000f0: 4942 173f c163 ae40 40b2 ad3b e9e3 ec3d
00000100: dc4d b73e 6047 f340 e2f6 a040 4535 6440
00000110: f0b1 b5bd 49be 193f cd61 0bbe 36ab 1ac1
00000120: 3cb7 ebbd 382f 7fc0 67c6 9cbd 5286 43bc
00000130: 35f8 72be ac19 f13e b0c8 62bc bd42 2540
00000140: 20bb ccbc 2837 403e 9e92 d73d 498c 91bd
00000150: 27a4 643f 7fc4 2540 888d 853c 685b 9d3d
00000160: 4105 683f 09e2 fc40 2494 a940 8d0c d940
00000170: 045f 25be fd18 793e 501e d23d 2744 17c1
00000180: 90a2 15be cccf 5cc0 3955 533e 418d 493e
00000190: e14f 9e3f 83f3 f53d 9a17 27be 3700 e63f
000001a0: d861 d03d 574f 0e3d bc83 613e 9a5d 1bbe
000001b0: 6d07 f13e 7dca 6e3f da81 0d3e 47b3 ac3c
000001c0: 2ea5 f73e 2a3f 0041 2a8c ac40 9c71 9a40
000001d0: 51fd 30be bdfd 7c3e 2607 c3bd a418 04c1
000001e0: 8caa 253e cc1c a13d 3409 f5bd c348 49be
000001f0: 4cb8 41bd 4c50 d03d 8eb1 b4bd f817 0ebe
00000200: 0036 f7bb 10ca e63c 1c4f 9fbd d88e 7abd
00000210: 0840 f43c b0cb 913d a46a 21bd 3fda adbd
00000220: c8f2 e63d 83a5 12be 00bd 04bd 67f8 0abe
00000230: 2c3a 67bd fc08 863d 445f 2c3e 7af4 92bd
00000240: ae80 043e 4726 40c0 3ad1 d63e d6f7 c33e
00000250: b797 4840 e4f9 613e 242f 463e 99e3 4840
00000260: b0f4 3d3e c284 033e 71b3 863e 460b 8dbd
00000270: baff 053f fecf be40 300c 0ebd 1326 50bd
00000280: 457e 013f d98f f840 b391 9f40 b003 6a40
00000290: e414 023e e833 453e a833 bdbc 46b9 31c1
000002a0: b4d0 25be 2ea0 dd3f 716f 4dc0 71c0 58c0
000002b0: 374d 0240 414f 04c1 d04b 713d 2b9b 0440
000002c0: 5af4 96bd ce6a 68c0 9518 6cc0 fc10 023d
000002d0: e9ed b1be 4389 7fbf 0008 153c 2b62 933c
000002e0: dc40 06bf 1363 663d 55a9 9d3c 291d e63f
000002f0: 9834 de3c aade 21c0 a8af 21bd ba22 13bf
00000300: c40a 213e 2b62 28c0 b913 053f b722 c33e
00000310: a41e 3f40 8c71 da3e 08ca 793d c368 4d40
00000320: 2ce7 07bd c343 1a3f 8ae1 ea3e 52c5 e5bd
00000330: b580 fe3e 2d7e d040 837f c9bd 70c0 8fbc
00000340: a7ce 383f eb66 fd40 f93d 9f40 5680 5440
00000350: d844 a03c 6fc7 233f f98f fbbd ab09 1fc1
00000360: 6e9f 94bd 72ee 47bd fe5b 6ebe 16f2 12be
00000370: 07e9 c93d 3e4b 43be 94c2 28be 944b 16be
00000380: 20bf 55bd 1171 6fbe 28fe 39bd 7c7b 443e
00000390: 9dd7 c6bd 9fc9 c93d c9bd 34be ec14 923d
000003a0: 3825 f4bc c5d6 2bbe 1e7e 2f3e 62c3 913d
000003b0: 62f8 34be be7f dbbd 3ca6 ab3d 5b37 28be
000003c0: 90c8 4c3d ec89 b7bd eb8f 37be 1e84 f6bd
000003d0: 6bed 213c 0886 18be 6068 45be 8611 bcbd
000003e0: b81f 1abe 5723 0e3e 76ee 3a3e 0cb6 3abd
000003f0: b0d8 013e 5cd5 95bc 4afd 423e 8c98 2f3d
0.10795897 -3.356075 0.12313429 0.111178495 2.4383087 0.5217722 -0.10683857 3.898061
0.02802129 -0.075288326 0.31317803 -0.024204904 0.79119134 -2.625695 0.15674645 -0.111247614
0.89770263 7.60886 5.1332355 4.4329123 -0.10551653 0.1780672 0.1502808 -21.945751
-0.07196267 0.02440201 0.086207464 -0.04400871 -0.15352227 -0.078677 -0.14887665 0.078738034
-0.10950377 -0.052687414 -0.2166476 0.052722193 0.030393919 -0.10263156 -0.1305356 -0.19249715
-0.031150194 -0.17029057 0.052569512 -0.23441397 0.038421735 0.07471485 0.03688708 -0.05072083
-0.013256907 -3.1208928 0.31810656 0.33749065 3.369177 0.40241688 0.09172872 2.946107
0.048988134 0.29162756 0.30696696 -0.0943491 0.5908552 5.449677 0.00530079 0.11566908
0.3580159 7.602463 5.030137 3.5657513 -0.088718295 0.6005598 -0.13611527 -9.6668
-0.115095586 -3.987257 -0.0765503 -0.01193388 -0.23727496 0.470899 -0.013841793 2.5821984
-0.024991572 0.1877104 0.10526012 -0.071068354 0.89312977 2.5901182 0.016302839 0.0768345
0.90633017 7.902592 5.2993336 6.782782 -0.16149527 0.24325939 0.10259688 -9.454139
-0.14612794 -3.450183 0.20637979 0.1968279 1.2368127 0.12009337 -0.16317597 1.7968816
0.10174912 0.034743633 0.22022909 -0.15172425 0.47075978 0.9327772 0.13819066 0.02108158
0.4836821 8.015421 5.39211 4.8263683 -0.17284133 0.24706168 -0.09522848 -8.256016
0.1617834 0.07866821 -0.11964646 -0.19656663 -0.0472949 0.101715654 -0.08822928 -0.13876331
-0.007544279 0.028172523 -0.07778761 -0.061171383 0.029815689 0.071189284 -0.03940834 -0.08488893
0.112767756 -0.1432095 -0.032406807 -0.1357132 -0.05645196 0.065446824 0.16833216 -0.071755365
0.12939712 -3.0023363 0.41956502 0.3827502 3.13426 0.22067982 0.1935392 3.1388915
0.18550372 0.12843612 0.26308778 -0.06886916 0.5234333 5.9628897 -0.03467959 -0.05081756
0.50583297 7.7675595 4.9865355 3.656475 0.12703282 0.19258082 -0.02309592 -11.107733
-0.16192895 1.7314508 -3.2099268 -3.3867457 2.0359628 -8.269349 0.05891019 2.0719707
-0.07370825 -3.6315188 -3.6890004 0.03175448 -0.34751824 -0.9981882 0.009096146 0.017991146
-0.5244272 0.05624683 0.019245783 1.7977649 0.027124688 -2.5292153 -0.03947416 -0.57474864
0.15726763 -2.6309917 0.5198322 0.38112423 2.9862452 0.42664754 0.060983688 3.2095191
-0.033179447 0.60259646 0.45875198 -0.112192765 0.4970757 6.5154023 -0.09838774 -0.017547816
0.72190326 7.918813 4.976315 3.320333 0.019564077 0.63976187 -0.1228332 -9.93986
-0.07256971 -0.048811384 -0.2327728 -0.14350161 0.098588996 -0.19071671 -0.16480476 -0.14677268
-0.052184224 -0.23382975 -0.045408398 0.1918773 -0.09709094 0.09852909 -0.17650522 0.07132897
-0.029802904 -0.16781147 0.17137954 0.071173444 -0.17672876 -0.10717724 0.08381316 -0.16427366
0.04999596 -0.089618534 -0.17925994 -0.12036918 0.009883265 -0.14894879 -0.19278097 -0.0918303
-0.15051162 0.13880669 0.18255028 -0.04558377 0.12680316 -0.018290214 0.19041935 0.04287009

fc2.bias f4 [24]
00000000: 7117 8a42 27bd c2bd 2452 b742 5ac3 5a42
00000010: 6f5b 3742 3579 b3bd 8dc6 bf42 5fb4 31c2
00000020: a0eb ac42 47cd 5fbe 8290 9c3c f322 46be
00000030: 38c9 e53d ba68 af42 c881 4ebe 8148 23c2
00000040: 9f0f ad42 0e01 26be 4063 153e 9434 a13d
00000050: ed0e c342 8bdd 513d d895 1d42 b1b6 0abe
69.045784 -0.09508734 91.66043 54.690773 45.83929 -0.08763353 95.887794 -44.426144
86.460205 -0.21855651 0.019111875 -0.1934927 0.1122002 87.704544 -0.20166695 -40.820805
86.53051 -0.1621134 0.14588642 0.078713566 97.52915 0.05123667 39.39633 -0.13546254

fc3.weight f4 [4, 24]
00000000: b65f 6640 ca4d ec3d 3b61 2140 9d0c cf40
00000010: 0e03 b440 2062 243c 6ca5 1740 3551 debe
00000020: d191 1240 7f0b ecbd 9e41 18be 8d98 7abd
00000030: 000e 953a 2bfc 2840 6ee9 a8bd 6430 a9bf
00000040: bea0 1f40 5871 4b3d 4682 403e b456 983d
00000050: ad37 8240 d226 043d 9e89 9940 a778 1cbe
00000060: 23a3 9e40 dde8 80bd 3bf0 d040 6ca8 1341
00000070: 4fde ec40 9937 a4bd c8f3 a440 68f8 ccbf
00000080: 9d9b 0c40 3069 12be dcfd 2c3e f7d0 b7bd
00000090: 34f2 323d c990 c040 40a2 88bb 1d0f dabf
000000a0: 43d4 3b40 d0ea c93c 25b7 d4bd e04d 863b
000000b0: 23bf cf40 709a bc3d 6013 c940 20d4 733e
000000c0: 8b14 bd40 462a 9abd 801a 9440 530e 1241
000000d0: fb1b e140 fc58 49be a6ad 7a40 aff0 a5bf
000000e0: 509f 5940 20a4 c63d a0f0 553d f852 263e
000000f0: 7722 bebd 6e60 ad40 103d 02be 855b b6bf
00000100: 349c 6a40 130a 26be e61e 273e b813 c43d
00000110: f3d3 4a40 968a 8fbd cb47 8240 bc5e 773e
00000120: 1492 db41 103b 95bc 8fd0 4741 af90 9241
00000130: 5d61 3f41 8003 363d 235c 8741 c28c 68c0
00000140: 3c31 7940 8f9f 1f3e 49b3 36be 68c0 93bd
00000150: 0884 ec3d cf42 f240 2701 a03d c244 6fc0
00000160: b133 5f40 e053 c53c 2d02 06be 40f9 50bc
00000170: 6b5f 9641 a42a 063e a2d4 3941 27a8 18be
3.5995917 0.115382746 2.5215595 6.4702897 5.625373 0.01003316 2.3694715 -0.4342133
2.29015 -0.1152563 -0.14868781 -0.06118064 0.001137197 2.640391 -0.08247648 -1.3217893
2.494186 0.04966864 0.18799695 0.07438412 4.0692964 0.032263584 4.798049 -0.152804
4.957414 -0.06294415 6.529325 9.228619 7.4021373 -0.08018417 5.1547585 -1.6013308
2.196998 -0.14297938 0.16893715 -0.08975404 0.043688014 6.017674 -0.0041697323 -1.7035862
2.9348304 0.0246481 -0.103864945 0.004098639 6.492082 0.09209144 6.283615 0.23811388
5.9087577 -0.07527594 4.628235 9.128497 7.0346656 -0.19662851 3.9168487 -1.2964076
3.4003487 0.09699273 0.05223143 0.16242588 -0.092839174 5.418021 -0.12718606 -1.424668
3.665784 -0.1621478 0.1632038 0.095740736 3.1691864 -0.07008855 4.071264 0.24157232
27.446327 -0.01821664 12.488418 18.320646 11.96127 0.04443693 16.919989 -3.6335912
3.89363 0.1558821 -0.1784183 -0.07214433 0.115486205 7.5706553 0.0781272 -3.7385716
3.48753 0.024087846 -0.13086767 -0.012754738 18.79659 0.13102204 11.614412 -0.14907895

fc3.bias f4 [4]
00000000: 73e0 4a41 0d9e 3641 b798 cc41 65e9 a642
12.679797 11.413587 25.574568 83.45585

fc1.weight f4 [24, 6]
00000000: c066 90be a8e2 c7bd 560d c1be 4f0a 29be
00000010: d04c 8abc 70dd 143e 65f2 b53e 1df3 0a41
00000020: b1bb 35c1 b402 3641 66d1 c740 c66a 8e40
00000030: 71eb 003f 5c79 0bc0 b8ef 2e41 df4f 55be
00000040: dd1e bd3e 898e 73c0 315c ff3e eb64 b8bf
00000050: 44c5 3041 cb9b b23e 4a9f 713e 1c2a 4bc0
00000060: 1a65 b7bc cff1 8d3f 2396 8941 1a78 b641
00000070: 27f7 2d40 bd82 af41 20e9 fa3e a6f9 c3c0
00000080: 457f 1c41 7015 50c1 a82f 2fc0 c2c5 b2c0
00000090: 1faa babe 8849 813d 8c3b 513e 2005 93bd
000000a0: 10d3 89bd c834 a1be 3ffd a4bc da52 a13f
000000b0: d13b 5441 2636 8041 229b 2440 33ec ad41
000000c0: 1660 84be fb48 d0be 2ce7 a23e c87b a9bd
000000d0: 00eb 363d e811 153e 1d1a 743e 3975 9cbf
000000e0: 7fa9 3241 f3dc 963f 4b38 433e daaa 29c0
000000f0: 1d39 0b3f b2ca a2bf 14f9 1d41 555f 97bf
00000100: 1fe0 483e 64c2 05c0 6105 65be f4a0 57be
00000110: 1082 bdbc c84d 4f3e efe2 443d d4ab 69be
00000120: ab58 f73e 8660 eac0 d384 1041 9cc6 89c1
00000130: 01c7 40c0 8047 eac0 2a65 c83b f4c4 09c2
00000140: 4a1d 4a40 89f5 50c2 dde1 07c2 6e0e 6240
00000150: 30ed 10bd 4ec6 49be bed9 59be 9055 7d3e
00000160: 447a b2be 7c17 b13d 9ecf 1cbc c428 98be
00000170: 6d1e c7be 4ff8 b93e 6880 e2be f8ba e2be
00000180: 7394 d43e cfe1 c2c0 e875 1941 7666 90c1
00000190: 8efa 0bc0 4e1c c7c0 f3f2 4cbd 65f8 13c2
000001a0: 2feb 9b40 71ac 17c2 c532 19c2 0502 f541
000001b0: ca00 bfbc 7e66 b6c1 82e8 f140 ba52 b4c1
000001c0: d725 b8c1 02d9 9441 d8aa fabc 188c 2040
000001d0: c3ba 0e41 b04d 2f42 0935 6840 8035 0542
000001e0: 110f 40be 045f 65be e894 f03d 417f aabe
000001f0: dcd1 f2bd 88d1 4c3e 5fa2 593e 873d c0c0
00000200: 3c20 2b41 572b 49c1 c398 99bf 9263 f9c0
00000210: aea6 8dbe eb36 3dbe 8697 20be 703e f2bc
00000220: 7658 8ebe 19fe babe 9b33 6abc 2b7c 73bf
00000230: 0445 9a41 8d36 1e41 a5c1 2a3f c776 03c2
-0.28203392 -0.09760028 -0.37705487 -0.16507839 -0.01688233 0.14537597 0.35536495 8.684354
-11.358323 11.37566 6.2443113 4.450534 0.50359255 -2.1792822 10.933525 -0.2083125
0.3693761 -3.8055747 0.49875024 -1.4405798 11.048161 0.34884486 0.2359592 -3.1744452
-0.022387076 1.1089419 17.198309 22.808643 2.71821 21.938837 0.49005985 -6.1242247
9.781072 -13.005234 -2.7372837 -5.5866404 -0.36457917 0.06312853 0.20432872 -0.07178712
-0.0672971 -0.3148558 -0.020140288 1.2603409 13.264604 16.02644 2.5719686 21.740332
-0.25854558 -0.4068068 0.31816995 -0.082755625 0.044657707 0.14557612 0.23838086 -1.2223274
11.166381 1.1786178 0.19064443 -2.651053 0.5438402 -1.2718108 9.87331 -1.1825968
0.19616745 -2.0899897 -0.22365333 -0.21057492 -0.023133308 0.20244515 0.048067983 -0.22819453
0.48309836 -7.3242826 9.032428 -17.221977 -3.0121462 -7.321228 0.0061155753 -34.442337
3.1580377 -52.23978 -33.97057 3.5321307 -0.03538245 -0.19704553 -0.21274468 0.24739671
-0.34858906 0.086470574 -0.009570984 -0.29718602 -0.388904 0.36322257 -0.4423859 -0.4428327
0.41519508 -6.0900645 9.591286 -18.05003 -2.1871676 -6.222205 -0.050036382 -36.992573
4.872459 -37.9184 -38.29958 30.625986 -0.023315806 -22.800045 7.5596323 -22.540394
-23.018476 18.60596 -0.030599043 2.5085506 8.920596 43.825867 3.628237 33.302246
-0.18755747 -0.22399527 0.117471516 -0.33300212 -0.11856434 0.20001805 0.21253346 -6.0075107
10.69537 -12.573081 -1.1999744 -7.7934046 -0.2766623 -0.18477981 -0.15682802 -0.029570788
-0.27801865 -0.36521986 -0.01429453 -0.9511134 19.283699 9.888318 0.6670173 -32.865993

fc1.bias f4 [24]
00000000: f879 143e e3c9 b8c2 8d7b be42 da99 be42
00000010: 6f91 9e42 2584 b242 603a 83be 669b 9b42
00000020: a0eb fdbc b30e bd42 5883 bb42 9113 00be
00000030: 3d6d af42 b716 8f42 a0d8 c5be c5ef 5f3e
00000040: 2fc0 ad42 7c60 f041 f656 af41 7e6b a142
00000050: 702a ee3c ba8c af42 eee1 893e 1ecf 24c2
0.14499652 -92.39431 95.24131 95.30049 79.28405 89.258095 -0.25630474 77.80351
-0.030996144 94.52871 93.75653 -0.12507464 87.713356 71.544365 -0.38641834 0.21868809
86.87536 30.047112 21.917461 80.709946 0.02907297 87.77486 0.26930183 -41.202263

fc2.weight f4 [24, 24]
00000000: 9819 dd3d 1bc0 56c0 3688 fd3d 030b e53d
00000010: 0307 1c40 52bd 053f 2ece dabd 4072 7940
00000020: e88c e53c 2cd6 98bd 2faf a03e 5d49 c6bc
00000030: ffb5 4a3f 0712 28c0 2482 203e cad5 e3bd
00000040: 7dfa 653f c87b f340 7743 a440 84d5 8d40
00000050: 0d19 d8bd aa03 373e 36e3 193e 9590 afc1
00000060: 2a61 93bd b9e6 c73c 8a8d b03d 7a42 34bd
00000070: f134 1dbe 6821 a1bd 1f73 18be 6841 a13d
00000080: 8343 e0bd c2ce 57bd ded8 5dbe 3af3 573d
00000090: abfc f83c 7f30 d2bd 20ab 05be f91d 45be
000000a0: b12e ffbc a760 2ebe 2153 573d 370a 70be
000000b0: 1c60 1d3d 1904 993d e816 173d a5c0 4fbd
000000c0: 8033 59bc c1b3 47c0 47e5 a23e 4dd2 ac3e
000000d0: 2ba5 5740 72e0 cd3e 44dc bb3d d292 3c40
000000e0: c8a7 483d d250 953e 8732 9d3e 1a3a c1bd
000000f0: 5329 173f e156 ae40 40b2 ad3b e9e3 ec3d
00000100: 7222 b73e 6047 f340 e2f6 a040 883a 6440
00000110: f0b1 b5bd 499a 193f cd61 0bbe beb0 1ac1
00000120: 3cb7 ebbd 382f 7fc0 67c6 9cbd 5286 43bc
00000130: 35f8 72be ac19 f13e b0c8 62bc bd42 2540
00000140: 20bb ccbc 2837 403e 9e92 d73d 498c 91bd
00000150: 27a4 643f 7fc4 2540 888d 853c 685b 9d3d
00000160: 4105 683f 09e2 fc40 2494 a940 8d0c d940
00000170: 045f 25be fd18 793e 501e d23d 2744 17c1
00000180: 90a2 15be cccf 5cc0 3955 533e 418d 493e
00000190: e14f 9e3f 83f3 f53d 9a17 27be 3700 e63f
000001a0: d861 d03d 574f 0e3d bc83 613e 9a5d 1bbe
000001b0: 6d07 f13e 7dca 6e3f da81 0d3e 47b3 ac3c
000001c0: 2ea5 f73e 2a3f 0041 2a8c ac40 9c71 9a40
000001d0: 51fd 30be bdfd 7c3e 2607 c3bd a418 04c1
000001e0: 8caa 253e cc1c a13d 3409 f5bd c348 49be
000001f0: 4cb8 41bd 4c50 d03d 8eb1 b4bd f817 0ebe
00000200: 0036 f7bb 10ca e63c 1c4f 9fbd d88e 7abd
00000210: 0840 f43c b0cb 913d a46a 21bd 3fda adbd
00000220: c8f2 e63d 83a5 12be 00bd 04bd 67f8 0abe
00000230: 2c3a 67bd fc08 863d 445f 2c3e 7af4 92bd
00000240: ae80 043e a02d 40c0 4d81 d63e bea7 c33e
00000250: 1d93 4840 b626 613e 242f 463e 19df 4840
00000260: b0f4 3d3e 87e2 023e 6563 863e 460b 8dbd
00000270: 6dc8 053f 09c3 be40 300c 0ebd 1326 50bd
00000280: 2b49 013f d98f f840 b391 9f40 94fc 6940
00000290: e414 023e 6d4a 443e a833 bdbc 8dbb 31c1
000002a0: b4d0 25be 15b2 dd3f 426f 4dc0 23c0 58c0
000002b0: b856 0240 414f 04c1 d04b 713d a9a4 0440
000002c0: 5af4 96bd d26a 68c0 4b18 6cc0 fc10 023d
000002d0: e9ed b1be 4389 7fbf 0008 153c 2b62 933c
000002e0: dc40 06bf 1363 663d 55a9 9d3c 4030 e63f
000002f0: 9834 de3c aade 21c0 a8af 21bd a6fb 12bf
00000300: c40a 213e 8b71 28c0 66da 043f 1ab0 c23e
00000310: bb0e 3f40 b3e8 d93e 08ca 793d 7659 4d40
00000320: 2ce7 07bd 9909 1a3f 406f ea3e 52c5 e5bd
00000330: 32f4 fd3e 5d71 d040 837f c9bd 70c0 8fbc
00000340: 9189 383f eb66 fd40 f93d 9f40 1970 5440
00000350: d844 a03c 4d7d 233f f98f fbbd f410 1fc1
00000360: 6e9f 94bd 72ee 47bd fe5b 6ebe 16f2 12be
00000370: 07e9 c93d 3e4b 43be 94c2 28be 944b 16be
00000380: 20bf 55bd 1171 6fbe 28fe 39bd 7c7b 443e
00000390: 9dd7 c6bd 9fc9 c93d c9bd 34be ec14 923d
000003a0: 3825 f4bc c5d6 2bbe 1e7e 2f3e 62c3 913d
000003b0: 62f8 34be be7f dbbd 3ca6 ab3d 5b37 28be
000003c0: 90c8 4c3d ec89 b7bd eb8f 37be 1e84 f6bd
000003d0: 6bed 213c 0886 18be 6068 45be 8611 bcbd
000003e0: b81f 1abe 5723 0e3e 76ee 3a3e 0cb6 3abd
000003f0: b0d8 013e 5cd5 95bc 4afd 423e 8c98 2f3d
0.10795897 -3.3554752 0.12379496 0.11183741 2.437928 0.52242005 -0.10683857 3.8975983
0.02802129 -0.07462725 0.31383654 -0.024204904 0.79183954 -2.6261003 0.15674645 -0.111247614
0.8983534 7.60886 5.1332355 4.432314 -0.10551653 0.17872491 0.1502808 -21.945597
-0.07196267 0.02440201 0.086207464 -0.04400871 -0.15352227 -0.078677 -0.14887665 0.078738034
-0.10950377 -0.052687414 -0.2166476 0.052722193 0.030393919 -0.10263156 -0.1305356 -0.19249715
-0.031150194 -0.17029057 0.052569512 -0.23441397 0.038421735 0.07471485 0.03688708 -0.05072083
-0.013256907 -3.1203463 0.3181555 0.33754197 3.369456 0.402103 0.09172872 2.9464612
0.048988134 0.29163224 0.30702612 -0.0943491 0.5904743 5.4481053 0.00530079 0.11566908
0.35768467 7.602463 5.030137 3.5660725 -0.088718295 0.60001045 -0.13611527 -9.66815
-0.115095586 -3.987257 -0.0765503 -0.01193388 -0.23727496 0.470899 -0.013841793 2.5821984
-0.024991572 0.1877104 0.10526012 -0.071068354 0.89312977 2.5901182 0.016302839 0.0768345
0.90633017 7.902592 5.2993336 6.782782 -0.16149527 0.24325939 0.10259688 -9.454139
-0.14612794 -3.450183 0.20637979 0.1968279 1.2368127 0.12009337 -0.16317597 1.7968816
0.10174912 0.034743633 0.22022909 -0.15172425 0.47075978 0.9327772 0.13819066 0.02108158
0.4836821 8.015421 5.39211 4.8263683 -0.17284133 0.24706168 -0.09522848 -8.256016
0.1617834 0.07866821 -0.11964646 -0.19656663 -0.0472949 0.101715654 -0.08822928 -0.13876331
-0.007544279 0.028172523 -0.07778761 -0.061171383 0.029815689 0.071189284 -0.03940834 -0.08488893
0.112767756 -0.1432095 -0.032406807 -0.1357132 -0.05645196 0.065446824 0.16833216 -0.071755365
0.12939712 -3.0027847 0.41895524 0.38213915 3.133979 0.21987423 0.1935392 3.1386168
0.18550372 0.12781726 0.26247707 -0.06886916 0.5225895 5.961308 -0.03467959 -0.05081756
0.5050227 7.7675595 4.9865355 3.6560411 0.12703282 0.19169016 -0.02309592 -11.108289
-0.16192895 1.7319971 -3.2099156 -3.386727 2.036543 -8.269349 0.05891019 2.07255
-0.07370825 -3.6315198 -3.6889827 0.03175448 -0.34751824 -0.9981882 0.009096146 0.017991146
-0.5244272 0.05624683 0.019245783 1.7983475 0.027124688 -2.5292153 -0.03947416 -0.57415235
0.15726763 -2.63193 0.5189575 0.3802498 2.985274 0.42560348 0.060983688 3.2085853
-0.033179447 0.60170895 0.45788002 -0.112192765 0.4960037 6.5138383 -0.09838774 -0.017547816
0.7208491 7.918813 4.976315 3.319342 0.019564077 0.6386307 -0.1228332 -9.941639
-0.07256971 -0.048811384 -0.2327728 -0.14350161 0.098588996 -0.19071671 -0.16480476 -0.14677268
-0.052184224 -0.23382975 -0.045408398 0.1918773 -0.09709094 0.09852909 -0.17650522 0.07132897
-0.029802904 -0.16781147 0.17137954 0.071173444 -0.17672876 -0.10717724 0.08381316 -0.16427366
0.04999596 -0.089618534 -0.17925994 -0.12036918 0.009883265 -0.14894879 -0.19278097 -0.0918303
-0.15051162 0.13880669 0.18255028 -0.04558377 0.12680316 -0.018290214 0.19041935 0.04287009

fc2.bias f4 [24]
00000000: 0c14 8a42 27bd c2bd 7c4e b742 5ac3 5a42
00000010: 6f5b 3742 3579 b3bd 46c2 bf42 69b2 31c2
00000020: 06e8 ac42 47cd 5fbe 8290 9c3c f322 46be
00000030: 38c9 e53d 2165 af42 c881 4ebe 0d43 23c2
00000040: 030c ad42 0e01 26be 4063 153e 9434 a13d
00000050: d60a c342 8bdd 513d d895 1d42 b1b6 0abe
69.039154 -0.09508734 91.65329 54.690773 45.83929 -0.08763353 95.87944 -44.42423
86.45317 -0.21855651 0.019111875 -0.1934927 0.1122002 87.69752 -0.20166695 -40.81548
86.52346 -0.1621134 0.14588642 0.078713566 97.521164 0.05123667 39.39633 -0.13546254

fc3.weight f4 [4, 24]
00000000: bea6 6640 ca4d ec3d 7f3c 2140 9d0c cf40
00000010: 0e03 b440 2062 243c fa78 1740 b4aa dfbe
00000020: 9779 1240 7f0b ecbd 9e41 18be 8d98 7abd
00000030: 000e 953a 1fda 2840 6ee9 a8bd cc8b a9bf
00000040: 678e 1f40 5871 4b3d 4682 403e b456 983d
00000050: dc21 8240 d226 043d 9e89 9940 a778 1cbe
00000060: 23a3 9e40 dde8 80bd c8e9 d040 6ca8 1341
00000070: 4fde ec40 9937 a4bd b0f3 a440 68f8 ccbf
00000080: 8d75 0c40 3069 12be dcfd 2c3e f7d0 b7bd
00000090: 34f2 323d 1d8a c040 40a2 88bb 1d0f dabf
000000a0: 58ae 3b40 d0ea c93c 25b7 d4bd e04d 863b
000000b0: 10bf cf40 709a bc3d 6013 c940 20d4 733e
000000c0: 330c bd40 462a 9abd 101a 9440 530e 1241
000000d0: fb1b e140 fc58 49be 8ead 7a40 e4ed a5bf
000000e0: cc9d 5940 20a4 c63d a0f0 553d f852 263e
000000f0: 7722 bebd 2a5f ad40 103d 02be 0959 b6bf
00000100: a099 6a40 130a 26be e61e 273e b813 c43d
00000110: b9d3 4a40 968a 8fbd cb47 8240 bc5e 773e
00000120: e47f db41 103b 95bc d5c3 4741 af90 9241
00000130: 5d61 3f41 8003 363d e554 8741 2594 68c0
00000140: b11e 7940 8f9f 1f3e 49b3 36be 68c0 93bd
00000150: 0884 ec3d 2a2b f240 2701 a03d c54c 6fc0
00000160: 6f21 5f40 e053 c53c 2d02 06be 40f9 50bc
00000170: a758 9641 a42a 063e a2d4 3941 27a8 18be
3.6039271 0.115382746 2.5193174 6.4702897 5.625373 0.01003316 2.3667588 -0.43684924
2.2886713 -0.1152563 -0.14868781 -0.06118064 0.001137197 2.638313 -0.08247648 -1.3245788
2.4930665 0.04966864 0.18799695 0.07438412 4.066633 0.032263584 4.798049 -0.152804
4.957414 -0.06294415 6.5285378 9.228619 7.4021373 -0.08018417 5.154747 -1.6013308
2.1946747 -0.14297938 0.16893715 -0.08975404 0.043688014 6.0168595 -0.0041697323 -1.7035862
2.932516 0.0246481 -0.103864945 0.004098639 6.492073 0.09209144 6.283615 0.23811388
5.907739 -0.07527594 4.6281815 9.128497 7.0346656 -0.19662851 3.916843 -1.2963223
3.4002562 0.09699273 0.05223143 0.16242588 -0.092839174 5.4178667 -0.12718606 -1.4245921
3.6656265 -0.1621478 0.1632038 0.095740736 3.1691725 -0.07008855 4.071264 0.24157232
27.437447 -0.01821664 12.485311 18.320646 11.96127 0.04443693 16.916452 -3.634042
3.8924983 0.1558821 -0.1784183 -0.07214433 0.115486205 7.567769 0.0781272 -3.7390606
3.4864156 0.024087846 -0.13086767 -0.012754738 18.793287 0.13102204 11.614412 -0.14907895

fc3.bias f4 [4]
00000000: 8cdd 4a41 4296 3641 7297 cc41 e1e5 a642
12.679089 11.411684 25.573948 83.44898

exp_avg f4 [24, 6]
00000000: 0000 0000 0000 0000 0000 0000 0000 0000
00000010: 0000 0000 0000 0000 82d6 0255 194b 394f
00000020: 6f9d f44f db6e e24d 88fb fb4f 8dcb b24e
00000030: e851 8ed3 e7f3 95ce 6aac 84ce a4ad 85cc
00000040: b951 97cf e581 31cd d0d0 5cd3 43b5 35ce
00000050: bdeb 4cce 489e 4fcc 147d 35cf 91e6 0dcd
00000060: 730c 48d4 dce7 3c4e d192 b1cf 6173 0dcd
00000070: ce27 f94f a09a 84ce 58ea 8ed3 b85b f6cc
00000080: 1912 80ce d220 6acc 53ca 1d4e 7fef 41cd
00000090: 0000 0000 0000 0000 0000 0000 0000 0000
000000a0: 0000 0000 0000 0000 3eeb 1ad4 25c3 9a4d
000000b0: d256 8ecf 54a5 dfcc 4d7f c54f e487 84ce
000000c0: 0000 0000 0000 0000 0000 0000 0000 0000
000000d0: 0000 0000 0000 0000 9ffe 4cd3 f7b1 a1ce
000000e0: a7c9 36ce fc5f 4ecc 3104 a9cf 7e49 eecc
000000f0: 170c 4dd3 309d 85ce 758e 28ce ddd5 3dcc
00000100: f3ad 89cf 3541 09cd 0400 0000 0400 0000
00000110: 0400 0000 0400 0000 0400 0000 0400 0000
00000120: 79ea c4d3 1a0e a74b 7187 b2ce 950e 9dcc
00000130: 970e cf4e 09f7 87cd 1bdb 73d3 65fb 9c4c
00000140: cb00 5c4e b58d 904c f95b 074e 4c9c 51cd
00000150: 0000 0000 0000 0000 0000 0000 0000 0000
00000160: 0000 0000 0000 0000 0400 0000 0400 0000
00000170: 0400 0000 0400 0000 0400 0000 0400 0000
00000180: ad8c b8d3 be3e f4cd f4a0 9bce 0b79 91cc
00000190: 4aef e9cd 2381 7ccd 0400 0000 0400 0000
000001a0: 0400 0000 0400 0000 0400 0000 0400 0000
000001b0: 0400 0000 0400 0000 0400 0000 0400 0000
000001c0: 0400 0000 0400 0000 bf05 18d3 135b 714d
000001d0: 6fe5 82ce ad7a 1dcb 12e1 ed4f 5dfc 83ce
000001e0: 0000 0000 0000 0000 0000 0000 0000 0000
000001f0: 0000 0000 0000 0000 3582 94d3 b60a 8ccc
00000200: 3663 84ce 6cda 7fcc 876a 5a4e 789a 3bcd
00000210: 0000 0000 0000 0000 0000 0000 0000 0000
00000220: 0000 0000 0000 0000 e42e 1055 c2fe 4c50
00000230: c11d 8150 2b82 164e f919 7d51 aa37 624e
0.0 0.0 0.0 0.0 0.0 0.0 8.991113e+12 3.1087066e+09
8.2079165e+09 4.7486448e+08 8.455131e+09 1.4998422e+09 -1.222519e+12 -1.2578948e+09 -1.1129459e+09 -7.008592e+07
-5.077431e+09 -1.8613e+08 -9.483961e+11 -7.621388e+08 -8.5950035e+08 -5.442589e+07 -3.0448732e+09 -1.4879362e+08
-3.4368093e+12 7.9232794e+08 -5.958378e+09 -1.4832181e+08 8.360271e+09 -1.112363e+09 -1.227634e+12 -1.2916269e+08
-1.0743348e+09 -6.1375304e+07 6.618206e+08 -2.0335614e+08 0.0 0.0 0.0 0.0
0.0 0.0 -2.6614867e+12 3.2456003e+08 -4.776109e+09 -1.1725482e+08 6.6269087e+09 -1.1117491e+09
0.0 0.0 0.0 0.0 0.0 0.0 -8.8044516e+11 -1.3563974e+09
-7.666672e+08 -5.409995e+07 -5.6712484e+09 -1.2493106e+08 -8.806711e+11 -1.1208356e+09 -7.069771e+08 -4.9764212e+07
-4.619757e+09 -1.43922e+08 6e-45 6e-45 6e-45 6e-45 6e-45 6e-45
-1.6914948e+12 2.1896244e+07 -1.4976104e+09 -8.234308e+07 1.7369199e+09 -2.8513923e+08 -1.047353e+12 8.2303784e+07
9.227599e+08 7.578769e+07 5.677379e+08 -2.1979258e+08 0.0 0.0 0.0 0.0
0.0 0.0 6e-45 6e-45 6e-45 6e-45 6e-45 6e-45
-1.5852683e+12 -5.1221907e+08 -1.3055084e+09 -7.6269656e+07 -4.9059667e+08 -2.647701e+08 6e-45 6e-45
6e-45 6e-45 6e-45 6e-45 6e-45 6e-45 6e-45 6e-45
6e-45 6e-45 -6.529314e+11 2.5307986e+08 -1.0980371e+09 -1.0320557e+07 7.981901e+09 -1.1071771e+09
0.0 0.0 0.0 0.0 0.0 0.0 -1.2756793e+12 -7.342226e+07
-1.1105472e+09 -6.7070384e+07 9.161036e+08 -1.9671642e+08 0.0 0.0 0.0 0.0
0.0 0.0 9.908192e+12 1.3756991e+10 1.7329687e+10 6.312783e+08 6.7941405e+10 9.488247e+08

exp_avg_sq f4 [24, 6]
00000000: 0000 0000 0000 0000 0000 0000 0000 0000
00000010: 0000 0000 0000 0000 6c34 626b 25ed 0364
00000020: dff6 c861 a504 7b5d 2308 5066 ce78 7a5e
00000030: d8fe 7e68 6142 7761 517d 005f 29a6 8b5a
00000040: 91d0 c863 d849 755b 280e 1e68 ea93 9e61
00000050: 0ed5 9a5e cec0 335a aa6a fe63 d523 1f5b
00000060: 82eb 196b d97d d963 d3d0 d661 fdfc 2a5d
00000070: e862 2b66 a05b 1c5e fe3b 7a68 3268 045f
00000080: cc3b ca5e 8dc3 875a bf03 1161 7134 8b5b
00000090: 0000 0000 0000 0000 0000 0000 0000 0000
000000a0: 0000 0000 0000 0000 6fb1 056b 375f d363
000000b0: db4d c461 c54d 1e5d 8d6d 2666 bc78 0e5e
000000c0: 0000 0000 0000 0000 0000 0000 0000 0000
000000d0: 0000 0000 0000 0000 3043 eb67 79e2 3661
000000e0: 6ee7 6e5e 61e4 015a c139 9563 af55 cc5a
000000f0: 26b0 ea67 5387 7a61 6301 385e 03f5 0d5a
00000100: 32bd c963 9f5f 055b f401 0000 f401 0000
00000110: f401 0000 f401 0000 f401 0000 f401 0000
00000120: cb6e fa68 4017 6c5f cc04 4d5f 6dff 075b
00000130: 7375 8261 7559 0d5c 616f 006b 8b0f 0d5b
00000140: 7989 6762 1423 c65a ee74 c15d c1fc 0c5c
00000150: 0000 0000 0000 0000 0000 0000 0000 0000
00000160: 0000 0000 0000 0000 f401 0000 f401 0000
00000170: f401 0000 f401 0000 f401 0000 f401 0000
00000180: ecc5 c968 5563 445f f0a0 165f ffee e25a
00000190: d7af 5861 030e f15b 096f 9f10 c3a6 0500
000001a0: ef49 c507 45d2 0100 5816 cb00 0dd2 1405
000001b0: f401 0000 f401 0000 f401 0000 f401 0000
000001c0: f401 0000 f401 0000 799e 746a a92f 1364
000001d0: 0acb c55f 53ba 145d e12c 6866 135f 1b5e
000001e0: 0000 0000 0000 0000 0000 0000 0000 0000
000001f0: 0000 0000 0000 0000 30a1 8268 e4c0 235f
00000200: 2cb6 e85e f2ae 825a 1ecb 2d61 3e22 775b
00000210: 0000 0000 0000 0000 0000 0000 0000 0000
00000220: 0000 0000 0000 0000 1a85 466c a864 ab65
00000230: a0af 8163 48c4 395e d015 0968 06ac 275e
0.0 0.0 0.0 0.0 0.0 0.0 2.7346479e+26 9.734446e+21
4.6339222e+20 1.1304852e+18 2.4560058e+23 4.5121005e+18 4.8167285e+24 2.8507056e+20 9.258645e+18 1.9653858e+16
7.408755e+21 6.904256e+16 2.9855802e+24 3.656555e+20 5.5784195e+18 1.2649003e+16 9.386318e+21 4.479392e+16
1.860778e+26 8.0240235e+21 4.9533133e+20 7.7006255e+17 2.023373e+23 2.8166937e+18 4.726793e+24 9.540931e+18
7.2862327e+18 1.9107066e+16 1.6719049e+20 7.836536e+16 0.0 0.0 0.0 0.0
0.0 0.0 1.6162504e+26 7.798248e+21 4.526465e+20 7.129369e+17 1.9648342e+23 2.5665405e+18
0.0 0.0 0.0 0.0 0.0 0.0 2.221991e+24 2.1085166e+20
4.3037123e+18 9.140344e+15 5.505453e+21 2.8757553e+16 2.2165662e+24 2.8883982e+20 3.314747e+18 9.989341e+15
7.442857e+21 3.754131e+16 7e-43 7e-43 7e-43 7e-43 7e-43 7e-43
9.461083e+24 1.7012136e+19 1.4773157e+19 3.8279965e+16 3.0081748e+20 1.5914532e+17 1.5526848e+26 3.970506e+16
1.06777596e+21 2.7885307e+16 1.7425036e+18 1.5873761e+17 0.0 0.0 0.0 0.0
0.0 0.0 7e-43 7e-43 7e-43 7e-43 7e-43 7e-43
7.6227734e+24 1.4151248e+19 1.0853939e+19 3.1938062e+16 2.4982296e+20 1.3570175e+17 6.288552e-29 5.19e-40
2.968472e-34 1.67266e-40 1.8650621e-38 6.997507e-36 7e-43 7e-43 7e-43 7e-43
7e-43 7e-43 7.3931566e+25 1.0860423e+22 2.8504993e+19 6.698106e+17 2.7410422e+23 2.798922e+18
0.0 0.0 0.0 0.0 0.0 0.0 4.935048e+24 1.1799682e+19
8.3843193e+18 1.839205e+16 2.0037018e+20 6.956197e+16 0.0 0.0 0.0 0.0
0.0 0.0 9.599835e+26 1.0117268e+23 4.78457e+21 3.3464758e+18 2.5894663e+24 3.0205096e+18

exp_avg f4 [24]
00000000: 0000 0000 a23e e64b 43bb 73ca be28 3fca
00000010: a248 8ecb 5314 6dca 0000 0000 d0ec 84cb
00000020: 0000 0000 9ba5 23ca c9de 2bca 0400 0000
00000030: ccda a7ca 3214 16cb 0000 0000 0400 0000
00000040: 3b99 9aca 0400 0000 0400 0000 76f8 22cb
00000050: 0000 0000 b84a 68ca 0000 0000 0649 0d4c
0.0 3.0178628e+07 -3.9932968e+06 -3.1319515e+06 -1.8649412e+07 -3.8843088e+06 0.0 -1.7422752e+07
0.0 -2.6811908e+06 -2.8159222e+06 6e-45 -5.500262e+06 -9.83557e+06 0.0 6e-45
-5.0658855e+06 6e-45 6e-45 -1.0680438e+07 0.0 -3.80587e+06 0.0 3.703708e+07

exp_avg_sq f4 [24]
00000000: 0000 0000 2ef5 8258 e2ac 9655 13b8 3d55
00000010: 5124 4058 6eb1 8655 0000 0000 e096 2358
00000020: 0000 0000 f886 0855 312e 0c55 f401 0000
00000030: f980 0756 9604 0858 0000 0000 f401 0000
00000040: 7253 de55 b35b 0f00 f401 0000 3a8c b457
00000050: 0000 0000 7ddc 8355 0000 0000 d50c 6359
0.0 1.1519164e+15 2.0708659e+13 1.3037393e+13 8.4504884e+14 1.8512077e+13 0.0 7.194736e+14
0.0 9.382079e+12 9.633126e+12 7e-43 3.7247e+13 5.982131e+14 0.0 7e-43
3.0556247e+13 1.410428e-39 7e-43 3.9702872e+14 0.0 1.8122877e+13 0.0 3.994308e+15

exp_avg f4 [24, 24]
00000000: 0000 0000 d6ea dfd1 1a9a 1bd2 e439 1ad2
00000010: 5446 a2ce 5aa2 14d2 0000 0000 c96f a2ce
00000020: 0000 0000 df43 95d1 5bd5 27d2 0400 0080
00000030: 4ddf 11d2 0d37 efcb 0000 0000 0400 0080
00000040: 31b7 fbd1 0400 0000 0400 0000 0349 eace
00000050: 0000 0000 4009 81d1 0000 0000 4d10 cf4b
00000060: 0000 0000 0400 0000 0400 0000 0400 0000
00000070: 0400 0000 0400 0000 0000 0000 0400 0000
00000080: 0000 0000 0400 0000 0400 0000 0400 0080
00000090: 0400 0000 0400 0000 0000 0000 0400 0000
000000a0: 0400 0000 0400 0000 0400 0000 0400 0000
000000b0: 0000 0000 0400 0000 0000 0000 0400 0000
000000c0: 0000 0000 cf80 22d2 0711 80d2 0ec6 7dd2
000000d0: 3c1f 664f 42be 7fd2 0000 0000 bf55 934f
000000e0: 0000 0000 6804 f8d1 1eda 89d2 0400 0080
000000f0: c2e9 7cd2 e7e2 55ce 0000 0000 0400 0080
00000100: 5517 59d2 0400 0000 0400 0000 06d9 fd4f
00000110: 0000 0000 4e90 e5d1 0000 0000 96dd 83cf
00000120: 0000 0000 0400 0000 0400 0000 0400 0000
00000130: 0400 0000 0400 0000 0000 0000 0400 0000
00000140: 0000 0000 0400 0000 0400 0000 0400 0000
00000150: 0400 0000 0400 0000 0000 0000 0400 0080
00000160: 0400 0000 0400 0000 0400 0000 0400 0000
00000170: 0000 0000 0400 0000 0000 0000 0400 0000
00000180: 0000 0000 0400 0000 0400 0000 0400 0000
00000190: 0400 0000 0400 0000 0000 0000 0400 0000
000001a0: 0000 0000 0400 0000 0400 0000 0400 0080
000001b0: 0400 0000 0400 0000 0000 0000 0400 0080
000001c0: 0400 0000 0400 0000 0400 0000 0400 0000
000001d0: 0000 0000 0400 0000 0000 0000 0400 0000
000001e0: 0000 0000 0000 0000 0000 0000 0000 0000
000001f0: 0000 0000 0000 0000 0000 0000 0000 0000
00000200: 0000 0000 0000 0000 0000 0000 0000 0000
00000210: 0000 0000 0000 0000 0000 0000 0000 0000
00000220: 0000 0000 0000 0000 0000 0000 0000 0000
00000230: 0000 0000 0000 0000 0000 0000 0000 0000
00000240: 0000 0000 4415 08d2 a0d7 55d2 23f3 53d2
00000250: 2e67 ef4e f6f1 55d2 0000 0000 6c80 2a4f
00000260: 0000 0000 2794 cfd1 1b36 66d2 0400 0080
00000270: d4b0 53d2 7ee0 90ce 0000 0000 0400 0000
00000280: fba3 35d2 0400 0000 0400 0000 d2cd 664f
00000290: 0000 0000 34b6 c0d1 0000 0000 5e84 3dcf
000002a0: 0000 0000 1e97 854e 1b5f 5a4b 139a 6c4b
000002b0: 5949 c54d 0400 0080 0000 0000 310f bd4d
000002c0: 0000 0000 e6a0 8e4a 9c36 794b 0400 0000
000002d0: 0400 0000 0400 0000 0000 0000 0400 0000
000002e0: 0400 0000 0400 0000 0400 0000 7cc1 0a4e
000002f0: 0000 0000 0400 0000 0000 0000 a779 754c
00000300: 0000 0000 c10f 09d2 8009 20d2 a6bb 1ed2
00000310: f3e9 bfcf 1dff 0fd2 0000 0000 f6d5 b0cf
00000320: 0000 0000 d310 99d1 05ca 2cd2 0400 0080
00000330: 1901 0cd2 4e60 85cd 0000 0000 0400 0080
00000340: 5866 f3d1 0400 0000 0400 0000 83bf fccf
00000350: 0000 0000 e67d 73d1 0000 0000 52e4 c8ce
00000360: 0000 0000 0400 0000 0400 0000 0400 0000
00000370: 0400 0000 0000 0000 0000 0000 0400 0000
00000380: 0000 0000 0400 0080 0400 0000 0000 0000
00000390: 0000 0000 0400 0000 0000 0000 0000 0000
000003a0: 0000 0000 0000 0000 0000 0000 0400 0000
000003b0: 0000 0000 0400 0000 0000 0000 0400 0000
000003c0: 0000 0000 0400 0000 0400 0000 0400 0000
000003d0: 0400 0000 0000 0000 0000 0000 0400 0000
000003e0: 0000 0000 0400 0000 0000 0000 0000 0000
000003f0: 0000 0000 0400 0000 0000 0000 0000 0000
0.0 -1.202147e+11 -1.6707633e+11 -1.6559905e+11 -1.361259e+09 -1.5959474e+11 0.0 -1.3626175e+09
0.0 -8.01361e+10 -1.8020976e+11 -6e-45 -1.5662916e+11 -3.1354394e+07 0.0 -6e-45
-1.3513878e+11 6e-45 6e-45 -1.9653267e+09 0.0 -6.927575e+10 0.0 2.714025e+07
0.0 6e-45 6e-45 6e-45 6e-45 6e-45 0.0 6e-45
0.0 6e-45 6e-45 -6e-45 6e-45 6e-45 0.0 6e-45
6e-45 6e-45 6e-45 6e-45 0.0 6e-45 0.0 6e-45
0.0 -1.7448644e+11 -2.7502074e+11 -2.7248738e+11 3.8608067e+09 -2.7460216e+11 0.0 4.9437404e+09
0.0 -1.3315323e+11 -2.9603496e+11 -6e-45 -2.7156339e+11 -8.971043e+08 0.0 -6e-45
-2.3309984e+11 6e-45 6e-45 8.517717e+09 0.0 -1.2324607e+11 0.0 -4.4246743e+09
0.0 6e-45 6e-45 6e-45 6e-45 6e-45 0.0 6e-45
0.0 6e-45 6e-45 6e-45 6e-45 6e-45 0.0 -6e-45
6e-45 6e-45 6e-45 6e-45 0.0 6e-45 0.0 6e-45
0.0 6e-45 6e-45 6e-45 6e-45 6e-45 0.0 6e-45
0.0 6e-45 6e-45 -6e-45 6e-45 6e-45 0.0 -6e-45
6e-45 6e-45 6e-45 6e-45 0.0 6e-45 0.0 6e-45
0.0 0.0 0.0 0.0 0.0 0.0 0.0 0.0
0.0 0.0 0.0 0.0 0.0 0.0 0.0 0.0
0.0 0.0 0.0 0.0 0.0 0.0 0.0 0.0
0.0 -1.4611808e+11 -2.296114e+11 -2.2757931e+11 2.0082583e+09 -2.2972187e+11 0.0 2.860543e+09
0.0 -1.1144298e+11 -2.4718755e+11 -6e-45 -2.273012e+11 -1.2153157e+09 0.0 6e-45
-1.9503505e+11 6e-45 6e-45 3.8722483e+09 0.0 -1.0346132e+11 0.0 -3.1795686e+09
0.0 1.1206367e+09 1.4311195e+07 1.5505939e+07 4.137398e+08 -6e-45 0.0 3.9648618e+08
0.0 4.673651e+06 1.6332444e+07 6e-45 6e-45 6e-45 0.0 6e-45
6e-45 6e-45 6e-45 5.81984e+08 0.0 6e-45 0.0 6.4349852e+07
0.0 -1.471687e+11 -1.7183854e+11 -1.7043826e+11 -6.4395607e+09 -1.546151e+11 0.0 -5.9336243e+09
0.0 -8.217653e+10 -1.8553093e+11 -6e-45 -1.5032846e+11 -2.7971014e+08 0.0 -6e-45
-1.3067426e+11 6e-45 6e-45 -8.4808187e+09 0.0 -6.536183e+10 0.0 -1.6852032e+09
0.0 6e-45 6e-45 6e-45 6e-45 0.0 0.0 6e-45
0.0 -6e-45 6e-45 0.0 0.0 6e-45 0.0 0.0
0.0 0.0 0.0 6e-45 0.0 6e-45 0.0 6e-45
0.0 6e-45 6e-45 6e-45 6e-45 0.0 0.0 6e-45
0.0 6e-45 0.0 0.0 0.0 6e-45 0.0 0.0

exp_avg_sq f4 [24, 24]
00000000: 0000 0000 27ed c765 b1ee 0b66 f0a5 0966
00000010: f0db 2e63 50e4 fa65 0000 0000 144e 2163
00000020: 0000 0000 5ebf ff64 ca25 2366 f401 0000
00000030: cb0a f165 031b b35c 0000 0000 f401 0000
00000040: f7e3 b265 c857 c300 f401 0000 51c2 ac63
00000050: 0000 0000 2dc5 bc64 0000 0000 7f74 8160
00000060: 0000 0000 590f 0000 6617 0000 c718 0000
00000070: f401 0000 8c20 0000 0000 0000 f401 0000
00000080: 0000 0000 0e06 0000 111c 0000 f401 0000
00000090: 8d15 0000 f401 0000 0000 0000 f401 0000
000000a0: d10d 0000 f401 0000 f401 0000 f401 0000
000000b0: 0000 0000 af07 0000 0000 0000 f401 0000
000000c0: 0000 0000 488d 4166 ec2f 7866 d88b 7466
000000d0: b65d b263 8f2f 5566 0000 0000 e06d a063
000000e0: 0000 0000 ea5b 6965 751c 9066 f401 0000
000000f0: 9f7f 4b66 9f24 fc5f 0000 0000 f401 0000
00000100: 3d45 1866 5a39 1500 f401 0000 5348 2864
00000110: 0000 0000 27cc 2465 0000 0000 8ead c761
00000120: 0000 0000 8b15 c337 f0f9 3838 95ab 3c38
00000130: b30d a233 fdb4 7038 0000 0000 9b91 7e33
00000140: 0000 0000 c90f 2e37 ee9e 5538 f401 0000
00000150: 68c7 4f38 2a5b 8834 0000 0000 f401 0000
00000160: 747f 1138 f852 dc00 f401 0000 7d67 b033
00000170: 0000 0000 bb95 6637 0000 0000 c55f 9333
00000180: 0000 0000 2e88 1722 d7c7 a622 1702 ae22
00000190: ae35 0b1e 8ef2 d422 0000 0000 d79a c41d
000001a0: 0000 0000 e784 b021 5fad c422 f401 0000
000001b0: f7ed b322 2e9e 2a1f 0000 0000 f401 0000
000001c0: 7ea0 7722 4e6b 9100 f401 0000 9653 701d
000001d0: 0000 0000 634c d121 0000 0000 f0ac 451c
000001e0: 0000 0000 0000 0000 0000 0000 0000 0000
000001f0: 0000 0000 0000 0000 0000 0000 0000 0000
00000200: 0000 0000 0000 0000 0000 0000 0000 0000
00000210: 0000 0000 0000 0000 0000 0000 0000 0000
00000220: 0000 0000 0000 0000 0000 0000 0000 0000
00000230: 0000 0000 0000 0000 0000 0000 0000 0000
00000240: 0000 0000 fc19 5766 2143 7c66 c271 7866
00000250: 80a0 1d64 8a72 6066 0000 0000 3eb9 0e64
00000260: 0000 0000 af78 7165 da00 9266 f401 0000
00000270: 9588 5766 0d8b 6460 0000 0000 f401 0000
00000280: 4efd 2066 f303 2e00 f401 0000 c5b2 9664
00000290: 0000 0000 40c6 3465 0000 0000 6560 2962
000002a0: 0000 0000 19b8 6a63 bd5a 2e60 4c7f 3160
000002b0: d2dd e261 dcd3 0a38 0000 0000 8ae9 d061
000002c0: 0000 0000 16a2 125f 910a 4e60 f401 0000
000002d0: f401 0000 f401 0000 0000 0000 f401 0000
000002e0: f401 0000 f401 0000 f401 0000 1c2f 5f62
000002f0: 0000 0000 5428 0000 0000 0000 8e6b 255f
00000300: 0000 0000 eb30 0265 8cf1 1665 99d7 1465
00000310: 133e 4d62 a5a9 f664 0000 0000 ed94 3862
00000320: 0000 0000 3f1e 0c64 eeb9 2f65 f401 0000
00000330: 09a0 e964 5c50 465e 0000 0000 f401 0000
00000340: 867c af64 9740 0c00 f401 0000 83a5 c162
00000350: 0000 0000 5d70 b763 0000 0000 ed06 3160
00000360: 0000 0000 f401 0000 f401 0000 f401 0000
00000370: f401 0000 0000 0000 0000 0000 f401 0000
00000380: 0000 0000 f401 0000 f401 0000 0000 0000
00000390: 0000 0000 f401 0000 0000 0000 0000 0000
000003a0: 0000 0000 0000 0000 0000 0000 f401 0000
000003b0: 0000 0000 f401 0000 0000 0000 f401 0000
000003c0: 0000 0000 f401 0000 f401 0000 f401 0000
000003d0: f401 0000 0000 0000 0000 0000 f401 0000
000003e0: 0000 0000 f401 0000 0000 0000 0000 0000
000003f0: 0000 0000 f401 0000 0000 0000 0000 0000
0.0 1.180157e+23 1.65203e+23 1.625063e+23 3.2255816e+21 1.48100405e+23 0.0 2.975552e+21
0.0 3.7741674e+22 1.926107e+23 7e-43 1.4228618e+23 4.0330976e+17 0.0 7e-43
1.05598305e+23 1.7939412e-38 7e-43 6.373684e+21 0.0 2.7857567e+22 0.0 7.462576e+19
0.0 5.506e-42 8.394e-42 8.888e-42 7e-43 1.1676e-41 0.0 7e-43
0.0 2.172e-42 1.0068e-41 7e-43 7.731e-42 7e-43 0.0 7e-43
4.956e-42 7e-43 7e-43 7e-43 0.0 2.756e-42 0.0 7e-43
0.0 2.2850573e+23 2.9300772e+23 2.8870927e+23 6.580546e+21 2.5168534e+23 0.0 5.918793e+21
0.0 6.887543e+22 3.4027286e+23 7e-43 2.4024865e+23 3.6337643e+19 0.0 7e-43
1.7976923e+23 1.949119e-39 7e-43 1.2417058e+22 0.0 4.863963e+22 0.0 4.60426e+20
0.0 2.3255843e-05 4.410179e-05 4.498249e-05 7.546205e-08 5.7389017e-05 0.0 5.927141e-08
0.0 1.03748835e-05 5.0931172e-05 7e-43 4.9538357e-05 2.5398305e-07 0.0 7e-43
3.4689394e-05 2.0233573e-38 7e-43 8.214463e-08 0.0 1.374393e-05 0.0 6.862641e-08
0.0 2.0536409e-18 4.520598e-18 4.7165007e-18 7.3696994e-21 5.771953e-18 0.0 5.204087e-21
0.0 1.1961403e-18 5.330947e-18 7e-43 4.8770002e-18 3.6129743e-20 0.0 7e-43
3.3559706e-18 1.335464e-38 7e-43 3.1806948e-21 0.0 1.418261e-18 0.0 6.540535e-22
0.0 0.0 0.0 0.0 0.0 0.0 0.0 0.0
0.0 0.0 0.0 0.0 0.0 0.0 0.0 0.0
0.0 0.0 0.0 0.0 0.0 0.0 0.0 0.0
0.0 2.5394703e+23 2.9781867e+23 2.9331134e+23 1.1630816e+22 2.6498074e+23 0.0 1.0531143e+22
0.0 7.1269784e+22 3.447406e+23 7e-43 2.5445707e+23 6.5873083e+19 0.0 7e-43
1.9006282e+23 4.22585e-39 7e-43 2.2239147e+22 0.0 5.335519e+22 0.0 7.811114e+20
0.0 4.3298037e+21 5.0254248e+19 5.11601e+19 5.231185e+20 3.3099073e-05 0.0 4.8171888e+20
0.0 1.0566032e+19 5.9387354e+19 7e-43 7e-43 7e-43 0.0 7e-43
7e-43 7e-43 7e-43 1.0292546e+21 0.0 1.4467e-41 0.0 1.1919777e+19
0.0 3.8425626e+22 4.455067e+22 4.3930457e+22 9.4651386e+20 3.6400986e+22 0.0 8.5123304e+20
0.0 1.0338895e+22 5.1865246e+22 7e-43 3.4476985e+22 3.5725057e+18 0.0 7e-43
2.5897225e+22 1.125196e-39 7e-43 1.786074e+21 0.0 6.7677016e+21 0.0 5.1024574e+19
0.0 7e-43 7e-43 7e-43 7e-43 0.0 0.0 7e-43
0.0 7e-43 7e-43 0.0 0.0 7e-43 0.0 0.0
0.0 0.0 0.0 7e-43 0.0 7e-43 0.0 7e-43
0.0 7e-43 7e-43 7e-43 7e-43 0.0 0.0 7e-43
0.0 7e-43 0.0 0.0 0.0 7e-43 0.0 0.0

exp_avg f4 [24]
00000000: 16fa 9ec9 0400 0000 9b90 cec9 0400 0000
00000010: 0400 0000 0000 0000 1158 e3c9 4cb0 6845
00000020: 0e0f 3ac9 0400 0000 0400 0000 0400 0000
00000030: 0000 0000 aeba 7ec9 0400 0000 d54e 8d46
00000040: 1d61 27c9 0000 0000 0000 0000 0000 0000
00000050: e565 08ca 0400 0000 0400 0000 0400 0000
-1.3023388e+06 6e-45 -1.6921794e+06 6e-45 6e-45 0.0 -1.8624021e+06 3723.0186
-762096.9 6e-45 6e-45 6e-45 0.0 -1.0433709e+06 6e-45 18087.416
-685585.8 0.0 0.0 0.0 -2.2347452e+06 6e-45 6e-45 6e-45

exp_avg_sq f4 [24]
00000000: a52b 2554 f401 0000 754f 6d54 1985 4926
00000010: acbb 2f12 0000 0000 6804 9f54 5498 4d4f
00000020: ef00 f752 f401 0000 f401 0000 f401 0000
00000030: 0000 0000 3c98 b953 f401 0000 9cf5 904f
00000040: 7f4c c852 0000 0000 0000 0000 0000 0000
00000050: 9447 d554 f401 0000 d74e 2604 f401 0000
2.8376074e+12 7e-43 4.0769613e+12 6.9916265e-16 5.5451587e-28 0.0 5.46379e+12 3.4493123e+09
5.304363e+11 7e-43 7e-43 7e-43 0.0 1.594246e+12 7e-43 4.8640307e+09
4.3013843e+11 0.0 0.0 0.0 7.3282313e+12 7e-43 1.9549408e-36 7e-43

exp_avg f4 [4, 24]
00000000: 4f0e a44a 0400 0000 6e5f a0cd 0400 0080
00000010: 0400 0080 0000 0000 4992 e1cd e466 5ccf
00000020: 5e75 03ce 0400 0000 0400 0080 0400 0080
00000030: 0000 0000 6176 96cd 0000 0000 ca45 8bcf
00000040: e650 edcd 0000 0000 0000 0000 0000 0000
00000050: f26e 09ce 0400 0000 0400 0080 0400 0080
00000060: 9e4f 7640 0400 0000 e612 8ccc 0400 0080
00000070: 0400 0080 0000 0000 6079 ccc8 f3b3 89c1
00000080: 8e38 20ce 0000 0000 0000 0000 0400 0080
00000090: 0000 0000 25d1 b5cc 0000 0000 4b2d a0c1
000000a0: 8d9d 49ce 0000 0000 0000 0000 0000 0000
000000b0: 22da c7c8 0000 0000 0400 0080 0400 0080
000000c0: 1f94 b5ca 0400 0080 e4fd ac4a 0400 0080
000000d0: 0400 0000 0000 0000 0fee d6c8 1e7d 554c
000000e0: 0051 21ce 0000 0000 0000 0000 0400 0080
000000f0: 0000 0000 7e8a 9dca 0000 0000 a663 614c
00000100: 8d45 51ce 0000 0000 0000 0000 0000 0000
00000110: a9de aac9 0000 0000 0400 0080 0400 0080
00000120: f540 b9ce 0400 0080 8308 ddcf 0400 0000
00000130: 0400 0000 0000 0000 df68 38cf 80e4 3cce
00000140: 5a93 55d1 0400 0000 0000 0000 0400 0080
00000150: 0000 0000 3037 0cd0 0400 0000 095a 8cce
00000160: c9b8 85d1 0000 0000 0000 0000 0000 0000
00000170: 0d1f 83cf 0000 0000 0400 0000 0400 0080
5.3757835e+06 6e-45 -3.3632608e+08 -6e-45 -6e-45 0.0 -4.7305757e+08 -3.6977306e+09
-5.513768e+08 6e-45 -6e-45 -6e-45 0.0 -3.1554256e+08 0.0 -4.6732134e+09
-4.9768774e+08 0.0 0.0 0.0 -5.764374e+08 6e-45 -6e-45 -6e-45
3.8486094 6e-45 -7.343902e+07 -6e-45 -6e-45 0.0 -418763.0 -17.212866
-6.720152e+08 0.0 0.0 -6e-45 0.0 -9.5324456e+07 0.0 -20.022116
-8.456364e+08 0.0 0.0 0.0 -409297.06 0.0 -6e-45 -6e-45
-5.9499675e+06 -6e-45 5.668594e+06 -6e-45 6e-45 0.0 -440176.47 5.596479e+07
-6.7661005e+08 0.0 0.0 -6e-45 0.0 -5.162303e+06 0.0 5.908444e+07
-8.7774906e+08 0.0 0.0 0.0 -1.3997651e+06 0.0 -6e-45 -6e-45
-1.554021e+09 -6e-45 -7.416645e+09 6e-45 6e-45 0.0 -3.0938806e+09 -7.922729e+08
-5.733126e+10 6e-45 0.0 -6e-45 0.0 -9.409708e+09 6e-45 -1.1773554e+09
-7.179135e+10 0.0 0.0 0.0 -4.3997005e+09 0.0 6e-45 -6e-45

exp_avg_sq f4 [4, 24]
00000000: 44e4 2e59 f401 0000 28eb ab5f 3602 f62c
00000010: 69fc c514 0000 0000 a28e ee5f 24d0 f762
00000020: 54ce b260 f401 0000 f401 0000 f401 0000
00000030: 0000 0000 4fdd ae5f 0000 0000 f3ed 2b63
00000040: 07ab d760 0000 0000 0000 0000 0000 0000
00000050: c694 3560 f401 0000 e52b 8f09 f401 0000
00000060: e60a f257 f401 0000 ebd5 7f5e 4b4f 702d
00000070: 733d 4416 0000 0000 d1c9 1f5e 6682 0b61
00000080: d211 3360 0000 0000 0000 0000 f401 0000
00000090: 0000 0000 12a2 c75e 0000 0000 8863 3d61
000000a0: 129a 8e60 0000 0000 0000 0000 0000 0000
000000b0: d04d 725e 0000 0000 d212 0a09 f401 0000
000000c0: f6b2 725b f401 0000 bb1b 015f 3647 662f
000000d0: e906 b816 0000 0000 9174 365f 9c47 3b62
000000e0: 5d77 7860 0000 0000 0000 0000 f401 0000
000000f0: 0000 0000 69a5 055f 0000 0000 f639 8462
00000100: 6684 a760 0000 0000 0000 0000 0000 0000
00000110: 68be 8a5f 0000 0000 c3ca c609 f401 0000
00000120: 0019 045e f401 0000 9fd5 1361 0356 7331
00000130: f607 a01a 0000 0000 70d6 7a60 b97a 3363
00000140: aebe 8f63 f401 0000 0000 0000 f401 0000
00000150: 0000 0000 9b7f 7861 f401 0000 d7c2 8063
00000160: 6d4b e663 0000 0000 0000 0000 0000 0000
00000170: 575e c960 0000 0000 5cfb ca0c f401 0000
3.0767267e+15 7e-43 2.4776078e+19 6.991986e-12 1.9991475e-26 0.0 3.437971e+19 2.285672e+21
1.0307462e+20 7e-43 7e-43 7e-43 0.0 2.5200628e+19 0.0 3.1715393e+21
1.2432418e+20 0.0 0.0 0.0 5.23372e+19 7e-43 3.4467276e-33 7e-43
5.3225724e+14 7e-43 4.6087248e+18 1.3660027e-11 1.5852144e-25 0.0 2.878491e+18 1.6084335e+20
5.16133e+19 0.0 0.0 7e-43 0.0 7.19254e+18 0.0 2.1835041e+20
8.220436e+19 0.0 0.0 0.0 4.36496e+18 0.0 1.6619995e-33 7e-43
6.8313714e+16 7e-43 9.303235e+18 2.0943677e-10 2.9731164e-25 0.0 1.3147293e+19 8.636753e+20
7.1615524e+19 0.0 0.0 7e-43 0.0 9.630219e+18 0.0 1.2195734e+21
9.656708e+19 0.0 0.0 0.0 1.9995085e+19 0.0 4.7857442e-33 7e-43
2.3796598e+18 7e-43 1.7044153e+20 3.5410046e-09 6.618731e-23 0.0 7.229903e+19 3.3108103e+21
5.3032486e+21 7e-43 0.0 7e-43 0.0 2.8649922e+20 7e-43 4.750446e+21
8.496372e+21 0.0 0.0 0.0 1.1608105e+20 0.0 3.127431e-31 7e-43

exp_avg f4 [4]
00000000: 7ee8 16c4 4e93 a2c4 ca90 14c5 221e 3cc8
-603.6327 -1300.6033 -2377.0493 -192632.53

exp_avg_sq f4 [4]
00000000: 2c99 364d 3c5d 8c4d bd28 7a4d c84f 0151
1.9146822e+08 2.9436506e+08 2.6231086e+08 3.471183e+10
