src/Saved_models/agent_checkpoint_dueling2.pth (torch, 596194 bytes, 44 tensors)

fc1.weight f4 [256, 6]
000000 e2 6b a1 be cc 81 5b be ed a7 04 bf d4 52 b5 3d
       -0.3152762 -0.21436232 -0.51818734 0.08853689
000010 f5 10 69 be 2f 3f aa 3d 95 51 cb 3d 5f 1d 34 bc
       -0.22760375 0.083128326 0.0992767 -0.010993331
000020 e4 4b 0a 3f e2 ff 02 bf 13 b0 f4 3c cd 3b 25 be
       0.5402205 -0.51171696 0.029869115 -0.16136093
000030 da 17 af be fb 34 b1 be 43 59 8d bf 60 4e d0 3e
       -0.34197885 -0.34610733 -1.1042866 0.40684795
000040 45 39 c1 be c4 2b 97 3e d3 23 a2 3d 21 ee 8a be
       -0.37739006 0.29525578 0.07916989 -0.27134803
000050 98 8c 22 bf 67 5d 74 3e 16 6b bc 3d bb 9f 2d 3f
       -0.6349578 0.23863755 0.092001125 0.67821854
000060 08 81 4e 3e c8 69 9e 3d 8c 78 d2 3d 65 42 08 bd
       0.20166409 0.0773502 0.10276899 -0.033266444
000070 4d 46 85 be 86 b1 64 3e cc 4a 82 be 8d b4 9e bd
       -0.26030198 0.22333345 -0.2544769 -0.07749281
000080 84 0b 4c bf 07 89 49 bd 63 b0 14 3e 5e 66 ed bd
       -0.7970507 -0.049202945 0.14520411 -0.115917906
000090 ac 03 b6 3d 76 7d ba 3e 68 d9 06 bf 3e 53 b9 3e
       0.08887419 0.36423844 -0.52675486 0.3619632
0000a0 5c f6 8b be f4 78 7d bd 04 4c ba be 38 2f c0 3e
       -0.27336395 -0.061882928 -0.3638612 0.37536025
0000b0 63 92 9e bf 5b 95 18 3e ea ed 24 3d 2c 7a 57 3e
       -1.2388424 0.14900725 0.040265955 0.21042699
0000c0 cc aa 88 be ef 76 3e 3e 92 2d 69 bf 05 80 ad 3e
       -0.26692808 0.18600057 -0.9108516 0.33886734
0000d0 bc 83 81 3d 69 c6 a9 3e fa 91 27 3e eb d8 d3 be
       0.063239545 0.33159187 0.1636428 -0.41376433
0000e0 b0 09 02 3f c7 78 dc bd eb 86 67 3e 39 00 b9 bc
       0.5079603 -0.10765224 0.22610061 -0.022583114
0000f0 56 9f 39 3e 68 ce 44 3e 3b 9e 24 3f 7c 3c a2 3d
       0.18127188 0.19219363 0.6430394 0.07921693
000100 85 c8 09 3e 84 54 b7 3d 32 21 65 be 84 81 70 be
       0.13455398 0.08951667 -0.22375944 -0.23486906
000110 80 b8 2b bf af 36 07 3f dc 9b b6 b9 49 e4 6b 3e
       -0.670784 0.52817816 -0.0003482987 0.23036303
000120 c9 cc 26 3e 23 f2 cd be b0 7b 7b bf 2e 8d 60 3e
       0.16289057 -0.40223798 -0.9823561 0.21928856
000130 21 d7 10 be e4 a0 3c be 44 11 74 3b 8b af 77 3e
       -0.14144565 -0.1842075 0.0037241736 0.24188058
000140 b1 c1 1c bf 79 ea 0d 3e 29 4a 01 be de 11 3a 3e
       -0.6123305 0.13858975 -0.12625946 0.18170878
000150 75 f4 cc be ee e0 95 be b2 ba 95 bf cf 8e bb bd
       -0.40030256 -0.2927317 -1.16976 -0.09158098
000160 33 07 04 be 07 54 8b bc ad b5 86 bd f5 ec 7a bd
       -0.12893371 -0.01700784 -0.06577621 -0.061261136
000170 9a e5 99 bf f3 32 b2 3e 08 18 b5 be 1c d1 19 bd
       -1.2023194 0.34804496 -0.35369897 -0.037552938
000180 95 62 c9 bc cc c3 43 be 4f f3 18 bf ec 24 09 be
       -0.02458314 -0.1911766 -0.5974626 -0.13392991
000190 99 7a f6 bd 18 00 07 3f 4a 43 17 be 09 c0 b6 bd
       -0.120351024 0.5273452 -0.14771762 -0.089233465
0001a0 ec 54 a4 bf 19 cd fb 3e f3 2f 85 be 28 be 27 3f
       -1.2838416 0.49179915 -0.26013145 0.6552453
0001b0 3e ac c1 be 10 71 b7 3d bc cd 9c bf 19 52 1c 3e
       -0.37826723 0.08957112 -1.2250285 0.15265693
0001c0 49 77 95 be 5a 5d 93 bd e7 9f c4 3d 7f 38 71 be
       -0.2919257 -0.0719554 0.096008115 -0.23556708
0001d0 38 bf 99 3f 7e f9 0f bf 08 2f ba 3d f4 f3 da be
       1.201148 -0.5624007 0.09091002 -0.42764246
0001e0 d7 ac aa 3e ba 6e c4 3e 3e f9 37 be e2 78 04 3d
       0.3333499 0.38365728 -0.17966172 0.032341845
0001f0 b7 2f 52 3e 34 0d 30 be 80 5f 82 3d 75 74 c3 3c
       0.20526014 -0.17192537 0.063658714 0.023859242
000200 42 61 1f bf 91 eb 0a 3e 08 5c a1 3e a6 ec f7 3e
       -0.6225778 0.13566424 0.31515527 0.48422736
000210 e4 b6 e2 3d f8 5d 00 bd bd 14 27 3f c3 5c f3 be
       0.1107004 -0.031339616 0.6526602 -0.4753171
000220 64 d7 dc bc 58 6b 7b 3e 64 a1 69 3e 6b 90 d3 bc
       -0.026958175 0.24552667 0.22815472 -0.0258257
000230 4d 8a 9f 3e 3f 11 2e 3e 52 7d f8 bd 66 6a 4c 3e
       0.31160203 0.16998766 -0.12133278 0.19962463
000240 4a 37 7d be a1 6e aa be 88 a7 61 bf cd ee 6e be
       -0.24728122 -0.33287528 -0.8814626 -0.23333283
000250 ad 60 31 3e bf 99 94 be 01 4b ba be c3 06 a0 bd
       0.17322035 -0.2902355 -0.36385348 -0.0781379
000260 9e 75 a6 bf ea 8f 3a 3e 70 3d 21 be 96 f7 81 bd
       -1.3004644 0.18218961 -0.15746093 -0.063460514
000270 37 55 af 3d 42 fb 81 3e aa b1 4e bf fe 6e 1b 3c
       0.08561175 0.25387007 -0.80739844 0.009486912
000280 36 da 44 3e 4d b3 bb 3c 42 da 5a 3e b2 dd 0a 3d
       0.19223866 0.022912646 0.21372321 0.03390283
000290 fc 18 48 3f 52 41 df be 00 44 59 3d f5 7c 79 be
       0.78163123 -0.43604523 0.053043365 -0.24364074
0002a0 ad 63 df be 78 71 91 3e 6e 2b 9a bf b3 21 85 3e
       -0.43630734 0.28406882 -1.2044504 0.26002273
0002b0 d0 b1 0e 3e f6 fe b9 be 11 da c0 be e4 8c d2 be
       0.13935018 -0.36327332 -0.3766637 -0.41123116
0002c0 c0 44 93 bf a4 07 02 be c2 30 b3 be 78 a4 a0 3e
       -1.1505356 -0.12698227 -0.34998137 0.3137548
0002d0 4d 69 c0 3d ef 73 c6 be d1 eb 37 be 2f c9 30 be
       0.093950845 -0.38760325 -0.1796105 -0.17264245
0002e0 9a 6b 04 3e 16 3b ed 3c b2 39 5b 3e ae f6 54 be
       0.12931672 0.028958838 0.21408728 -0.20797226
0002f0 42 91 00 3f 53 da d7 bd e5 e9 86 3e 7f 91 7d be
       0.50221646 -0.10539689 0.26350322 -0.24762534
000300 34 3f 47 bd 08 c8 d1 3d f5 ef 38 bf 5e 09 e0 3e
       -0.04864426 0.10243231 -0.72241145 0.43757147
000310 d4 33 c4 bd c7 fc 0f 3e a8 00 c2 3d d4 c5 91 3e
       -0.09580198 0.1406127 0.094727814 0.28471243
000320 5f 03 6d 3f 2f 6b b6 3e a4 c8 bd 3d e5 22 75 be
       0.9258327 0.3562865 0.09266785 -0.23939092
000330 5f a2 98 3e c4 46 39 bd bc 3b 59 bf 3e da 73 3e
       0.2981138 -0.045233503 -0.8485677 0.23813722
000340 04 46 42 be 9e 3d 74 bc f9 86 05 3e 22 34 37 bd
       -0.18972021 -0.014907269 0.13039769 -0.044727452
000350 02 74 1b bf 00 16 f2 3c 79 48 04 be 29 5c 0a 3c
       -0.6072389 0.029551506 -0.12918271 0.008444824
000360 35 34 e6 bd dd 9a 06 3d bc 4b 32 bf c3 6d 88 be
       -0.112404265 0.032862533 -0.6964681 -0.26646242
000370 a0 e2 8c bd c6 80 de 3e 50 d4 28 bd 3a 3c 2d be
       -0.06879163 0.4345762 -0.041218102 -0.16917506
000380 ff 38 29 bf c1 84 c6 3e 33 99 ab be 1f f0 bf 3e
       -0.66102594 0.38773158 -0.3351532 0.37487885
000390 c4 59 a1 3d 94 dd a8 bd cd 68 3c bf 69 d0 fc 3d
       0.078784496 -0.08245388 -0.73597413 0.123444386
0003a0 22 25 63 3e 49 7c e0 3e 3c bc 6a 3e 26 48 a5 3e
       0.22182134 0.43844822 0.22923368 0.32281607
0003b0 11 27 3a bf 9b ab 09 3e 16 14 09 be 94 21 f8 3e
       -0.7271586 0.13444369 -0.13386568 0.48463118
0003c0 05 66 5f be 00 e3 d8 be d3 e5 6a bf 78 d8 21 be
       -0.21816261 -0.42360687 -0.91756934 -0.15805233
0003d0 ca b9 f7 3d 45 b1 24 be 1f ef ad be 22 30 9e be
       0.12095983 -0.16083248 -0.33971497 -0.30896097
0003e0 65 91 96 bf 15 b2 47 be fc c2 3b 3e d8 af 9d 3e
       -1.1763121 -0.19501527 0.183361 0.3079822
0003f0 d9 11 a0 be 85 74 3d be e3 8e 08 bf f7 58 6b be
       -0.31263617 -0.1850148 -0.5334303 -0.22983156

fc1.bias f4 [256]
000000 c0 15 d5 3e c8 70 a8 be 31 ea 31 bd b2 a1 0b 3f
       0.41618156 -0.32898545 -0.043436233 0.545436
000010 82 ab 7a 3d 38 da 84 3e 51 1d c4 be 28 94 21 be
       0.06119872 0.25947738 -0.38303617 -0.15779173
000020 d4 3c 68 bd 38 ce 05 3e 76 4e d0 3e e2 f0 d6 3e
       -0.056698635 0.13066947 0.4068486 0.41980654
000030 87 da c4 be f0 d6 ad 3c 15 b0 3d 3e 03 a7 a8 3e
       -0.38447973 0.021220654 0.18524201 0.3293992
000040 5f 98 81 3c e5 f7 af bd 98 4b 9d be 71 e2 b0 3c
       0.015819727 -0.08592204 -0.30721736 0.02159235
000050 5b 1d e6 3e 7d 1a 4e be ce 71 b9 3e 8e 93 11 be
       0.4494427 -0.20127292 0.3621964 -0.14216444
000060 e4 89 d5 3d 70 51 26 3e 15 7e 74 3e 50 10 83 3d
       0.10426691 0.16242003 0.23876221 0.06399596
000070 e6 7a 2e 3e a2 63 ea 3d 96 98 c2 3e 75 98 9e 3d
       0.1703907 0.11444785 0.3800704 0.077439226
000080 cf 1b 27 3e d3 18 e7 3e 80 67 61 3d d5 09 05 bf
       0.16319202 0.45136127 0.055030346 -0.5196813
000090 22 d7 88 3e 86 00 8e be d9 d5 41 3d d5 5b ab 3c
       0.26726633 -0.27734774 0.04732308 0.020917812
0000a0 33 93 a9 bd 4e a2 8f be c9 5e 5c be 22 f8 64 3e
       -0.08280029 -0.28053516 -0.21520533 0.2236028
0000b0 7f 23 8d bd 4f bd 52 3e 8f 05 ca be 48 f2 d3 3e
       -0.06891536 0.20580028 -0.39457366 0.41395783
0000c0 ca 09 b9 be 29 69 67 3d e1 32 fa 3c 52 26 bc 39
       -0.3614028 0.056496773 0.03054184 0.00035886705
0000d0 b6 43 b7 3e dc 0c 04 bd 65 10 21 3c ff 92 9f 3e
       0.35793847 -0.032238826 0.009830569 0.31166837
0000e0 84 1f b3 be 36 d8 2a bc 63 97 c0 3e e2 40 c0 3e
       -0.34984982 -0.010427525 0.376155 0.37549502
0000f0 7d ee 02 be 19 9e 61 3e d7 9e b8 bd 63 57 b0 be
       -0.12786289 0.22032966 -0.09014671 -0.3444167
000100 87 40 a9 3c 2e 1e be 3e 0f 8b 3c be 18 51 e9 bb
       0.020660652 0.371324 -0.18412422 -0.007120263
000110 2a f1 cd be 51 e7 7a be 07 fa c5 be 82 d8 9e 3e
       -0.40223056 -0.24502303 -0.38667318 0.31024557
000120 15 6f bd 3e 6b f2 25 3e f8 b4 c2 3e cd 01 7f 3e
       0.3699881 0.16205756 0.38028693 0.2490303
000130 4b d6 4c be e7 b5 cf 3d aa d3 45 be 3b 70 a7 3e
       -0.20003621 0.10142117 -0.19319025 0.32702813
000140 93 1e 69 be f8 7e 8a be 90 8e df 3e ea d0 16 be
       -0.2276557 -0.27049994 0.43663454 -0.14728132
000150 b9 46 8a bb d9 e1 99 3e 0d c8 a1 3e f7 bd cd be
       -0.0042198566 0.3005512 0.3159794 -0.40183994
000160 b6 72 ea 3d 26 58 95 be 4b 6d 7c be 2f ed 9c bc
       0.114476606 -0.29168814 -0.24651067 -0.019156067
000170 64 74 48 3c c6 41 36 3e e2 37 29 3e ed 6a 24 be
       0.012234781 0.17798528 0.16525224 -0.16056414
000180 47 de 43 3e a1 46 68 3e ff c0 71 3e f0 8d 47 be
       0.19127761 0.22683193 0.23608778 -0.19487739
000190 41 0e 70 be 7f 0b 5c 3e a2 fa 74 3e 84 65 42 3d
       -0.23442937 0.2148876 0.23923734 0.047460094
0001a0 21 1a 78 3e 97 38 c2 be c6 7f 6e bc 78 c2 29 3e
       0.24228717 -0.379338 -0.014556831 0.1657809
0001b0 00 b2 38 3e 02 e0 ba 3e 27 71 bf 3e 79 d9 4d be
       0.18036652 0.3649903 0.37391016 -0.2010249
0001c0 a0 bd 20 be 11 7f b9 3d 5c 0e 19 bc 78 b5 d7 be
       -0.15697336 0.09057439 -0.009341802 -0.42130637
0001d0 80 e2 9b 3e 1f ff 90 be d2 8b ef bc 68 90 75 be
       0.30446243 -0.28319642 -0.029241476 -0.23980868
0001e0 da 88 05 3e 3d 03 7d be 4a 3c 97 3e 8d 65 e0 3d
       0.13040486 -0.24708267 0.29538184 0.10956869
0001f0 a6 ce 77 be e9 33 c7 bd 59 ab cf bd d6 01 24 bc
       -0.24199924 -0.09726698 -0.10140104 -0.010010203
000200 54 d5 bb be 2a 90 6e 3e 08 22 31 3e 5a e1 c3 be
       -0.36686194 0.23297182 0.17298138 -0.38257867
000210 c9 11 dd be 20 f9 1a be 3d 9e c4 3e 2b a3 79 be
       -0.43177631 -0.15134096 0.38401976 -0.2437865
000220 e0 21 40 bd 3a 11 e3 bc 2c 8b 8c be 84 9a 66 be
       -0.046907306 -0.027718175 -0.2744993 -0.2251988
000230 41 ea ad 3e 4c ef 42 3d ae d0 b8 be 2c 27 83 3e
       0.33967784 0.047591493 -0.3609671 0.25615823
000240 3c e2 31 3e 2d f9 f6 bd ab eb 84 be a4 2a 86 be
       0.17371458 -0.12059245 -0.2596105 -0.26204407
000250 d0 40 05 be 1a 96 97 3b 9c 22 f7 3b 2c 81 9a 3e
       -0.13013005 0.004626048 0.0075419676 0.30176675
000260 66 e1 5d 3e b9 28 e1 bd 53 93 76 3d 58 3e c1 3e
       0.21668014 -0.10994095 0.060199093 0.37742877
000270 13 26 4c be 81 b2 eb 3d c7 36 af be 30 d4 5a bc
       -0.19936399 0.11508656 -0.3422148 -0.0133562535
000280 36 69 8d be 74 12 ce be d1 49 f3 bd 20 33 73 3e
       -0.27619332 -0.40248454 -0.11879314 0.23749971
000290 dd bf af 3d bb 89 91 3e bc 85 cc 3e 4a 57 11 3d
       0.08581517 0.28425393 0.3994578 0.035483636
0002a0 f0 9f 93 3e c5 3e ad 3d 36 70 83 be 2a 7d a4 be
       0.2883296 0.08459238 -0.25671548 -0.32126743
0002b0 e0 c6 ab 3e 02 6b c6 be c2 4a c9 3e e6 f9 88 bd
       0.33550167 -0.38753515 0.39314848 -0.06688289
0002c0 17 0f c2 3e f8 55 5d 3e 3c 43 11 be c4 b9 a9 be
       0.37902138 0.21614826 -0.14185804 -0.3314954
0002d0 64 eb 61 bc f4 81 b2 be db 4d 8e 3e de 75 86 3e
       -0.013789032 -0.3486477 0.27793774 0.262618
0002e0 37 ab a9 be 25 74 4a bd 16 83 b2 3e cd 11 43 3d
       -0.3313844 -0.04942717 0.34865636 0.047624398
0002f0 8d 5c 8e 3e 37 cf 52 3d 53 b9 b5 3e 27 e1 a6 be
       0.27804986 0.051467147 0.35492954 -0.32593653
000300 cf e3 87 bd fc 33 04 bf ff 18 90 3b 7c 6e d2 be
       -0.06635248 -0.5164182 0.004397511 -0.41099918
000310 b3 0d 1c 3c df 5b 59 3e da b9 db 3e 64 17 3e be
       0.0095247505 0.21226452 0.4291523 -0.1856361
000320 24 c1 1e bd f7 7d 44 be 00 43 c8 be b3 4f cb be
       -0.038758412 -0.19188677 -0.39113617 -0.39709243
000330 06 ff 11 3e 60 3d a4 3e 1e 87 27 b8 6d 6b b0 3d
       0.1425744 0.32078075 -3.994174e-05 0.0861424
000340 2b e8 91 3e ae 72 a7 3e 19 e5 cd be 86 17 e9 bc
       0.28497443 0.3270468 -0.4021385 -0.0284536
000350 e2 d5 c5 bd cb 54 12 bd cc c3 c0 be 65 48 84 be
       -0.096599355 -0.035725396 -0.3764938 -0.25836483
000360 1c f3 25 be b4 6d 03 bc cf 0c ba 3e 26 05 87 3e
       -0.1620602 -0.008021761 0.36337897 0.26371115
000370 88 e0 a9 bd 7f 4e 03 3f 95 fb ab be f9 12 d0 be
       -0.08294779 0.5129165 -0.3359038 -0.40639475
000380 fb ec 80 3e de a0 b6 3e 70 7e e4 3d 51 8d bd bd
       0.25180802 0.35669607 0.111569285 -0.092554696
000390 af 3a be be 0a 41 fa bd 22 4f 08 3e e8 54 98 be
       -0.37154147 -0.122194365 0.13311437 -0.29752278
0003a0 88 4f b9 3e 0c 39 84 be 03 3e bf 3e 4c e1 ee bd
       0.3619349 -0.25824773 0.37352 -0.11664066
0003b0 15 33 42 bd fe e8 af 3e 57 de a8 bd f8 01 40 3e
       -0.047411997 0.34357446 -0.08245533 0.18750751
0003c0 e3 d9 58 be 47 e1 33 3e 11 56 57 3e 20 0a 17 3e
       -0.21176867 0.17566405 0.21028925 0.14749956
0003d0 10 c1 7b 3d 40 31 79 3c d0 65 4b 3e a1 8a 5d bc
       0.061463416 0.015209496 0.19863057 -0.013521821
0003e0 cd fc 9d 3d 2d f4 a1 be 01 00 bf 3d 13 4d d3 3e
       0.077142335 -0.31631604 0.093261726 0.4126974
0003f0 bb 00 c1 3d 9a 58 36 be 89 94 b6 3e 55 6a d0 bd
       0.094239675 -0.17807236 0.35660198 -0.10176531

norm1.weight f4 [256]
000000 00 00 80 3f 4e 7c 79 3f 00 00 80 3f df 6a 81 3f
       1.0 0.974553 1.0 1.011074
000010 97 f6 74 3f 09 bd 82 3f d5 49 72 3f b7 e7 8b 3f
       0.95688766 1.0213939 0.9464391 1.0930089
000020 1f 5e 98 3f bb c1 83 3f 5f 44 7d 3f 00 00 80 3f
       1.1903723 1.0293497 0.9893245 1.0
000030 17 87 6d 3f db dd 7b 3f 00 00 80 3f 00 00 80 3f
       0.92784256 0.983854 1.0 1.0
000040 00 00 80 3f 00 00 80 3f 00 00 80 3f 77 49 8d 3f
       1.0 1.0 1.0 1.1038045
000050 e7 0e 84 3f 72 7a 80 3f 3d 2e 80 3f 79 c6 7f 3f
       1.0317048 1.0037367 1.0014111 0.9991222
000060 af 3c 75 3f 00 00 80 3f 33 d5 84 3f c7 e3 84 3f
       0.9579572 1.0 1.0377563 1.0382012
000070 1f 86 7f 3f 00 00 80 3f d4 f2 8a 3f a6 63 84 3f
       0.9981403 1.0 1.0855355 1.034291
000080 00 00 80 3f f0 03 82 3f ae 97 70 3f b6 5b 6f 3f
       1.0 1.0157452 0.93981445 0.93499315
000090 00 00 80 3f 00 00 80 3f ef 1d 80 3f 27 69 7d 3f
       1.0 1.0 1.0009135 0.98988575
0000a0 56 ba 87 3f 8b e7 98 3f 00 00 80 3f b9 71 76 3f
       1.060374 1.1945661 1.0 0.96267277
0000b0 a0 8c 83 3f da 82 79 3f aa 8b 78 3f 00 00 80 3f
       1.027729 0.9746529 0.9708811 1.0
0000c0 e6 57 76 3f 75 83 7e 3f 00 00 80 3f e1 77 81 3f
       0.9622787 0.9941934 1.0 1.0114709
0000d0 00 00 80 3f 22 bb 7d 3f 53 99 7a 3f b9 4f 80 3f
       1.0 0.99113667 0.97890204 1.002433
0000e0 93 0d 90 3f 05 b1 72 3f 26 d2 83 3f 03 fd 80 3f
       1.1254143 0.9480136 1.0298507 1.0077213
0000f0 d3 be 75 3f 04 46 82 3f c8 e9 9f 3f 86 2f 77 3f
       0.959943 1.0177617 1.2493219 0.9655689
000100 c4 f9 81 3f 55 db 7d 3f 8f 14 82 3f 27 a5 82 3f
       1.0154347 0.991628 1.0162524 1.020665
000110 e1 d6 9b 3f 71 f8 7e 3f 00 00 80 3f 68 15 84 3f
       1.2174951 0.9959784 1.0 1.0319033
000120 00 00 80 3f 52 11 80 3f 27 de 77 3f c5 79 7a 3f
       1.0 1.0005286 0.9682335 0.97842056
000130 e9 e6 7e 3f dc ea 84 3f dc 58 78 3f 79 6a 82 3f
       0.9957109 1.0384173 0.9701059 1.0188743
000140 25 64 83 3f 99 86 84 3f 9a 76 86 3f eb 53 6b 3f
       1.0264937 1.0353576 1.0504944 0.91924924
000150 ca 5e 72 3f 67 a7 85 3f 22 68 7a 3f 1c e3 7d 3f
       0.94675887 1.0441712 0.97815144 0.99174666
000160 00 00 80 3f 00 00 80 3f 28 a2 7a 3f d0 0c 9e 3f
       1.0 1.0 0.9790368 1.234766
000170 69 75 83 3f 37 9e 81 3f 52 cc 82 3f 3c ee 77 3f
       1.0270206 1.0126408 1.0218604 0.9684789
000180 00 00 80 3f 00 00 80 3f 6c 4e 7d 3f 6e f7 83 3f
       1.0 1.0 0.9894779 1.0309885
000190 a3 d0 75 3f 00 00 80 3f 6a db 88 3f 15 be 83 3f
       0.9602148 1.0 1.069196 1.0292383
0001a0 02 1e 9b 3f 6b e8 81 3f 00 00 80 3f ae 98 72 3f
       1.2118533 1.0149053 1.0 0.9476422
0001b0 8a 06 86 3f e2 b8 84 3f 00 00 80 3f c4 93 84 3f
       1.0470746 1.0368922 1.0 1.0357594
0001c0 75 7d 83 3f 00 00 80 3f 00 00 80 3f 65 f7 6d 3f
       1.0272661 1.0 1.0 0.9295562
0001d0 32 53 7f 3f 00 00 80 3f 02 0e 84 3f a4 73 80 3f
       0.9973632 1.0 1.0316775 1.0035291
0001e0 00 00 80 3f 51 87 83 3f 0f 89 7e 3f e5 d6 93 3f
       1.0 1.027567 0.99427885 1.1549956
0001f0 00 00 80 3f 00 00 80 3f f0 fd 7f 3f 00 00 80 3f
       1.0 1.0 0.9999685 1.0
000200 50 3d 84 3f f6 e5 9a 3f a8 37 7e 3f c6 83 87 3f
       1.0331211 1.2101429 0.99303675 1.0587089
000210 d5 9b 84 3f 67 0e 84 3f 63 8a 81 3f 00 00 80 3f
       1.0360056 1.0316895 1.0120357 1.0
000220 e3 59 93 3f 31 1f 71 3f 00 00 80 3f 00 00 80 3f
       1.1511806 0.9418822 1.0 1.0
000230 d4 9a 86 3f 5b 1f 81 3f e2 ef 82 3f 00 00 80 3f
       1.0516 1.0087694 1.0229456 1.0
000240 a3 2a 86 3f 00 00 80 3f cd 36 74 3f 78 78 76 3f
       1.0481762 1.0 0.9539612 0.9627757
000250 80 e2 77 3f 00 00 80 3f ba 79 7c 3f 4e 35 85 3f
       0.96829987 1.0 0.9862324 1.0406892
000260 8a a8 83 3f 0d f6 80 3f 9d d2 7e 3f 00 00 80 3f
       1.0285809 1.0075089 0.9954012 1.0
000270 36 ad 81 3f 59 ab 82 3f 00 00 80 3f 50 45 99 3f
       1.0130985 1.0208541 1.0 1.1974277
000280 af 16 84 3f 37 50 6c 3f 00 00 80 3f 00 00 80 3f
       1.0319422 0.923099 1.0 1.0
000290 ac 34 85 3f 00 00 80 3f ef bc 9a 3f 2e 81 78 3f
       1.0406699 1.0 1.2088908 0.9707211
0002a0 13 e3 85 3f 59 93 7b 3f 0b 60 71 3f 00 00 80 3f
       1.0459923 0.9827171 0.94287175 1.0
0002b0 e1 85 77 3f 00 00 80 3f 9d 18 79 3f 00 00 80 3f
       0.9668866 1.0 0.9730318 1.0
0002c0 49 30 80 3f b7 91 7c 3f 1e 21 78 3f 00 00 80 3f
       1.0014735 0.98659843 0.9692553 1.0
0002d0 00 00 80 3f 00 00 80 3f e0 79 7b 3f 96 fe 7b 3f
       1.0 1.0 0.9823284 0.9843534
0002e0 00 00 80 3f 00 00 80 3f e1 3a 86 3f 05 a6 82 3f
       1.0 1.0 1.0486718 1.0206915
0002f0 4e ff 78 3f 00 00 80 3f ac 39 9c 3f 09 47 80 3f
       0.97264564 1.0 1.22051 1.0021678
000300 25 eb 82 3f 43 3b 73 3f 33 fd 7e 3f 07 5b 7c 3f
       1.022801 0.950123 0.996051 0.98576397
000310 da 52 89 3f a1 00 80 3f 88 0d 82 3f aa 07 83 3f
       1.0728409 1.0000192 1.016038 1.0236714
000320 d7 82 84 3f 00 00 80 3f e9 1c 8b 3f df ac 79 3f
       1.0352429 1.0 1.0868198 0.97529405
000330 6b 2a 80 3f 00 00 80 3f 00 00 80 3f cf 77 84 3f
       1.0012945 1.0 1.0 1.0349063
000340 40 f3 92 3f 00 00 80 3f fe e0 7f 3f 00 00 80 3f
       1.1480484 1.0 0.99952686 1.0
000350 58 d1 7d 3f 00 00 80 3f 87 d6 7d 3f 00 00 80 3f
       0.9914756 1.0 0.9915547 1.0
000360 1e f4 7a 3f 00 00 80 3f 94 3c 7e 3f 26 e7 8d 3f
       0.98028743 1.0 0.99311185 1.1086166
000370 00 00 80 3f ea bf 83 3f 2d 90 7a 3f 22 c6 7b 3f
       1.0 1.0292943 0.97876245 0.983492
000380 00 00 80 3f 00 00 80 3f d6 39 94 3f 0f 4a 84 3f
       1.0 1.0 1.158015 1.0335101
000390 0a b8 7b 3f 86 d6 80 3f 61 37 77 3f b1 95 84 3f
       0.98327696 1.0065467 0.96568877 1.0358182
0003a0 cf 09 84 3f 00 00 80 3f 00 00 80 3f 94 32 85 3f
       1.0315493 1.0 1.0 1.040606
0003b0 fa 2d 85 3f 7f 17 7a 3f 00 00 80 3f 39 3f 6b 3f
       1.0404656 0.976921 1.0 0.91893345
0003c0 00 00 80 3f 6c 72 7d 3f 00 00 80 3f 00 00 80 3f
       1.0 0.9900272 1.0 1.0
0003d0 a3 d7 84 3f d7 f2 85 3f 48 63 85 3f 22 a4 69 3f
       1.0378307 1.0464734 1.0420923 0.9126607
0003e0 f7 d7 70 3f 32 52 86 3f b3 54 a9 3f 5d 23 85 3f
       0.94079536 1.0493834 1.3228973 1.0401417
0003f0 00 00 80 3f 8b 03 79 3f 66 98 80 3f 32 97 86 3f
       1.0 0.9727103 1.0046508 1.0514891

norm1.bias f4 [256]
000000 00 00 00 00 92 94 a6 bc 00 00 00 00 7d fa 53 3c
       0.0 -0.020334516 0.0 0.012938139
000010 e7 06 4c bc ee 3f 44 bd 3d 0e 67 bd a3 06 67 3d
       -0.0124528175 -0.04791253 -0.056410063 0.056402814
000020 0c a4 9e 3d d4 53 03 3d fd 25 94 bb 00 00 00 00
       0.07746133 0.032062367 -0.00452113 0.0
000030 cf a5 9f bd 90 1f 88 bc 00 00 00 00 00 00 00 00
       -0.07795297 -0.016616613 0.0 0.0
000040 00 00 00 00 00 00 00 00 00 00 00 00 63 c2 86 3d
       0.0 0.0 0.0 0.06580045
000050 0b 2e 0f 3d 7e 2c 92 3d bb 35 94 3c 28 8b b9 3a
       0.03495602 0.071373925 0.018092027 0.0014155852
000060 54 44 b3 bd 00 00 00 00 f3 0b 83 3d ed 4c 0d 3d
       -0.08753267 0.0 0.063987635 0.03449719
000070 2b 73 af bd 00 00 00 00 6b b4 a3 3d f1 14 f3 3c
       -0.085668884 0.0 0.07993396 0.029673072
000080 00 00 00 00 86 a9 d4 3d bf 5f 28 bd 08 77 60 bd
       0.0 0.103838965 -0.041106936 -0.054801017
000090 00 00 00 00 00 00 00 00 b9 0b de 3c 0f 4f 9e bc
       0.0 0.0 0.0271052 -0.019324807
0000a0 7e 1e 85 bd 34 d9 b2 3d 00 00 00 00 7c 4d 7c bd
       -0.064999565 0.087328345 0.0 -0.061597332
0000b0 e1 55 d1 3c 60 64 05 bd 01 2d 9d bc 00 00 00 00
       0.025553646 -0.03256643 -0.019186499 0.0
0000c0 2f 20 b0 bc cc 00 3c 3e 00 00 00 00 62 30 7c 3c
       -0.021499721 0.18359679 0.0 0.015392395
0000d0 00 00 00 00 99 04 a5 3c 3a ad ab bc 90 e3 aa 3b
       0.0 0.020143794 -0.020956624 0.005215116
0000e0 41 f2 a7 bc 29 46 32 bd 5d 8f b1 3c c5 e5 65 3d
       -0.020501258 -0.04352394 0.021674806 0.05612733
0000f0 2b 11 cd bc bc 26 7a bd c4 7f a8 bc 9b 23 ad bd
       -0.0250326 -0.061072096 -0.020568736 -0.08454057
000100 c7 77 6e 3c 58 8d 73 bb aa 69 92 3c 02 76 a7 3c
       0.014554924 -0.0037163105 0.01787265 0.020442013
000110 53 52 c8 3c 22 01 5e bd 00 00 00 00 c7 5c 06 3d
       0.024453318 -0.0542003 0.0 0.032803323
000120 00 00 00 00 02 c3 5d 3c 93 98 e9 3d 8a 2b bf bb
       0.0 0.013535263 0.11406054 -0.0058340477
000130 6b 97 6d 3b 22 58 cc 3c 6a b6 6e bd 3f 5a b9 3c
       0.0036253582 0.024944369 -0.058279432 0.02262604
000140 f7 1f a3 3b 6d 86 fe 3c 7f 51 55 3d b3 71 39 bd
       0.0049781757 0.031069959 0.052079674 -0.045274448
000150 fa 50 ae 3d 12 16 f3 bb 40 67 e0 bc 71 41 47 3b
       0.08511539 -0.0074184025 -0.027392983 0.0030403996
000160 00 00 00 00 00 00 00 00 45 0d 48 bd f8 0d 79 3c
       0.0 0.0 -0.04884078 0.015201084
000170 e4 40 1d bc b6 d7 af 3c d4 50 b0 3d e4 e3 a1 bd
       -0.009597991 0.021465164 0.08609167 -0.07904795
000180 00 00 00 00 00 00 00 00 82 41 9d 3b ab 76 d1 3c
       0.0 0.0 0.004799069 0.02556928
000190 7c 8d db bc 00 00 00 00 5c ab 38 bd 66 3c 06 3d
       -0.026800863 0.0 -0.045085296 0.032772444
0001a0 b2 d1 87 3c 30 ce e5 3c 00 00 00 00 d6 36 69 bd
       0.016579483 0.02805242 0.0 -0.05693706
0001b0 d4 78 44 3d aa f3 02 3d 00 00 00 00 7d 87 39 3e
       0.047966793 0.031970657 0.0 0.18118091
0001c0 0f 2d f8 3c 00 00 00 00 00 00 00 00 34 50 9d bd
       0.030294923 0.0 0.0 -0.07681313
0001d0 a7 4e c3 bb 00 00 00 00 ac ad 8d 3d de 9e fa 3c
       -0.005960304 0.0 0.06917891 0.030593332
0001e0 00 00 00 00 07 22 c0 3c 3a df 9c ba cb 62 98 bc
       0.0 0.023453726 -0.0011968382 -0.018601796
0001f0 00 00 00 00 00 00 00 00 7d 4b 94 3c 00 00 00 00
       0.0 0.0 0.018102402 0.0
000200 76 a3 b5 bd 65 d9 b9 3d ff 53 fd 3a 03 72 9e bc
       -0.08869068 0.09074668 0.0019327401 -0.019341474
000210 3c 59 38 bd 23 be 71 3d 3c f5 7b 3c 00 00 00 00
       -0.045006976 0.05901922 0.015378293 0.0
000220 c0 0e c2 bc 0c df 53 bd 00 00 00 00 00 00 00 00
       -0.023688674 -0.051726386 0.0 0.0
000230 f5 db 4a 3d 42 fa 2c 3e 32 04 e4 3c 00 00 00 00
       0.049526174 0.16892341 0.027834032 0.0
000240 2d bf 06 3d 00 00 00 00 28 29 ec bc d1 60 2b bc
       0.032897163 0.0 -0.028828219 -0.010460095
000250 50 58 cf bc 00 00 00 00 b2 52 e9 3d 53 0f 23 3d
       -0.025310665 0.0 0.11392726 0.039809536
000260 29 31 f0 3c e4 e8 ea 3b 4e c6 90 bb 00 00 00 00
       0.029320316 0.007168876 -0.004418171 0.0
000270 e1 84 46 3c a5 91 ea 3c 00 00 00 00 ad bf 9e 3d
       0.012116642 0.028633902 0.0 0.07751403
000280 72 f9 0a 3d 77 f4 8e bd 00 00 00 00 00 00 00 00
       0.033929296 -0.06980222 0.0 0.0
000290 4f 7c 38 3d 00 00 00 00 9e f2 11 b9 8d 44 66 bd
       0.045040425 0.0 -0.0001391866 -0.05621772
0002a0 7d 28 4f 3d 65 34 39 bb 8b 80 28 bd 00 00 00 00
       0.050575722 -0.002825999 -0.041138213 0.0
0002b0 c3 9e ce 3d 00 00 00 00 bb 52 99 bc 00 00 00 00
       0.10088875 0.0 -0.018716207 0.0
0002c0 af 96 f7 bb 1b 88 d1 3a c2 5d c9 bc 00 00 00 00
       -0.0075558047 0.0015985997 -0.02458084 0.0
0002d0 00 00 00 00 00 00 00 00 6b 21 de 3b 0d 48 01 bb
       0.0 0.0 0.006778886 -0.0019726784
0002e0 00 00 00 00 00 00 00 00 8c 3b 09 3e cd c6 76 3c
       0.0 0.0 0.13401622 0.015062046
0002f0 46 ff 80 bd 00 00 00 00 a6 b4 c4 3d 41 b3 f4 3b
       -0.062986895 0.0 0.096047685 0.007467658
000300 be 37 e4 3c 1c c3 b8 bc 83 e8 03 3d c4 10 b6 bb
       0.027858611 -0.022553973 0.032204162 -0.005556198
000310 40 99 82 bd e5 b6 0a 38 26 7e ff 3c a3 c5 c9 3c
       -0.06376886 3.3072098e-05 0.031188082 0.024630373
000320 a7 ef 0b 3d 00 00 00 00 a4 4f 41 3d ac 47 1c bd
       0.034164097 0.0 0.04719509 -0.03815429
000330 c2 47 14 3b 00 00 00 00 00 00 00 00 2d 29 a1 3d
       0.0022625779 0.0 0.0 0.07869182
000340 5d 8d d4 bc 00 00 00 00 0a 1d d1 bb 00 00 00 00
       -0.025946314 0.0 -0.0063816356 0.0
000350 ee 37 32 3d 00 00 00 00 61 14 e1 3b 00 00 00 00
       0.04351037 0.0 0.0068688844 0.0
000360 90 45 8d bc 00 00 00 00 1e b9 49 bb 7b 14 d5 bc
       -0.017245084 0.0 -0.0030780504 -0.026010742
000370 00 00 00 00 8a 16 97 3c ff 57 8f bc df 4b b0 bc
       0.0 0.018443365 -0.017498014 -0.021520553
000380 00 00 00 00 00 00 00 00 9b 16 8a 3d b0 89 8b bd
       0.0 0.0 0.06742593 -0.06813371
000390 dd a2 66 bc 7f 4a 15 3c 6d 8b cd bc 3d 2f f3 3c
       -0.014076916 0.0091119995 -0.025090897 0.02968561
0003a0 31 63 fc 3c 00 00 00 00 00 00 00 00 9c 83 26 3d
       0.030809017 0.0 0.0 0.040652856
0003b0 5f 9f 2e 3d c7 7f 78 bc 00 00 00 00 16 5d a7 bd
       0.042632457 -0.015167183 0.0 -0.081720516
0003c0 00 00 00 00 1a 5e 96 3b 00 00 00 00 00 00 00 00
       0.0 0.0045888545 0.0 0.0
0003d0 33 d8 6f 3d 24 c7 64 bd bb 9e 14 3d 84 2d c7 bd
       0.058555793 -0.055853978 0.03628419 -0.09725478
0003e0 be e0 6b bd c7 a4 3a 3d 27 0c 1c bc a7 e9 18 3e
       -0.057587378 0.0455673 -0.009524382 0.14932881
0003f0 00 00 00 00 69 91 87 bc 93 26 f3 3b da 12 d4 3d
       0.0 -0.01654883 0.00742037 0.10355158

fc2.weight f4 [128, 256]
000000 58 c7 74 bd 66 d3 b0 3c 40 c1 25 bd 3b 46 35 3d
       -0.05976042 0.021585178 -0.0404675 0.04425643
000010 0a 4b 82 bd 0d ed 9b 3c 9f ba a3 bc db ce 9d 3d
       -0.06361969 0.019033933 -0.019986449 0.0770547
000020 85 29 ed bd 4b 02 c6 3c b7 22 87 bd 94 94 30 bd
       -0.11580185 0.024171015 -0.06598418 -0.043110445
000030 c2 8a 16 3d 0d da 41 3d 40 4f 50 bc 98 9f 5a bc
       0.036753424 0.04732709 -0.012714207 -0.013343714
000040 20 c9 59 3c 8e e3 1b bd 20 eb 79 bd b8 28 39 bd
       0.013292581 -0.03805881 -0.06101525 -0.045204848
000050 d5 47 2e 3d 55 fc a0 bc a2 b5 c3 3c a5 aa 45 bd
       0.042548973 -0.019651571 0.02389032 -0.048258442
000060 e4 f9 53 3d 70 ee 51 bc 89 80 cc bb e2 3f 43 3d
       0.051751986 -0.012813196 -0.0062409085 0.047668345
000070 b7 52 75 3d b6 e0 55 bd a3 17 c4 bd 66 f3 75 3c
       0.059893336 -0.052216254 -0.09574821 0.015011644
000080 d8 9e cb bc ee 36 3c bc b5 f4 49 3d a8 40 49 3d
       -0.024856016 -0.011487706 0.049305636 0.049133927
000090 98 25 7b 3d 26 f4 7a 3d f2 51 3b bd fe 56 93 bc
       0.06131515 0.061267994 -0.045732446 -0.017985817
0000a0 43 47 73 3d 47 a4 a2 bd 10 ae ef bc ef 85 30 3d
       0.059394132 -0.0794149 -0.029257804 0.04309648
0000b0 31 a6 4e 3d a3 ca 83 bc 3d 4d 50 3c fe 7a 7d bd
       0.05045146 -0.016087836 0.012713728 -0.061884873
0000c0 e2 11 15 bc b0 31 25 bd 30 db e7 bb 18 fc 5d bd
       -0.009098502 -0.04033059 -0.0070756897 -0.054195493
0000d0 94 4c 32 3d b3 c8 5c bc 9b 48 5d b8 5e de 5f bd
       0.04353006 -0.013475585 -5.2758125e-05 -0.054655425
0000e0 6e 56 9e bc a7 35 88 3b db eb 18 bd 6b b0 b6 bc
       -0.019328322 0.0041567865 -0.037334304 -0.02230092
0000f0 2b 0c aa 3c 60 76 61 bb 4a 61 cd 3d 82 8c 93 3d
       0.020757755 -0.0034402832 0.10028322 0.07204534
000100 82 2f 70 3c b7 24 71 3c b8 bf b1 bc a5 86 4c bd
       0.014659764 0.014718226 -0.021697864 -0.049933095
000110 33 37 ef 3d a3 67 49 3c b0 c9 7c bc e8 29 93 bd
       0.1168045 0.012292775 -0.015428945 -0.07185727
000120 fc e6 c6 bc 10 a2 6e bd 74 2e 06 bc ff 0b 49 bd
       -0.024280064 -0.058260024 -0.008189786 -0.049083706
000130 75 2c 24 bd e9 32 2c 3d 69 d4 c4 bc b7 09 13 bc
       -0.04008146 0.04204074 -0.024027066 -0.008974484
000140 dc 84 5d ba fc a5 98 bd 61 b1 6d bd ec 45 1e 3d
       -0.00084502785 -0.07453534 -0.05803049 0.0386409
000150 bd 41 78 bc 5c 5e 5a bc 94 e5 aa bb de 12 0e bd
       -0.015152392 -0.013328161 -0.005215356 -0.034685962
000160 90 8d 74 3d 60 18 c7 3b 25 6b 30 bd 8f 45 1c 3e
       0.059705317 0.006075904 -0.04307093 0.1526091
000170 b5 55 17 bd ae 97 a7 3c 93 e6 16 bd e1 af d2 bc
       -0.03694697 0.020458069 -0.036840986 -0.025718631
000180 18 40 ad 3c 02 99 0d 3d a1 7b fd ba 4e 25 4b bd
       0.021148726 0.034569748 -0.0019339212 -0.049596123
000190 90 cc 3c bd b0 73 b3 3b 53 ab 5f 3d 93 af d7 bc
       -0.046093524 0.0054764375 0.054606747 -0.026328837
0001a0 1a ca 19 3d 19 f0 5f bb 80 28 e6 bc 72 a1 95 bb
       0.037546255 -0.003417021 -0.028095484 -0.004566365
0001b0 79 14 b6 bc 75 a5 a8 bb f4 a0 14 bd e3 41 83 bd
       -0.022226559 -0.005146677 -0.03628631 -0.06409051
0001c0 c3 dd ef 3c a0 fc 21 bd f8 86 b5 bc 9c 71 ad 3c
       0.029280549 -0.039547563 -0.022159085 0.021172337
0001d0 1b 31 11 3d 20 b0 8c bc c6 2e ae bd 1c d5 79 bd
       0.03544722 -0.017173827 -0.08505015 -0.060994253
0001e0 2c e6 f4 bc d5 89 e7 3b 31 29 c0 bc 7e b9 e1 3d
       -0.02989491 0.0070659914 -0.023457142 0.11021708
0001f0 88 a4 30 3d d4 9a 20 3d ad 5d 1a 3d f4 97 2e bd
       0.04312566 0.039210156 0.037686992 -0.042625383
000200 b2 c8 90 3d 7f 26 5d bd a0 ef 79 bd c8 3d ec 3c
       0.070695296 -0.05399179 -0.06101954 0.028838053
000210 a3 b3 5d bd 80 a4 95 bc 99 25 ef 3c 04 77 82 bc
       -0.054126393 -0.018266916 0.029192733 -0.015925892
000220 ea 8c aa 3d 7e ce 10 3d 12 b7 0c 3d 80 af 26 3d
       0.083276585 0.035353176 0.034354277 0.040694714
000230 27 56 34 3c 7a c2 b1 bb cd c8 a0 3c f6 b2 60 bd
       0.011006868 -0.0054247947 0.019627 -0.05485817
000240 f6 fa 22 bd 60 d6 8b bc e5 e0 3b 3d 30 1f 14 bc
       -0.039790116 -0.017069995 0.045868773 -0.009040639
000250 46 4d 3a 3c 3a f7 5a 3d b6 8f 7b bd f4 95 da ba
       0.0113709625 0.05345843 -0.06141635 -0.001667677
000260 b7 e5 25 bd 98 17 68 3c aa 04 77 bd dc bd f0 bc
       -0.040502276 0.014165781 -0.060307182 -0.029387407
000270 61 29 46 bd bf 62 7c bd 98 da 0a 3c 7a 45 f8 bd
       -0.048379306 -0.06161761 0.008474968 -0.121226266
000280 79 91 89 bd 72 5f d6 3b a8 b8 68 bd b0 9d 7b bc
       -0.067172 0.0065421397 -0.056816727 -0.01535742
000290 10 ac 96 3c bc 5b 3a 3d 46 81 bc 3d 26 be 4e bd
       0.018392593 0.04549764 0.092043445 -0.05047431
0002a0 94 ee 5f bd ff 5e 02 bc 8b 83 6b bb d2 f2 3a bd
       -0.054670885 -0.007957219 -0.003593656 -0.045641728
0002b0 18 b9 89 bd d0 41 2a bc b4 66 08 3d 2e fa 1a bd
       -0.06724757 -0.0103916675 0.03330107 -0.037836246
0002c0 04 cd 2a bd 54 05 ea bc 22 05 36 bd fc ad c7 3c
       -0.041699424 -0.028566994 -0.04443849 0.024374954
0002d0 04 ed 9f bc 60 be 6d bc d3 7b 7d 3c 08 26 63 bd
       -0.019522198 -0.014510721 0.0154714165 -0.05545619
0002e0 24 7f 6c 3d ac ad 4b 3d 66 a9 d2 bc cc 98 70 bd
       0.05773844 0.049726173 -0.025715541 -0.05873947
0002f0 86 ad a6 3b 7e c8 05 3d 8b 16 20 be a2 b1 6f 3a
       0.0050866036 0.032661907 -0.156336 0.0009143596
000300 b6 ce 31 3c 92 d7 80 bd c1 6f 84 bd ba ee b1 bc
       0.010852506 -0.06291117 -0.06466628 -0.021720279
000310 68 a0 1f 3d ba f9 4d bd 8f e8 2a bd 83 a8 87 bd
       0.038971335 -0.050286986 -0.04172569 -0.06623938
000320 cb 7c d1 bc d8 17 24 bc a2 f8 ef 3d e7 40 ad 39
       -0.025572201 -0.01001545 0.11717345 0.00033045487
000330 23 d3 e5 bc fc 20 0c 3d c0 d8 db ba 42 22 53 bd
       -0.02805478 0.034211144 -0.001677297 -0.051546343
000340 c3 26 82 3d 76 66 32 bd 50 a5 0b 3d 1c ce 67 3d
       0.063550495 -0.043554746 0.0340932 0.056593046
000350 94 79 fc 3c 6c c5 d2 bc a4 f4 cb 3c c4 39 6d bd
       0.030819692 -0.025728904 0.024896927 -0.057916418
000360 eb 6e e6 bc 10 19 48 bc 33 7d 06 3b 34 dd a9 3c
       -0.028129062 -0.012213007 0.0020521402 0.02073536
000370 a8 6d 7f 3d 62 c7 32 3c 6b 3a 08 bd ce 60 28 3d
       0.062360436 0.010911794 -0.033258837 0.041107945
000380 78 27 6b bd f8 79 78 3c ba b7 df bd 69 9b 02 bd
       -0.057410687 0.015165798 -0.10923715 -0.031886492
000390 f8 3c 83 bc 06 7b 4b bd 02 52 54 bd c7 13 3a 3c
       -0.016020283 -0.04967787 -0.05183602 0.011357254
0003a0 f2 9d 83 3c e4 34 84 bc 24 0c bd 3c 07 92 52 bd
       0.016066525 -0.016138501 0.023077078 -0.051408794
0003b0 c2 67 e0 3a 14 3b d1 3c 8a f7 2e 3d 5a 16 2b 3d
       0.0017120766 0.025540866 0.04271654 0.041769363
0003c0 c0 38 fb bb 76 51 d9 bc f0 6a d5 3c a0 f8 6a 3d
       -0.0076666772 -0.026528101 0.026051968 0.057366014
0003d0 04 1f 32 3c da 1b 2c bd 71 03 4b 3d 00 e5 2d bd
       0.0108716525 -0.04201875 0.04956383 -0.04245472
0003e0 fb d1 e6 3c 93 28 bc bb b2 7b 47 bc be 43 0e bd
       0.028176298 -0.0057421415 -0.012175487 -0.034732573
0003f0 60 ec 4e 3d d3 05 03 bd d0 e4 75 bd 5f 5f 0c 3c
       0.050518394 -0.031987976 -0.060032666 0.00856766

fc2.bias f4 [128]
000000 27 83 68 bd eb f6 d8 bc 21 bb 54 bb cc 80 72 bc
       -0.0567657 -0.026484927 -0.003246017 -0.014801215
000010 80 6c 84 3d 67 f3 c5 3b d1 eb 16 3d 0d f3 be bb
       0.06466007 0.0060409787 0.036845986 -0.0058273138
000020 63 10 93 3d 1d 52 3d 3c 42 9e 86 bc fa 51 97 3c
       0.0718086 0.011555222 -0.016432885 0.018471707
000030 25 bb cb 3c 0b e5 35 3d 10 e0 52 3c a6 e5 93 bb
       0.02486951 0.044407886 0.0128708035 -0.00451346
000040 5c 33 1e bd d8 2a ed 3b 96 88 87 bd e5 39 0d 3d
       -0.0386232 0.0072377734 -0.066178486 0.03447904
000050 e1 46 79 bd c9 e9 23 bd b4 1f 2c 3b 8b d1 8e 3d
       -0.06085861 -0.040017877 0.0026264014 0.06973561
000060 47 33 9f bc 83 1d de 3b 9e fb 37 3c d7 29 ee bc
       -0.01943363 0.0067784204 0.011229424 -0.029072685
000070 48 ed 9f bd 22 08 84 bd b0 77 17 3c da fd 9c 3d
       -0.0780893 -0.06446864 0.009244844 0.07665606
000080 24 2c 2f 3d 8a 11 51 3c 59 ca f3 3c 60 a6 98 bd
       0.042766705 0.012760529 0.029759573 -0.074536085
000090 29 6c 53 bc 81 47 1c 3c 06 6c 0e 3d 41 14 ee bc
       -0.012904205 0.009538532 0.034770988 -0.029062392
0000a0 22 64 c4 3c 50 04 13 bd 81 98 c5 bc ce 5f 0b 3d
       0.023973528 -0.035892785 -0.024120571 0.034026913
0000b0 cb 60 6f bd af 45 f6 3c 2b 5b 7c 3b a0 26 49 38
       -0.05844192 0.030062525 0.0038506489 4.7958107e-05
0000c0 24 ad b4 bc 85 19 42 bd 0e f7 8a bc fd 95 06 bd
       -0.022055216 -0.04738762 -0.016963508 -0.032857884
0000d0 27 79 fd bc 2b 7c 3c bd c7 a0 0f bd 71 12 0f 3c
       -0.030941559 -0.046016853 -0.03506544 0.008732424
0000e0 dc f3 21 bd ec 33 b0 bb 99 f8 49 bc 9e 82 8c bd
       -0.039539203 -0.0053772833 -0.012327337 -0.06860851
0000f0 ab fb ee 3c 87 7b 36 bd f2 26 94 3c 2f 49 19 bc
       0.029172739 -0.0445514 0.018084977 -0.009355827
000100 06 1a 88 3b 1e 28 7e 3d 39 ab 9c 3d d6 e2 5a bd
       0.004153493 0.062049977 0.07649846 -0.053438984
000110 8b f2 22 3d 45 8b 7e bd 60 38 d5 3b 58 29 e4 bc
       0.03978209 -0.062144537 0.0065069646 -0.027851745
000120 80 7e 85 bd 95 54 a4 3b 8f 1d 1c 3d 90 db 96 3c
       -0.065182686 0.005014966 0.038114127 0.018415242
000130 d8 79 77 3b 39 81 39 3d 61 99 c4 b9 7d 64 bd bc
       0.0037761834 0.045289252 -0.0003749831 -0.023119206
000140 dd c2 60 bd db 27 5d bd 4b 3f 97 3d ac ff c4 bc
       -0.054873336 -0.053993087 0.07385119 -0.024047695
000150 03 81 83 bb d3 71 fa bc e3 93 03 bb 9f d0 8f bd
       -0.004013182 -0.030571854 -0.002007716 -0.07022213
000160 0a 17 84 3d c7 7c 71 3c a8 fc 90 3d da 16 24 bc
       0.06449707 0.014739222 0.0707944 -0.010015214
000170 21 be 05 3d 22 77 32 3d 4c dd 80 3c e2 db 30 bd
       0.032652024 0.043570645 0.015730523 -0.043178447
000180 b8 5a 19 3c a1 de ea b7 30 02 94 bd bb b6 38 3d
       0.009360008 -2.7998643e-05 -0.0722698 0.04509614
000190 2f c3 82 bc b8 46 b6 bc 86 23 58 bc 32 3b 74 bd
       -0.015962211 -0.022250518 -0.013192063 -0.059626766
0001a0 b1 2e 06 3c 14 e3 7f bd 5e 1b 2b 3d 9d e3 49 3c
       0.008189843 -0.062472418 0.041774146 0.012322334
0001b0 1e 56 38 bc 77 f1 e8 bb 96 11 9a 3c b2 7e 68 3b
       -0.011251001 -0.007108863 0.018807214 0.0035475907
0001c0 58 5b 1a bd 7b f7 a1 bd ad 5d 76 3d 11 87 99 3c
       -0.03768477 -0.07908531 0.06014793 0.018741162
0001d0 54 3f de ba c6 ff 5d bc b3 ed 14 bc 87 a3 5e bd
       -0.0016956129 -0.013549751 -0.009089875 -0.05435517
0001e0 7d 64 05 3d cb 95 96 bc 7f 54 85 bb d7 e2 1b 3d
       0.032566536 -0.018381974 -0.0040689106 0.03805813
0001f0 7f 64 0d 3d 8a 9e 0d 3c 2d 4c 34 bd f5 ca 13 bd
       0.03451967 0.008643756 -0.04401796 -0.036082227

norm2.weight f4 [128]
000000 00 00 80 3f 00 00 80 3f a5 71 16 40 00 00 80 3f
       1.0 1.0 2.3506863 1.0
000010 eb 08 17 40 49 39 7d 3f f2 df 7c 3f 00 00 80 3f
       2.3599193 0.98915535 0.98779213 1.0
000020 82 03 17 40 00 00 80 3f 06 7f 7d 3f ee 54 81 3f
       2.359589 1.0 0.9902195 1.0104043
000030 00 00 80 3f 92 ac 1d 40 54 c7 1c 40 bd 22 7e 3f
       1.0 2.4636579 2.449666 0.99271756
000040 8a cd 7d 3f 00 00 80 3f 00 00 80 3f 72 2e 7e 3f
       0.9914175 1.0 1.0 0.9928962
000050 02 44 7d 3f fe 0b 7e 3f d0 11 24 40 2d da 1a 40
       0.98931897 0.9923705 2.5635872 2.4195664
000060 00 00 80 3f 27 2f 7d 3f 52 2f 7d 3f 00 00 80 3f
       1.0 0.98900074 0.9890033 1.0
000070 00 00 80 3f 00 00 80 3f 79 52 82 3f e6 75 16 40
       1.0 1.0 1.0181419 2.350946
000080 1e 9a 7d 3f 00 00 80 3f 06 c6 81 3f 00 00 80 3f
       0.9906329 1.0 1.0138557 1.0
000090 b9 a3 1a 40 41 a5 1b 40 66 6e 16 40 3f 82 1b 40
       2.4162428 2.4319613 2.3504882 2.4298246
0000a0 00 00 80 3f 94 2c 1b 40 00 00 80 3f 27 9f 1a 40
       1.0 2.4245958 1.0 2.415964
0000b0 00 00 80 3f e3 76 7e 3f ab 62 7e 3f 76 b0 7c 3f
       1.0 0.99400157 0.99369305 0.9870676
0000c0 c3 0f 7e 3f 00 00 80 3f 00 00 80 3f 00 00 80 3f
       0.992428 1.0 1.0 1.0
0000d0 00 00 80 3f 9d d1 7d 3f 76 ef 82 3f ef 6f 18 40
       1.0 0.9914797 1.0229328 2.381832
0000e0 ce 08 18 40 d3 0b 7d 3f 98 d3 16 40 00 00 80 3f
       2.3755374 0.9884617 2.3566647 1.0
0000f0 bc ee 7c 3f 00 00 80 3f 55 6f 14 40 a3 3a 1b 40
       0.9880178 1.0 2.3192952 2.425454
000100 6b 79 1c 40 76 5d 1f 40 cd e1 1a 40 00 00 80 3f
       2.4449108 2.4900794 2.4200318 1.0
000110 00 00 80 3f 00 00 80 3f 00 00 80 3f 00 00 80 3f
       1.0 1.0 1.0 1.0
000120 00 00 80 3f 2a d7 7d 3f 1e e7 7d 3f 59 bf 7d 3f
       1.0 0.9915644 0.9918078 0.991201
000130 00 00 80 3f 51 fe 1e 40 08 03 7e 3f 00 00 80 3f
       1.0 2.4842722 0.99223375 1.0
000140 f6 e5 7c 3f a1 74 7d 3f e8 f3 1f 40 e9 51 82 3f
       0.9878839 0.99006087 2.4992619 1.0181247
000150 08 b9 7d 3f e1 b8 7d 3f 45 f4 7d 3f 00 00 80 3f
       0.9911046 0.9911023 0.9920085 1.0
000160 7d 43 1b 40 e2 76 7e 3f 64 e3 1a 40 df b9 7e 3f
       2.4259942 0.9940015 2.4201288 0.99502367
000170 97 56 7d 3f 04 5d 1c 40 00 00 80 3f 0f 88 7d 3f
       0.9896025 2.4431772 1.0 0.99035734
000180 be 1a 7d 3f 08 0d 7e 3f 98 31 7d 3f c2 60 17 40
       0.9886893 0.99238634 0.989038 2.3652806
000190 00 00 80 3f 6e fa 7d 3f 7e b5 15 40 1e b6 7d 3f
       1.0 0.9921025 2.3392024 0.99106014
0001a0 50 7d 1b 40 00 00 80 3f e4 58 18 40 e1 ab 7d 3f
       2.4295235 1.0 2.3804255 0.9909039
0001b0 e6 76 7e 3f 20 95 7f 3f 72 19 19 40 aa 3f 1e 40
       0.99400175 0.9983692 2.392178 2.4726357
0001c0 00 00 80 3f 00 00 80 3f 06 a6 20 40 57 58 7d 3f
       1.0 1.0 2.5101333 0.9896292
0001d0 0c ca 14 40 82 a6 17 40 00 00 80 3f d3 94 7c 3f
       2.324832 2.3695378 1.0 0.9866459
0001e0 54 95 82 3f 00 00 80 3f 93 10 7e 3f e1 0b 1e 40
       1.0201821 1.0 0.9924404 2.469475
0001f0 54 ca 1f 40 83 5d 1a 40 cd c5 80 3f 22 24 7e 3f
       2.4967241 2.4119575 1.0060364 0.99273884

norm2.bias f4 [128]
000000 00 00 00 00 00 00 00 00 27 e6 b2 3f 00 00 00 00
       0.0 0.0 1.3976487 0.0
000010 8c 1c b3 3f cf eb 51 bc f6 6b 75 bc 00 00 00 00
       1.3993087 -0.012812569 -0.014979353 0.0
000020 07 93 b2 3f 00 00 00 00 62 8b 1d bc a0 3a 40 3c
       1.3951119 0.0 -0.009615751 0.011732727
000030 00 00 00 00 f4 93 b8 3f 5e 40 b7 3f 3c ea dc bb
       0.0 1.4420152 1.4316518 -0.00674179
000040 dc 55 e8 bb 00 00 00 00 00 00 00 00 79 f1 09 bc
       -0.0070903134 0.0 0.0 -0.008419388
000050 03 3d 8c bc cc fa 07 bc cc 5f c9 3f 98 bf b5 3f
       -0.017118936 -0.008299541 1.573236 1.4199095
000060 00 00 00 00 95 a2 4a bc 7e 2a 59 bc 00 00 00 00
       0.0 -0.012367864 -0.01325476 0.0
000070 00 00 00 00 00 00 00 00 11 8f d3 3c 71 1d b2 3f
       0.0 0.0 0.025825055 1.3915235
000080 25 5a 28 bc 00 00 00 00 1e 01 89 3c 00 00 00 00
       -0.010275398 0.0 0.016724166 0.0
000090 2f 71 b5 3f 52 5c b6 3f 51 2e b2 3f b7 3e b6 3f
       1.4175166 1.4246924 1.3920385 1.4237889
0000a0 00 00 00 00 a4 01 b6 3f 00 00 00 00 3b 82 b5 3f
       0.0 1.4219251 0.0 1.4180368
0000b0 00 00 00 00 f3 c8 c4 bb 7e 1b 08 bc fa 56 7d bc
       0.0 -0.0060054003 -0.008307336 -0.015462631
0000c0 87 6f 08 bc 00 00 00 00 00 00 00 00 00 00 00 00
       -0.008327371 0.0 0.0 0.0
0000d0 00 00 00 00 47 96 1a bc ff 69 cd 3c 4d ce b3 3f
       0.0 -0.009435243 0.025074957 1.4047333
0000e0 6a 76 b3 3f 3f 96 60 bc b7 74 b2 3f 00 00 00 00
       1.4020512 -0.013707696 1.3941869 0.0
0000f0 ed 63 5d bc 00 00 00 00 01 3a b1 3f 0b 0e b6 3f
       -0.013512594 0.0 1.3845826 1.4223036
000100 5a 27 b7 3f 14 d0 b9 3f 93 c2 b5 3f 00 00 00 00
       1.4308884 1.4516625 1.4200004 0.0
000110 00 00 00 00 00 00 00 00 00 00 00 00 00 00 00 00
       0.0 0.0 0.0 0.0
000120 00 00 00 00 cf 6b 28 bc 71 e1 da bb c8 10 20 bc
       0.0 -0.01027961 -0.0066797067 -0.009769626
000130 00 00 00 00 fb b6 b9 3f 87 61 08 bc 00 00 00 00
       0.0 1.4508966 -0.008324034 0.0
000140 37 ab 6f bc 82 58 39 bc e3 c0 ba 3f e2 40 07 ba
       -0.014628223 -0.011312606 1.4590114 -0.00051595096
000150 c8 00 2a bc 38 83 23 bc 51 6e 11 bc 00 00 00 00
       -0.010376163 -0.009980015 -0.008876399 0.0
000160 4a 70 bb 3f f1 c3 c4 bb 79 b6 b5 3f 30 4d 23 bc
       1.4643643 -0.0060048033 1.4196311 -0.009967133
000170 76 e5 42 bc 84 f4 b6 3f 00 00 00 00 4b 69 32 bc
       -0.011895528 1.429337 0.0 -0.010889362
000180 4b 3f 57 bc 87 d1 0d bc b0 6c 53 bc 98 18 b3 3f
       -0.013137649 -0.008655912 -0.012904331 1.399188
000190 00 00 00 00 68 f8 09 bc 04 d4 b1 3f 2a ce 29 bc
       0.0 -0.008421041 1.3892827 -0.010364095
0001a0 e1 61 b6 3f 00 00 00 00 1f ff b3 3f 3e 45 29 bc
       1.424862 0.0 1.4062232 -0.01033145
0001b0 0d c8 c4 bb 5e 00 19 bc 0e 5e b4 3f 97 d2 b8 3f
       -0.006005293 -0.009338466 1.4091203 1.4439267
0001c0 00 00 00 00 00 00 00 00 ca fb bc 3f 86 c5 3d bc
       0.0 0.0 1.476434 -0.011582738
0001d0 ad 07 b1 3f 8d 0b b3 3f 00 00 00 00 cf 79 88 bc
       1.3830467 1.39879 0.0 -0.016659645
0001e0 c5 0c a7 3c 00 00 00 00 48 e1 0a bc 54 29 be 3f
       0.020391831 0.0 -0.008476563 1.4856362
0001f0 5c d6 c4 3f eb a7 b8 3f c9 e9 ff 3b 46 88 f7 bb
       1.5377917 1.4426244 0.007809852 -0.007554087

fc3_value.weight f4 [1, 128]
000000 59 bf 5b bd ea 4c 5d 3d 52 9d 92 3f d2 e5 44 bd
       -0.05364928 0.05402843 1.145426 -0.048070736
000010 07 a6 94 3f aa fd e8 bc db 10 92 bc f5 69 9b 3d
       1.1613168 -0.028441269 -0.017830303 0.07588569
000020 fc a1 95 3f 94 43 8f bd 51 60 92 bd 41 79 17 3c
       1.1690059 -0.069953114 -0.07147277 0.009245218
000030 5e 86 7b 3d f0 63 9d 3f 62 59 9e 3f 84 38 91 bd
       0.06140744 1.2296124 1.2371027 -0.070908576
000040 e7 cd 05 bd 45 18 94 bd e0 a4 3d bb 2f b3 f1 bb
       -0.032667067 -0.072311915 -0.0028937384 -0.0073760967
000050 0b 98 c7 bc 61 d4 5a bd 35 03 b2 3f ac 00 99 3f
       -0.024364492 -0.053425197 1.3907229 1.195333
000060 84 e8 ea 3c ba dd a4 bb 3d 89 90 bd 78 a9 6c bd
       0.028675325 -0.0050313147 -0.07057426 -0.057778805
000070 48 66 38 bc 00 9f 30 3b 2d d8 13 3d 87 db 94 3f
       -0.0112548545 0.002695024 0.036094833 1.1629494
000080 4a e7 48 bd 10 c8 45 bc c6 03 89 3c eb 62 a8 3d
       -0.0490487 -0.012071624 0.016725432 0.08221992
000090 58 8c 99 3f ec b4 9a 3f 20 3d 95 3f db 46 9b 3f
       1.1995955 1.2086463 1.1659279 1.2130998
0000a0 e4 d3 81 3c 3c a7 99 3f 20 f3 94 3c c2 9b 98 3f
       0.015848108 1.2004161 0.018182337 1.1922534
0000b0 ca 2e 2f 3d ae 9c 91 bd e9 f8 56 bd 15 e5 4f bc
       0.04276923 -0.071099624 -0.052483473 -0.012688895
0000c0 be 4f 81 bc 6a e2 40 3d a0 ff cc 3c f0 9d 81 bc
       -0.015785094 0.047090925 0.025024235 -0.01582238
0000d0 f0 15 27 3c bf fe bd 3b 35 cb 19 3d ed 50 96 3f
       0.010198101 0.0057981904 0.03754731 1.1743447
0000e0 77 ff 95 3f e1 2f 00 bd 82 39 95 3f c6 9b 8e bd
       1.1718587 -0.03129566 1.1658175 -0.06963305
0000f0 44 91 bb bb 2c 46 47 bd 45 ad 91 3f df 91 9a 3f
       -0.005724104 -0.048650905 1.1381003 1.2075766
000100 30 42 9b 3f 24 72 9f 3f a4 11 99 3f 98 ca ae bd
       1.2129574 1.2456708 1.1958508 -0.085347354
000110 40 c0 d2 bb f2 ea b0 bd 9c 0a 76 bd 8c 29 89 3c
       -0.0064316094 -0.08638562 -0.06006871 0.016743444
000120 79 2b 88 3d a5 d2 74 bd 14 9f d7 bc c7 8a 81 bd
       0.06648917 -0.0597712 -0.026320972 -0.06325298
000130 40 36 a9 bb 11 6c 9e 3f 38 f0 9e ba 16 e9 a3 bd
       -0.005163938 1.2376729 -0.0012126034 -0.08003442
000140 dc f7 8a bd 8d 94 96 bd 5e 54 a0 3f 2c 4b 31 3c
       -0.06785557 -0.073525526 1.2525747 0.010821145
000150 41 ba c1 bb ff b7 dd bc 1e f7 db bc 64 c9 9f 3c
       -0.005912096 -0.027065275 -0.026851233 0.01950521
000160 24 8a a4 3f 94 c4 98 3c 6b db 99 3f 18 c6 39 bc
       1.2854657 0.018648423 1.2020086 -0.011338733
000170 08 a5 49 bd 09 a0 9a 3f a0 6b 6b 3b bc 3a 7f bd
       -0.04922965 1.2080089 0.0035922304 -0.062311873
000180 d6 ee 4a bd d1 4b a6 bb 8c 3b 91 bd df 88 96 3f
       -0.049544178 -0.005074956 -0.07091436 1.176052
000190 aa 22 06 bd 7e c7 83 bd e2 fa 92 3f 1a 8b 79 bd
       -0.032747902 -0.064345345 1.1482813 -0.060923673
0001a0 ac 02 9b 3f ac 84 90 bd 4d 73 98 3f ed 31 0d bd
       1.211019 -0.07056555 1.1910187 -0.03447144
0001b0 c0 f1 27 3c b8 a6 e1 3b a4 b3 96 3f 71 9a 9d 3f
       0.010250509 0.0068863295 1.1773572 1.2312757
0001c0 37 9a 84 3d d3 c2 8a bd aa b5 a1 3f 9c 4d 03 3c
       0.06474727 -0.06775441 1.2633564 0.008014109
0001d0 5b 7b 92 3f a1 1d 97 3f a8 02 03 3d 54 3b 80 bd
       1.1443895 1.1805917 0.031984955 -0.06261316
0001e0 dd 5f e7 3c 95 42 ac bd d1 e1 f4 bc 80 b7 a4 3f
       0.028243953 -0.08411137 -0.029892834 1.28685
0001f0 c9 aa af 3f 1f db 9f 3f ab 4a cb 3b 99 10 3b bc
       1.3723994 1.2488745 0.0062039695 -0.011417531
